mutiltask/log/data_cell3_ete_04121025/EMNIST_98625.pt (torch, 4007 bytes, 2 tensors)

weight f4 [3, 196]
0	0x3e3dfb0f	0.18552803
1	0x3e8c5b4b	0.274134
2	0x3e4fc488	0.20289814
3	0x3e5dd9f2	0.21665171
4	0x3e835248	0.25648713
5	0x3e3aef6c	0.18255395
6	0x3e5686b3	0.20949821
7	0x3c3af899	0.011411809
8	0x3d87ba76	0.066273615
9	0x3d47c4bc	0.048771605
10	0xbd04ae05	-0.03239252
11	0x3d8258e7	0.06364613
12	0x3da31552	0.07963051
13	0x3d0aa463	0.033848178
14	0x3ca4e932	0.020130727
15	0xbdbbbd49	-0.09166963
16	0xbc253acb	-0.010084818
17	0xbda2a2db	-0.079412185
18	0xbdae088f	-0.08497726
19	0xbe344f62	-0.17608407
20	0xbda98af8	-0.08278459
21	0xbd295169	-0.041337404
22	0x3d7ec961	0.06220377
23	0x3dc737ef	0.09727465
24	0x3e02e303	0.1278191
25	0x3e4b2f28	0.19842207
26	0x3e8dc3a0	0.27688313
27	0x3e44aef9	0.19207372
28	0x3e9c12b5	0.30483022
29	0x3e780489	0.2422048
30	0x3e9362a8	0.28786206
31	0x3e27caf5	0.16386016
32	0x3db28084	0.08715919
33	0xbd239f1e	-0.039946668
34	0xbe497b74	-0.19676
35	0xbea1e6fc	-0.3162154
36	0xbe89a847	-0.26886198
37	0xbebf6361	-0.37380508
38	0xbe9de6dd	-0.30840197
39	0xbe645ae5	-0.22300299
40	0xbe2ad0f2	-0.16681269
41	0x3c1e6916	0.009668609
42	0x3da0f51b	0.0785925
43	0x3e069b23	0.13145117
44	0x3e02cfe0	0.1277461
45	0x3e234076	0.15942559
46	0xbd7cf0d0	-0.061753094
47	0x3c1afba1	0.009459407
48	0xbb057a5c	-0.0020367121
49	0x3e015d94	0.12633353
50	0x3dac785b	0.084213935
51	0x3e6b3cdb	0.22972433
52	0x3e82ea82	0.2556954
53	0x3e4925e5	0.19643362
54	0x3e4a9a49	0.19785418
55	0x3e806c0b	0.2508243
56	0x3e9dd7d5	0.3082873
57	0x3e494499	0.19655074
58	0x3e677c2b	0.2260596
59	0x3e6b1872	0.22958544
60	0x3e113932	0.14181975
61	0xbcc80c11	-0.024419816
62	0xbde5d8a2	-0.1122296
63	0xbe3208b0	-0.17386127
64	0xbeab66d4	-0.3347689
65	0xbea237b8	-0.31683135
66	0xbecb7c4d	-0.3974327
67	0xbec894f1	-0.39176133
68	0xbed0b8ab	-0.4076589
69	0xbe6774fb	-0.22603218
70	0xbcb80429	-0.022462921
71	0x3e3b1786	0.18270692
72	0x3ebe7acf	0.3720307
73	0x3f1e50af	0.61841863
74	0x3f00b947	0.5028271
75	0x3ea15298	0.31508327
76	0x3e01b093	0.12665014
77	0x3e15311e	0.14569518
78	0x3d680d2e	0.056653194
79	0x3e590414	0.21192962
80	0x3e0f7851	0.14010741
81	0x3da86e12	0.08224119
82	0x3e51f511	0.20503642
83	0x3e900189	0.2812617
84	0x3e932463	0.28738698
85	0x3e813482	0.25235373
86	0x3dc6afbf	0.0970149
87	0xbda8f5a5	-0.08249978
88	0xbcb14f89	-0.02164437
89	0xbe130bef	-0.14360021
90	0xbd004feb	-0.031326216
91	0xbe130964	-0.14359051
92	0xbe1280e9	-0.14306988
93	0xbcb7c48c	-0.022432588
94	0x3d084d48	0.033276826
95	0x3d14ac87	0.036297347
96	0x3da73f8b	0.08166417
97	0x3d8b1802	0.067916885
98	0x3ddc5e35	0.10760156
99	0x3e3a48a8	0.18191779
100	0x3e05d235	0.13068469
101	0x3ea9d65b	0.33171353
102	0x3eb44c2a	0.3521436
103	0x3e88f0ad	0.2674612
104	0x3e4e5af7	0.20151888
105	0x3e06d23a	0.13166133
106	0x3e2603f4	0.16212445
107	0x3d337b5f	0.043818828
108	0xbba857c8	-0.0051374175
109	0x3ccef8f9	0.025265204
110	0x3e4b194b	0.19833867
111	0x3e4b9c07	0.19883738
112	0x3e91048b	0.2832378
113	0x3e95436f	0.2915301
114	0x3d3f2252	0.04666359
115	0xbe8fd60a	-0.28092986
116	0xbebc07a1	-0.3672457
117	0xbec9fb2b	-0.39449438
118	0xbecb99ff	-0.39765927
119	0xbe8ec617	-0.27885506
120	0xbd967618	-0.07346743
121	0x3dc600ff	0.09668159
122	0x3ea046d4	0.31304038
123	0x3e58d327	0.21174298
124	0x3c8e3951	0.017361315
125	0xbe171846	-0.14755353
126	0xbecee4c6	-0.40408915
127	0xbef463c8	-0.47732377
128	0xbedfceb2	-0.43712384
129	0xbed2bd40	-0.4116001
130	0xbe7918bd	-0.24325843
131	0xbdf1faac	-0.1181539
132	0x3c99fcc8	0.018797293
133	0x3e5f5bc5	0.21812351
134	0x3e87457a	0.26420194
135	0x3e0e2bfc	0.13883966
136	0x3de21a43	0.11040165
137	0x3db9614e	0.090517625
138	0x3e37f198	0.17963254
139	0x3e99f503	0.30069742
140	0x3e4457c9	0.19174112
141	0x3e6db60b	0.23213975
142	0x3cdfe8cc	0.027332686
143	0xbe9c4f98	-0.30529475
144	0xbed89d4b	-0.42307505
145	0xbf08a830	-0.53381634
146	0xbf261181	-0.6487046
147	0xbf1a78dd	-0.6034067
148	0xbedfed3d	-0.43735686
149	0xbedf509b	-0.43616185
150	0xbe18dea2	-0.14928678
151	0xbe4cc786	-0.19997987
152	0xbebaec82	-0.36508566
153	0xbf0fd54b	-0.56184834
154	0xbf27305a	-0.65308154
155	0xbf149d9b	-0.58052987
156	0xbf04cbbd	-0.5187338
157	0xbe8a6648	-0.2703116
158	0xbe6dfa65	-0.23240049
159	0xbd363367	-0.044482615
160	0xbd66499d	-0.056222547
161	0xbd0ddbe2	-0.034633525
162	0xbc059437	-0.008153013
163	0x3bc93850	0.006140746
164	0x3e3766cf	0.17910312
165	0x3e051617	0.12996708
166	0x3e4d11ab	0.20026271
167	0x3e6d0141	0.2314501
168	0x3e811b81	0.25216296
169	0x3e8973aa	0.26846057
170	0x3e46fc05	0.19432075
171	0x3e06523d	0.13117309
172	0x3d885fde	0.0665891
173	0xbdad21b1	-0.08453692
174	0xbe0a5ee5	-0.13512762
175	0xbde54336	-0.1119446
176	0xbdbe71c7	-0.09299045
177	0xbe051dba	-0.12999621
178	0xbd2d2d0e	-0.042279296
179	0xbcba54a3	-0.022745436
180	0xbd266cbf	-0.040631052
181	0xbd54139a	-0.051776506
182	0xbd64be4f	-0.055845555
183	0xbde3c483	-0.11121466
184	0xbc5a4cc9	-0.013323971
185	0xbdd0559f	-0.10172581
186	0x3b9d0e97	0.004792999
187	0x3d580ff3	0.052749585
188	0x3ddae264	0.10687712
189	0x3d3f5d12	0.04671962
190	0x3db693b8	0.08914894
191	0x3dd9f0a5	0.106416024
192	0x3e1987bb	0.14993183
193	0x3e5ff637	0.21871267
194	0x3e628299	0.22120132
195	0x3e92bb71	0.2865863
196	0xbd96f726	-0.073713586
197	0xbdbec25c	-0.09314415
198	0xbe2bebe2	-0.16789201
199	0xbe292ef5	-0.16521819
200	0xbdaa8f0b	-0.083280645
201	0x3bffee2b	0.0078103743
202	0x3d88094f	0.066424005
203	0xbc5a95a4	-0.013341341
204	0x3c8b3ac4	0.016995795
205	0x3d720b63	0.05909289
206	0x3dfc6fd7	0.12326019
207	0x3d3d5b30	0.04622954
208	0x3c14f010	0.0090904385
209	0x3e46ab5b	0.19401304
210	0x3e08deb3	0.13366203
211	0x3e1be01a	0.15222207
212	0x3de7e52e	0.113230094
213	0x3d814f4e	0.06313954
214	0x3d221bd7	0.03957733
215	0x3d80a626	0.0628169
216	0x3e02d0b4	0.12774926
217	0x3e06ec10	0.13175988
218	0x3d9d8fe8	0.076934636
219	0x3c5f276e	0.013620241
220	0x3d7e66ee	0.06210988
221	0xbd7abafd	-0.061213482
222	0xbdcdc3b0	-0.1004709
223	0xbda5bd26	-0.08092718
224	0xbdcc5b1c	-0.09978315
225	0xbd869ca5	-0.06572846
226	0xbcaabac8	-0.020841017
227	0x3c86f2f0	0.016473264
228	0x3d5deb5a	0.054179527
229	0xbccfc9b6	-0.025364738
230	0x3d7ac34b	0.061221402
231	0x3c9d5e63	0.019210046
232	0x3df71028	0.120636284
233	0x3d814a2e	0.06312977
234	0x3e1cb61a	0.15303841
235	0x3e59769c	0.21236652
236	0x3e442c0b	0.19157426
237	0x3ea03e86	0.31297702
238	0x3ed1e38d	0.4099392
239	0x3ed081e8	0.4072411
240	0x3ecacafe	0.39607996
241	0x3e44431c	0.19166225
242	0x3d4f4192	0.050599642
243	0xbda1fbde	-0.07909368
244	0xbe32b330	-0.17451167
245	0xbdfe361a	-0.12412663
246	0xbdd3174d	-0.10307179
247	0xbdf93842	-0.121689335
248	0x3da349c6	0.079730555
249	0xbd94eff6	-0.072723314
250	0xbd8bfc68	-0.06835252
251	0xbdaa34ce	-0.08310853
252	0xbe3a6bc2	-0.18205169
253	0xbdbe0e55	-0.09280077
254	0xbd97896e	-0.073992595
255	0xbddcbca2	-0.10778166

bias f4 [3]
0	0x3e46d201	0.19416048
1	0xbdf06e96	-0.117398426
2	0xbe2fc906	-0.17166528
