mutiltask/log/data_cell3_ete_04121025/EMNIST_97750.pt (torch, 4007 bytes, 2 tensors)

weight f4 [3, 196]
000000 9b 3a 8a 3d c1 d8 1f 3e 99 5c b1 3d 4a 3e d3 3d
       0.06749459 0.15610029 0.0866024 0.10314615
000010 e2 3c 14 3e 08 a2 bf 3d b3 6a 1f 3e 7e 12 26 bc
       0.1447635 0.09357077 0.15568046 -0.010136245
000020 9e 32 6d 3d fc 69 81 3d 91 26 39 bc 10 39 9c 3d
       0.0579096 0.06319043 -0.011300699 0.07628071
000030 65 3e a3 3d 46 a5 fc 3c fc 72 be 3c c6 b6 73 bd
       0.07970885 0.030840527 0.023248188 -0.05950048
000040 e5 6c 2f 3d 14 df 41 bc 78 bb 30 3c cf 1d ab bd
       0.04282846 -0.011832971 0.0107868835 -0.08355295
000050 e4 cd 19 bd 9b c6 2d bc 44 6f 16 3d e4 83 39 3d
       -0.03754987 -0.010606433 0.036727205 0.045291796
000060 c1 13 82 3d d1 93 cc 3d 91 99 22 3e 53 a2 97 3d
       0.06351424 0.09989131 0.15878893 0.07404008
000070 f3 47 3f 3e 2d 4b fe 3d 81 cf 22 3e 4f 31 aa 3d
       0.1867979 0.124166824 0.15899469 0.08310186
000080 e6 ad 72 3d 7c e5 71 bc 01 9d 8d bd d7 da 1a be
       0.059247874 -0.014764186 -0.06914712 -0.15122543
000090 7c 0b bf bd d4 51 42 be bb 16 17 be 19 c7 ea bd
       -0.09328362 -0.18976527 -0.14754765 -0.11463756
0000a0 2f cd f9 bd 3d db 04 bd 8e c0 7c bc 74 3a 11 3c
       -0.12197339 -0.032435644 -0.015426768 0.008864034
0000b0 6e d3 98 3c ba 4e 8f 3d 4c b6 5e bd 4c 4a 23 3c
       0.018655505 0.06997438 -0.05437307 0.009966444
0000c0 ac 75 f2 bc b9 0f 25 3d 0b de 94 bc 17 2c de 3d
       -0.029597126 0.040298197 -0.018172285 0.10848253
0000d0 05 50 45 3e f0 c6 28 3e 64 f0 ab 3d 3b fa 07 3e
       0.19268806 0.16482139 0.0839546 0.13279049
0000e0 1d d2 42 3e be 57 a0 3d 76 ea 47 3e bc 42 1b 3e
       0.19025464 0.078292355 0.19523033 0.15162176
0000f0 62 82 bc 3d cd ed 4a bd b1 9e cf bd 3a 74 c7 bd
       0.09204556 -0.04954319 -0.1013769 -0.09738965
000100 47 c6 5b be b5 11 41 be 25 08 80 be bd 31 83 be
       -0.21462356 -0.18854411 -0.25006214 -0.25623885
000110 5b 6f 77 be b9 8d d6 bd 05 32 ca 3c 59 c2 f9 3d
       -0.24163572 -0.1047625 0.024682054 0.12195272
000120 53 a1 4d 3e be a0 b0 3e 23 a6 a5 3e 3f 6d 63 3e
       0.20081072 0.34497637 0.32353315 0.22209643
000130 f3 72 f3 3d d8 42 1b 3e 88 57 f7 3c 73 db 23 3e
       0.11887159 0.15162218 0.030193105 0.16001682
000140 7e 36 ca 3d 47 95 af 3d 89 0d bf 3d 76 25 27 3e
       0.09873675 0.08573394 0.093287535 0.16322884
000150 2b 6b 2d 3e 95 f7 0d 3e 29 73 c9 3d 09 68 50 3c
       0.16935413 0.13863976 0.09836418 0.012720116
000160 f5 4a 27 3d 15 78 a5 bd fd e6 de bb 18 e5 ab bd
       0.04084297 -0.080795445 -0.0068024383 -0.083933055
000170 58 57 6b bd 69 a4 e3 3c 76 2a 1b 3d bc 83 56 3d
       -0.057456344 0.027788358 0.03788229 0.052371725
000180 f2 aa 5b 3d 3e ba 04 3d 2b 3d 85 3d 1d ec 14 3e
       0.053629823 0.032404177 0.065058075 0.14543195
000190 34 ca 9a 3d 7b bd 57 3e f8 96 67 3e fa b1 63 3e
       0.075580984 0.21068375 0.22616184 0.22235861
0001a0 0d bb 45 3e 01 b7 0b 3e 28 ac 01 3e 52 40 1d 3d
       0.19309635 0.13644029 0.12663329 0.03839142
0001b0 55 c4 84 3c 14 34 3a 3d 93 a1 a4 3d 6b 7c a5 3d
       0.0162069 0.04545982 0.0803863 0.080803715
0001c0 7b 2b 29 3e 79 28 39 3e 2a 15 83 3d e4 bb 01 be
       0.16520493 0.18081845 0.06400521 -0.12669331
0001d0 12 af 38 be 25 a6 53 be 54 17 14 be d8 ed b0 bd
       -0.18035534 -0.20668848 -0.14462024 -0.08639115
0001e0 d6 ed 29 3c 86 7c 87 3d 13 41 0a 3e a8 35 32 3d
       0.010371646 0.06615548 0.13501386 0.0435082
0001f0 f5 64 92 bd 43 59 0a be b2 73 9d be d8 04 b8 be
       -0.07148162 -0.13510613 -0.3075233 -0.35941195
000200 cb 62 9b be 6e 1c 91 be 36 03 41 be a3 fd 08 be
       -0.3034881 -0.28342003 -0.18848881 -0.13378005
000210 97 db 3c bd 65 1d eb 3d bf c0 05 3e 98 47 a9 3d
       -0.046107855 0.11480216 0.13061808 0.082656085
000220 f9 98 5a 3d e7 b6 19 3d 7e b8 7b 3d 89 0c 3b 3e
       0.053368542 0.037527945 0.061455242 0.182665
000230 ef f3 96 3d fa 97 e8 3d d6 76 bc 3d ee fe c3 bd
       0.073707454 0.11357112 0.09202354 -0.09570108
000240 13 91 51 be d9 57 85 be 98 f9 98 be 82 c6 84 be
       -0.20465498 -0.26043585 -0.29877925 -0.259327
000250 75 6a 36 be 1c 69 82 be 92 2b ce bd f2 3f 05 be
       -0.17814048 -0.25470817 -0.10066904 -0.13012674
000260 9a 1e 44 be 22 82 93 be 45 41 aa be dd fb 99 be
       -0.19152299 -0.2881022 -0.33252922 -0.3007497
000270 e1 3a c3 be 71 dc 70 be 45 12 77 be ff 0b 79 bd
       -0.3813086 -0.23521592 -0.24128063 -0.060802456
000280 bc b7 60 bd 62 07 0e 3b fe 12 ac 3c 5e 9f 88 3c
       -0.054862723 0.002167188 0.02100515 0.016677555
000290 dc 43 0a 3e 51 28 16 3d 96 0a a8 3d ff 46 e8 3d
       0.13502449 0.036659542 0.08205144 0.113416664
0002a0 22 59 09 3e d4 cb 19 3e 4b 9e ef 3d 49 ef dd 3d
       0.13412908 0.1501916 0.11700114 0.10836656
0002b0 b4 f2 90 3d d7 c0 b9 bb 59 ce b8 bc 1b d3 01 3d
       0.07077542 -0.0056687403 -0.022559332 0.031695466
0002c0 ba ce f7 3b 6d 41 48 bd 4d 7d b5 3b 02 49 5c bc
       0.0075624855 -0.04889052 0.0055386187 -0.013445141
0002d0 ed 3a 48 bd 91 11 54 bd 7e ff 00 bd 98 21 55 bd
       -0.04888432 -0.051774565 -0.031493656 -0.05203399
0002e0 40 4c 10 38 86 52 c1 bd fd fb 3d 3c da b8 77 3d
       3.440329e-05 -0.09439568 0.011595723 0.060479023
0002f0 81 c9 cb 3d 19 ce 7e 3c b3 48 31 3d 58 f5 37 3d
       0.09950543 0.015552067 0.043282222 0.044911712
000300 af 98 67 3d 0c ba fe 3d 83 34 d3 3d 41 99 2c 3e
       0.056542095 0.124378294 0.1031275 0.16855337
000310 cd cb 59 3b 33 f3 83 bc 0b 93 c4 bd c1 12 ca bd
       0.0033233047 -0.016107177 -0.09598359 -0.09866858
000320 a1 ae 0b bd 2c d0 e2 3c 57 41 29 3d a7 ad 60 bd
       -0.034102086 0.027687155 0.04132208 -0.054853108
000330 09 33 ff bc f5 02 2b 3d a6 02 af 3d e3 1b 91 3b
       -0.031152265 0.041750867 0.08545427 0.004428373
000340 fc 87 8e bc 03 65 09 3e d6 a2 96 3d cf 38 01 3e
       -0.017398827 0.13417439 0.07355277 0.12619327
000350 95 00 bd 3d 64 14 88 3d 73 31 16 3d c2 f2 d2 3c
       0.09228627 0.06644514 0.036668252 0.025750522
000360 81 d2 c4 3d d7 72 6a 3d 32 cd f5 3c e7 ca 07 bd
       0.09610463 0.057238426 0.030005071 -0.033152487
000370 de 15 4b 3d 37 ec 7f bc 6f d3 bf bc 67 f2 7e bb
       0.0495814 -0.015620283 -0.02341625 -0.0038901807
000380 53 56 ba bc a9 37 97 3b 21 28 97 3c ca db c6 39
       -0.02274624 0.0046147895 0.018451752 0.00037929259
000390 96 77 85 bb 1f 2c 33 bd 80 1e 2b 3d f3 30 8c 3c
       -0.0040730936 -0.04374325 0.041777134 0.017113185
0003a0 04 11 dc 3d 48 09 25 3d 64 75 10 3e 88 4c 28 3e
       0.10745433 0.040292054 0.14107281 0.16435444
0003b0 35 0e bf 3d 4a cf 2b 3e 15 0f 7a 3e 86 5e 73 3e
       0.09328882 0.16778293 0.24419816 0.23766527
0003c0 a6 ce 7e 3e 25 bd f3 3d 00 03 e4 3d 92 8d 25 3d
       0.24883518 0.11901311 0.11133385 0.040418215
0003d0 4e 25 57 bd f0 46 68 bd 5b 69 a8 bd 00 90 1e be
       -0.05252581 -0.056708276 -0.0822322 -0.15484619
0003e0 87 f8 d6 bc 61 0e ce bd 5c c5 8f 3b 2e f4 c6 bb
       -0.026241554 -0.10061336 0.0043875407 -0.006071589
0003f0 99 11 d7 bd ba 08 a6 bc f4 eb 2c bc 7c f0 c9 bd
       -0.10501403 -0.020267833 -0.0105543025 -0.09860322

bias f4 [3]
000000 61 e8 9b 3d 28 52 25 bd 80 de cf bd
       0.07612682 -0.040361553 -0.101498604
