mutiltask/log/data_cell3_ete_04121025/FMNIST_73075.pt (torch, 4775 bytes, 2 tensors)

weight f4 [4, 196]
-0.26991457 -0.19148013 -0.1275517 -0.105755895 -0.184284 -0.083955534 -0.15811542 -0.1124053
-0.047643624 0.035998378 0.052880935 0.0030275374 0.01352339 -0.028799118 -0.02673387 -0.03683074
-0.041523583 -0.10580066 -0.010067387 -0.052787703 -0.09212209 -0.0761998 -0.03963173 -0.061936058
-0.11036778 -0.0027119736 -0.057760287 -0.15982409 -0.15630673 -0.01695502 0.09736675 0.10765511
0.11656626 0.18789439 0.3501581 0.33899677 0.37821317 0.34590268 0.40148705 0.35518965
0.31374535 0.1577061 0.10107455 0.15736584 0.03908279 0.1589568 0.112216085 0.16885677
0.15708958 0.2763733 0.37035093 0.2541186 0.22630866 0.1489004 0.14198594 0.20620076
-0.066576354 -0.047221933 -0.07876019 -0.087711975 -0.059499975 0.0061142035 0.05697984 0.05710312
0.16734794 0.14011571 0.11407198 0.06460074 -0.010856239 0.09902398 0.08798673 -0.08582195
-0.06920371 -0.013627652 -0.016614852 -0.11158882 0.038154103 0.051315054 -0.019285617 -0.017205367
-0.05943698 -0.07720281 -0.20336382 -0.38167453 0.11366115 0.2061323 0.17355643 -0.0051426324
-0.031664927 -0.05142934 0.0035259025 -0.049250662 -0.0537215 -0.04832312 -0.03604643 -0.075578585
-0.059850704 -0.013057097 -0.071520954 -0.059765175 -0.09458779 -0.12076569 -0.09086159 -0.03112907
-0.11421329 -0.053095277 -0.033015154 -0.112329364 -0.11317856 -0.09418491 -0.19249083 -0.30468166
0.038844947 0.13066517 0.016479822 0.020513697 -0.08983895 -0.06842323 -0.033073984 0.0052890233
-0.07529901 -0.06246883 0.050889906 -0.07713664 -0.049036115 -0.016786909 -0.11212278 -0.13718864
-0.119646706 -0.12470316 -0.16774048 -0.1573785 -0.07912107 0.027527994 -0.025849089 0.00807779
0.019595252 0.014656272 -0.20105146 -0.21625957 -0.24566498 -0.10091671 -0.08381527 -0.03423734
0.007128736 0.031000296 0.044074308 0.1008272 0.10067408 0.19408517 0.17386633 0.097349346
0.1167155 0.03705375 0.015300144 0.04415791 0.053250946 0.05713061 0.087001376 0.06668136
0.193881 0.25334105 0.31259838 0.26385745 0.25003612 0.13507289 0.14978912 0.230111
-0.25192723 -0.19884185 -0.15774398 -0.2767627 -0.25675365 -0.23168679 -0.11547374 -0.092400104
-0.06883266 -0.20109358 -0.17679341 -0.13514915 -0.11281961 -0.08428399 -0.029794056 -0.05318853
-0.17290534 -0.20338926 -0.13235873 -0.102009 0.0044099116 0.041409187 -0.056314968 0.015309913
-0.035843953 -0.031413935 -0.094847545 -0.07036349 0.09573192 0.03930306 0.013342189 0.02146839
0.08887753 0.06253364 0.020278376 -0.03414482 -0.029897783 0.06711412 0.0077178273 -0.055831093
-0.035547845 -0.035348833 -0.055060126 -0.08002833 -0.10930742 -0.12138228 -0.04039398 -0.059673958
-0.009727885 0.0057836217 -0.026159544 0.014494473 0.015627446 -0.07835807 -0.067787245 -0.014840953
0.01958318 0.08551262 -0.028416 0.039471615 -0.060432743 -0.049876794 -0.17742512 -0.17837276
-0.1730683 -0.2177497 -0.21821178 -0.22349308 -0.194349 -0.22718248 -0.18857238 -0.20833845
-0.17185885 -0.17451656 -0.18273376 -0.2129152 -0.23521145 -0.3413233 -0.35185847 -0.26164
-0.28955334 -0.2831763 -0.1897743 -0.31783968 0.20896244 0.34302318 0.27854022 0.24608295
00000000: 3e32 8abe 5e13 44be ea9c 02be 8c96 d8bd
00000010: f2b4 3cbe e1f0 abbd 02e9 21be c034 e6bd
00000020: f625 43bd 0973 133d ae99 583d a669 463b
00000030: 3591 5d3c 21ec ebbc fd00 dbbc d4db 16bd
00000040: a214 2abd 04ae d8bd aef1 24bc eb37 58bd
00000050: 82aa bcbd a40e 9cbd e254 22bd aab0 7dbd
00000060: 8108 e2bd 5ebb 31bb 0d96 6cbd eda8 23be
00000070: df0e 20be 41e5 8abc 3868 c73d 487a dc3d
00000080: 4bba ee3d 6367 403e ec47 b33e fc90 ad3e
00000090: 28a5 c13e 281a b13e b68f cd3e 6bdb b53e
000000a0: 3ba3 a03e b57d 213e 2c00 cf3d 8324 213e
000000b0: 4715 203d 92c5 223e 8cd1 e53d cae8 2c3e
000000c0: 17dc 203e cd80 8d3e a39e bd3e d51b 823e
000000d0: 75bd 673e 5979 183e c364 113e 4b26 533e
000000e0: 2f59 88bd c96b 41bd 064d a1bd 56a2 b3bd
000000f0: 3fb6 73bd a859 c83b b163 693d f6e4 693d
00000100: 425d 2b3e 7e7a 0f3e 929e e93d 654d 843d
00000110: 5ede 31bc 16cd ca3d 6332 b43d 6bc3 afbd
00000120: adba 8dbd 8446 5fbc df1b 88bc ae88 e4bd
00000130: 7a47 1c3d bc2f 523d dffc 9dbc 45f2 8cbc
00000140: 3174 73bd 821c 9ebd 9b3e 50be d86a c3be
00000150: 2dc7 e83d 5814 533e c7b8 313e 8783 a8bb
00000160: 15b3 01bd 92a7 52bd d412 673b 10bb 49bd
00000170: 130b 5cbd 77ee 45bd 6ca5 13bd f2c8 9abd
00000180: 0326 75bd 6fed 55bc 9479 92bd 54cc 74bd
00000190: 3eb7 c1bd 0154 f7bd a415 babd 6402 ffbc
000001a0: a8e8 e9bd 6f7a 59bd e63a 07bd f00c e6bd
000001b0: 29ca e7bd 05e4 c0bd 511c 45be 3cff 9bbe
000001c0: e11b 1f3d 17cd 053e b100 873c 570c a83c
000001d0: 7cfd b7bd 7a21 8cbd 9678 07bd 8b4f ad3b
000001e0: 5e36 9abd 51df 7fbd ef71 503d d1f9 9dbd
000001f0: 18da 48bd b384 89bc a1a0 e5bd 2e7b 0cbe
00000200: 5509 f5bd 5f64 ffbd 29c4 2bbe d427 21be
00000210: 3a0a a2bd 6382 e13c 78c1 d3bc b558 043c
00000220: 3986 a03c dc20 703c 6fe0 4dbe 2673 5dbe
00000230: 9a8f 7bbe 6cad cebd 57a7 abbd 743c 0cbd
00000240: 2c98 e93b 55f4 fd3c 4387 343d 7e7e ce3d
00000250: 362e ce3d 43be 463e 040a 323e 185f c73d
00000260: 8908 ef3d acc5 173d 75ad 7a3c edde 343d
00000270: aa1d 5a3d c901 6a3d c72d b23d 3d90 883d
00000280: be88 463e ebb5 813e e50c a03e 5318 873e
00000290: bc04 803e 8c50 0a3e 5262 193e 38a2 6b3e
000002a0: 9bfc 80be 339d 4bbe a387 21be d7b3 8dbe
000002b0: 3775 83be 4d3f 6dbe 7f7d ecbd 443c bdbd
000002c0: 23f8 8cbd 7aeb 4dbe 5509 35be 8a64 0abe
000002d0: f80d e7bd 169d acbd aa12 f4bc 37dc 59bd
000002e0: 190e 31be 4645 50be 0c89 07be 18ea d0bd
000002f0: 0581 903b ae9c 293d 86aa 66bd 6ed6 7a3c
00000300: 1cd1 12bd e6ab 00bd 6e3f c2bd bc1a 90bd
00000310: 190f c43d 3ffc 203d 3299 5a3c 7ade af3c
00000320: 6c05 b63d a311 803d d61e a63c 70db 0bbd
00000330: 32ec f4bc 2173 893d d4e5 fc3b 25af 64bd
00000340: 9e9a 11bd f0c9 10bd ba86 61bd e5e5 a3bd
00000350: 92dc dfbd 4697 f8bd 2874 25bd ae6c 74bd
00000360: b561 1fbc 8984 bd3b 8a4c d6bc 3a7a 6d3c
00000370: 2105 803c 327a a0bd 0ad4 8abd 7827 73bc
00000380: e86c a03c 3e21 af3d acc8 e8bc fdac 213d
00000390: 5388 77bd 9c4b 4cbd eeae 35be 59a7 36be
000003a0: d138 31be c7f9 5ebe e972 5fbe 5fdb 64be
000003b0: 6d03 47be 86a2 68be 1e19 41be ad56 55be
000003c0: c4fb 2fbe 78b4 32be 8f1e 3bbe 7106 5abe
000003d0: 45db 70be edc1 aebe cb26 b4be aef5 85be
000003e0: 5640 94be 7cfc 90be 3254 42be e2bb a2be
000003f0: 40fa 553e bca0 af3e d39c 8e3e 2bfd 7b3e

bias f4 [4]
-0.2619008 0.041765083 -0.0032344027 0.16431196
00000000: dd17 86be dd11 2b3d 46f8 53bb 6541 283e
