mutiltask/log/data_cell3_ete_04121025/FMNIST_87950.pt (torch, 4775 bytes, 2 tensors)

weight f4 [4, 196]
00000000: 97ad a3be 1d19 63be d40b ddbd ed4d a13d
00000010: 3389 4a3d 7431 973e 7509 943e 0799 863e
00000020: 272d 143f 69e1 103f deb4 283f 8960 c33e
00000030: 1329 3d3e c682 863d 1769 043e e9ac 96bd
00000040: 37fa 02be d907 253d 9da4 c43e 0bec 743b
00000050: b328 263e de06 bdbe 616c 17bf a67c 51bf
00000060: 295b 64bf c0e0 d0be de9b c4bf 82ee 1cbf
00000070: 67f8 33be a8d1 403e fd1c c83f 964b 103f
00000080: 4ce7 643f b64d 853f 04aa b73f 046f a83f
00000090: c377 813f 480a 443f 1534 bf3e 33a9 c63e
000000a0: 846d 863e 9445 94bc c0bf 0cbf c79f 253e
000000b0: c9d5 64bb b424 9d3e ac4c b5bc 260a 69be
000000c0: e321 d6be d94a 873c 73d1 bd3e 44d2 ad3e
000000d0: 999d 6a3e 2ef2 c63d 1644 0abe a13f 73be
000000e0: b0e3 e83f 08fd 753f 871b 433c 1b4d dfbd
000000f0: 352d 523e e961 f53d 34ba f5be b146 a8be
00000100: a536 553f 0346 8e3f 3cf5 253f e346 fd3e
00000110: 63a1 38be 502b 5b3e 9b00 9abd 0a27 55be
00000120: bc0c 3bbe 2d61 f53e a4b9 953e fd4d 99be
00000130: f22a 4dbc e98e 623e a579 c53d ba93 e83d
00000140: cb77 a5be 42c7 94bc d1b9 093e 40c1 13bf
00000150: f31e 3ac0 798a 25bf d1be 92be 9748 71bf
00000160: 2142 74bf ba9c 40bf 616a a2be ece5 f2bd
00000170: 328e 5fbd 1201 40bd 6e92 343e b1e9 46be
00000180: e6d0 683d de4b 34be b355 57be 76bb c73c
00000190: 0c57 05be bc7c d03c ff1b 93be c988 81be
000001a0: 8331 c5be efa0 62be 59cf c93d c810 493e
000001b0: 67c6 e8be 6a19 32be 0111 2abf a0e3 b5bf
000001c0: 69c4 e83f ddfa 0240 aaeb f8bd efe3 3abe
000001d0: 3325 2c3b 821e a13e ec1a c1be c0bb e4be
000001e0: 3994 93be d0ab 4e3f 981f 213f 4fcd 6cbb
000001f0: 3253 fcbe 1c44 89be be71 f1bc ca95 35be
00000200: e045 d0be 0c91 29be be69 debe 15b4 15bf
00000210: 50ab 40be fcfb b83d 0929 0c3f e54b 5fbe
00000220: d608 f93d 35cc 9f3e b193 66bf abd5 9dbe
00000230: 056e f3be 136b 13be f1b8 1840 0671 acbc
00000240: cfac 853f e6f0 043f 7062 203f eea6 6e3d
00000250: 2717 f33e 2dd0 c53e 02d3 933e f3a7 0c3f
00000260: 771d 363e 9663 883c abde 7f3e fe64 0d3e
00000270: 8a9c 473e d128 d53d 8594 b7be 3855 05bf
00000280: 6e30 d5bd 78d7 273e 9c7a f9bd 93e8 bb3e
00000290: 6203 ec3e 3f2b 103f cff2 a43c c7fa 9a3f
000002a0: 638d 90be faf0 44be 2caf 54be a408 97be
000002b0: e23c 56be 73ae d6bd 4388 ff3e 4a2a 533e
000002c0: a286 773e e5f1 e23e d336 003f b397 4a3e
000002d0: b513 903e 6235 4f3e 46c9 9c3e c8b2 8c3e
000002e0: 5aa2 713e 6482 eb3e 8d5c ba3e 04b0 8abe
000002f0: 50df b7bd 18aa f1be aed3 65bf 6922 b0bf
00000300: 69bc 84bf 56fc 2dbf 5cdb 56bf a110 e4be
00000310: 8cde 183f 1d29 193f 76f7 0f3f 6d20 f83e
00000320: dc6e 133f ee7d ee3e 1ec6 7e3e 6125 4d3e
00000330: f5c5 1b3e 32eb 963e c807 663e 618d 0e3e
00000340: 4d45 4f3d 1c29 9b3d 6cdb fa3d ca9d ce3c
00000350: 1262 34be 5c87 6fbe ce34 bbbe 3459 88be
00000360: fcd1 0dbe 2248 ddbe a3e5 f4be ae95 cfbe
00000370: ba5f 3ebe 6b9b e2bd 748a 99be e138 ed3d
00000380: 9f12 2a3f 3125 8d3f 3e90 a53f ab2f 8e3f
00000390: e26f 8d3f 520f 0c3f a7ea e4be 2c72 3bbf
000003a0: 3cfa c9be 94ae 4dbf 4a95 34bd e17e bfbe
000003b0: 0f60 98be 78ba 54bf e35c 4fbf 63a1 a3bf
000003c0: 685a 5bbf 7a07 22bf ff1f 5c3e c7a0 97be
000003d0: 9d5f 0ebf b5c4 c2bf 493d d2bf 307e 32bf
000003e0: ef9d 7a3e 689c 253e 22ed 593e d80d fbbe
000003f0: fb50 d93f a0b0 3440 5420 c03f 6762 9c3f
-0.31968376 -0.22177549 -0.10793272 0.07876191 0.04944725 0.29529917 0.28913465 0.26288626
0.57881397 0.5659395 0.6590098 0.38159588 0.184727 0.06567912 0.12930714 -0.07357199
-0.12790762 0.040290687 0.3840684 0.0037372138 0.16226463 -0.36919302 -0.5914975 -0.81830823
-0.892016 -0.4079647 -1.5360067 -0.61301434 -0.17575227 0.18829978 1.5633847 0.56365335
0.8941543 1.041434 1.434876 1.3158879 1.0114673 0.7657819 0.37344423 0.38800964
0.2625543 -0.018099584 -0.5498009 0.16174231 -0.0034917465 0.30692065 -0.022131287 -0.22757778
-0.4182273 0.016515182 0.3707386 0.33949482 0.22911681 0.09714161 -0.13502535 -0.23754741
1.8194485 0.9608922 0.0119084185 -0.109033786 0.20525058 0.119815655 -0.47993624 -0.32866433
0.83286506 1.1115116 0.6482732 0.49468145 -0.18030314 0.21403241 -0.07519647 -0.20815673
-0.18266577 0.47925702 0.29243195 -0.29942313 -0.012522446 0.22124828 0.096423425 0.113563016
-0.32317957 -0.01816142 0.1344979 -0.5771675 -2.908139 -0.6466442 -0.28661206 -0.9425139
-0.95413405 -0.75239146 -0.31721786 -0.1186026 -0.054578967 -0.04687602 0.17633983 -0.19425084
0.056839846 -0.17607066 -0.21028785 0.02438138 -0.13021487 0.025450103 -0.28732297 -0.2529967
-0.38514337 -0.22131704 0.098540016 0.19635308 -0.4546387 -0.17392507 -0.66432196 -1.4210091
1.818494 2.0465615 -0.12154324 -0.18251012 0.002626729 0.31468588 -0.37715852 -0.44674492
-0.28824022 0.80730915 0.62938833 -0.0036133116 -0.49282223 -0.26809776 -0.029473182 -0.17732921
-0.4067831 -0.16559237 -0.4344005 -0.5847791 -0.1881535 0.09032437 0.54750115 -0.21806295
0.121598884 0.31210485 -0.9006911 -0.30827078 -0.47544876 -0.14396314 2.386288 -0.021049988
1.0443362 0.5193008 0.62650204 0.058264665 0.474786 0.38635388 0.28871924 0.5494377
0.17784677 0.016649049 0.24987285 0.13808057 0.19493309 0.10408176 -0.358555 -0.5208316
-0.10409628 0.16390789 -0.12181589 0.36700878 0.4609633 0.5631599 0.020135311 1.2107781
-0.2823287 -0.1923255 -0.20769948 -0.2949878 -0.20921662 -0.10482492 0.49908647 0.20621601
0.24172452 0.44325176 0.50083655 0.19784431 0.28140035 0.20235208 0.3062231 0.2748015
0.23597088 0.45997918 0.36398736 -0.27087414 -0.0897814 -0.47200084 -0.8977612 -1.3760501
-1.0369998 -0.6796316 -0.83928466 -0.44543937 0.5971458 0.5982836 0.5623697 0.4846224
0.57591033 0.46580452 0.24880263 0.2003379 0.15212233 0.29476315 0.22463906 0.1392112
0.0506032 0.075762 0.12248883 0.025221724 -0.17615536 -0.23391479 -0.36563724 -0.26630557
-0.13849634 -0.43219095 -0.4783145 -0.40543884 -0.18591204 -0.110648 -0.29988444 0.115831144
0.66434664 1.1026975 1.2934644 1.1108297 1.1049769 0.54710877 -0.44710276 -0.7322109
-0.39448726 -0.8034451 -0.044087686 -0.37401488 -0.29760787 -0.8309703 -0.8100111 -1.2783626
-0.85684824 -0.6329266 0.2149658 -0.2961485 -0.55614644 -1.521628 -1.6424953 -0.69723797
0.2447431 0.16172945 0.21281865 -0.49034 1.6977838 2.8232803 1.5009866 1.221753

bias f4 [4]
00000000: f158 a0be 4011 0b3f 03f5 bebe d73b 9f3f
-0.31317857 0.54323196 -0.37296304 1.2440137
