mutiltask/log/data_cell3_ete_04121025/MNIST_90460.pt (torch, 9511 bytes, 2 tensors)

weight f4 [10, 196]
00000000: cebd aebd 7297 9abd 6b7e aebc 6c00 cabd
00000010: f217 a6bd 63fa d83c 09ed 53bd fad8 a8bc
00000020: 36c1 b3ba 5f18 c6bd 934d 9dbd a306 25be
00000030: ae3c 70ba 6d62 94bd a5ec 00be 0884 c8bd
00000040: a74a 29be 2d6b 52be 463a 9abe 74d2 66be
00000050: 4e89 97be 2da6 68be 214a dfbd cf4b 66bd
00000060: 1aaa 4abc b089 b3bd 4a47 3bbd 597e 55bc
00000070: fc9b 70bd f920 03bd 5dc8 19bd 1715 c2bd
00000080: ba7b 1fbe 51cc 54be 57b7 7fbe 894b 9fbe
00000090: d0bb adbe 5806 c5be b27e 84be 8c34 3dbd
000000a0: 08f8 0c3e 5216 af3e ec6b 2e3f aec8 6b3f
000000b0: 6708 6c3f af24 5c3f b184 193f 62b9 bb3e
000000c0: 0162 bf3e a879 9b3e 55a6 9d3e 1615 f43d
000000d0: 3b5f e1bd 08c5 cabd f7e7 12be a9a2 b13b
000000e0: 2c3c 79bc def6 353c 08f3 f8bd 3bc3 a5be
000000f0: 7142 01be 836b 88be fc93 8dbe b1e7 07be
00000100: 9a01 c53d 815d 2e3d eba8 c93d 6ad4 7c3d
00000110: ce0f b23e 8e5c f33e aad0 2a3f 85a5 643f
00000120: d24c 343f 35f8 bf3e b666 0d3f e9c6 5c3f
00000130: c152 973f 5aef 753f 87e6 373f 04e5 6c3f
00000140: e909 2c3e b5c6 64bf 4438 ccbe 9387 e0bd
00000150: 3490 cabd 15f9 d8bd 2b12 f6bd 1489 68be
00000160: c60d 8bbd 046d dd3e 18d4 a13e 687e d33e
00000170: ae92 cc3e 1ab4 b23e 8286 f7bd 824c 22bf
00000180: 00ac abbf feea d8bf 42f1 febf a13b 25c0
00000190: 66ff 32c0 93e2 1dc0 7632 bdbf 3617 fabe
000001a0: 8aae 803e e769 a83e 71a8 393f bbae 383f
000001b0: c466 d6bc db56 89bf 1183 b8be 2861 2bbe
000001c0: 5047 93bd 0285 e83b a822 26be 15e3 51be
000001d0: 456a 98be f7d9 553f 0e70 3d3f b507 523f
000001e0: 710b 833f f8ec 613f 79c8 ae3e bd10 4cbf
000001f0: 19dc afbf 0bb1 bcbf e24c a3bf 0747 37bf
00000200: d469 dabe 233a e33d b8d4 e73e 61c4 153e
00000210: 7621 76be 82f6 6dbe 21e0 01be 24d1 80be
00000220: 68d4 31bf dabf 53bf b366 96be 1f71 38bd
00000230: 3727 38b9 eedb 27bc 4636 20bd 2a4d c6be
00000240: 648c 5fbe c596 ddbd 29f4 bb3e c8bb fc3e
00000250: 13e7 d43e a478 fa3e c94e 323f 5cd8 673f
00000260: 46a5 083f 8e69 b23e ab18 a63e ac8b dc3e
00000270: 0c04 083f c6d6 fa3e 8451 693e 4534 193e
00000280: 8d57 1cbd 7dd1 80bc 52af b0bd 25d9 aabe
00000290: f241 9fbe 7d99 45be f111 99bd 4314 e1bd
000002a0: 93dd 6abd 1ec3 c4bd 3360 6bbc a33d 93bd
000002b0: df97 36be 1eb9 b8be 3e9c 17bf 01b1 19bf
000002c0: 9607 d2be 45c4 44be 0105 183e bb9e 013f
000002d0: dc35 2e3f 5ef3 3a3f 7258 1a3f 9bf6 e53e
000002e0: ba90 523e 0481 0a3e c23a ffbc c97b a6bd
000002f0: 8b7d 04be bc3c 82bd bd52 3d3c 29f6 e3bc
00000300: c3b0 9d3c 32fc 803c b922 6dbc d722 88bd
00000310: ded1 a73e d4b7 aa3e 9a3e b93e 6801 c53e
00000320: 9453 bb3e 741d c83e 75a3 9b3e 6228 a33e
00000330: 12a0 973e dd4f c73e 1d1c b43e 793c a93e
00000340: c9ff d63e 8ae0 953e c815 b33e 4a61 943e
00000350: 72fa 933e 4cc0 c63e 1649 b63e 95af ba3e
00000360: f640 913e 82d8 c73e cdc5 a73e d6cf 903e
00000370: 3eeb 833e 1ab6 d53e 1a6d c13e 9e8f d33e
00000380: b2ab d73e 1ae8 c13e 4858 a43e 6001 c13e
00000390: b164 943e 0b2d ff3d 871d 50be 8e46 75be
000003a0: 6d83 61be 0903 10be f9a6 88bd 3584 213e
000003b0: 78b1 ce3d a6a4 e23d 8f23 403e d21c 883d
000003c0: d2e7 f1bc b5aa e8be 046d 64bf 4dd6 64bf
000003d0: 27c4 ffbe 2cf5 a13d 52b8 1f3f bb91 5f3f
000003e0: a2ff 3a3e f7da fe3d 2720 693e b8f0 cf3e
000003f0: aad0 9f3e 6bfb 8d3e 80dd 893e 3483 f73d
-0.08532296 -0.07548417 -0.021300515 -0.09863362 -0.08110036 0.026486581 -0.051739726 -0.020611275
-0.0013714198 -0.09672617 -0.07680812 -0.16115813 -0.00091643154 -0.07245336 -0.12590273 -0.09790808
-0.16532384 -0.20548697 -0.30122584 -0.22541219 -0.29596943 -0.22719641 -0.10902811 -0.05622464
-0.012369657 -0.08766496 -0.045722283 -0.013030612 -0.05874251 -0.032013867 -0.037544597 -0.09476679
-0.15574542 -0.20781066 -0.24972282 -0.31112316 -0.33932352 -0.38481402 -0.2587791 -0.04619269
0.13766491 0.34196717 0.68133426 0.9210309 0.9220032 0.85993475 0.59968096 0.36664873
0.3737946 0.30366254 0.30790964 0.11918084 -0.11004492 -0.09900862 -0.143463 0.005421002
-0.0152121 0.011106221 -0.121557295 -0.32375512 -0.12623002 -0.26644525 -0.27651966 -0.13271977
0.09619446 0.04256964 0.09846672 0.06172601 0.34777683 0.4753155 0.66724646 0.8931506
0.7042972 0.37494054 0.5523485 0.8624101 1.182213 0.96068347 0.7183613 0.9253695
0.16800655 -0.893657 -0.39886677 -0.10963359 -0.09890786 -0.105943836 -0.12015184 -0.22708541
-0.067897364 0.43247235 0.31607127 0.41307378 0.39955658 0.34903032 -0.12086202 -0.6339799
-1.3411865 -1.6946714 -1.9917376 -2.5817645 -2.7968383 -2.466954 -1.4781024 -0.48845834
0.25133163 0.32893297 0.72522646 0.7214162 -0.02617205 -1.0729631 -0.36037496 -0.16736281
-0.07191336 0.007095934 -0.16224158 -0.20496781 -0.29768577 0.8353571 0.73999107 0.8204301
1.0237867 0.8825221 0.34137323 -0.7971304 -1.3739043 -1.4741529 -1.2757838 -0.71592754
-0.42658865 0.11095073 0.4527948 0.14625694 -0.24036202 -0.23238567 -0.12683155 -0.25159562
-0.6946473 -0.8271462 -0.29375228 -0.045029756 -0.00017562216 -0.010245306 -0.03911426 -0.38730747
-0.21830899 -0.10819773 0.36709717 0.49362016 0.41582546 0.48920166 0.69651467 0.90564513
0.5337719 0.34846157 0.32440695 0.4307531 0.53131175 0.48991984 0.22785002 0.14961345
-0.038169432 -0.015724892 -0.0862719 -0.33368793 -0.31105 -0.19296832 -0.07474125 -0.10990193
-0.057340216 -0.09607528 -0.014366197 -0.07189491 -0.17831372 -0.36078733 -0.5922278 -0.6003571
-0.41021413 -0.19215496 0.14845659 0.5063283 0.6805093 0.730276 0.60291207 0.44914708
0.20563021 0.13525778 -0.031155948 -0.08129079 -0.12938516 -0.063592404 0.011555371 -0.02782734
0.019249326 0.015745256 -0.014473611 -0.0664727 0.32777303 0.33343375 0.36180574 0.38477635
0.36587203 0.3908497 0.30398145 0.31866747 0.2961431 0.38928118 0.351777 0.3305395
0.41992024 0.29272872 0.34977555 0.28980476 0.28902012 0.38818586 0.35602635 0.36462083
0.28369874 0.3903237 0.32768098 0.28283566 0.25765413 0.41740495 0.3777855 0.4132051
0.4212318 0.37872392 0.32098603 0.37696362 0.2898307 0.12459763 -0.20323764 -0.23952696
-0.22022791 -0.14063658 -0.066724725 0.15773089 0.10092443 0.110665604 0.18763565 0.06646122
-0.029529486 -0.4544274 -0.89228845 -0.893895 -0.4995434 0.07908091 0.62390625 0.8733174
0.18261579 0.12444108 0.22766171 0.4061334 0.31213886 0.2773088 0.26926804 0.12085572

bias f4 [10]
00000000: 6261 b4bd c0be d33e 71d1 5fbc 95bc d1bd
00000010: 3ce5 0d3e 8376 18bd 8191 7a3d db22 d23d
00000020: e854 65be 5dc7 14bc
-0.08807637 0.41356468 -0.013660775 -0.10241047 0.13856977 -0.037222397 0.06117392 0.102605544
-0.2239567 -0.009080735
