mutiltask/log/data_cell3_ete_04121025/MNIST_91130.pt (torch, 9511 bytes, 2 tensors)

weight f4 [10, 196]
-0.06308455 -0.053245816 0.0009368107 -0.073749445 -0.058858123 0.048725247 -0.029573994 -0.012249409
-0.046780948 -0.16113853 -0.12701938 -0.21465231 0.01407766 -0.07068149 -0.15138447 -0.25684243
-0.3713446 -0.5145036 -0.6930538 -0.51442105 -0.5137641 -0.42614847 -0.21612664 -0.10878442
0.0023934888 -0.06542676 -0.023484241 0.009207157 -0.0365036 -0.0097763 -0.033155046 -0.14002319
-0.20580153 -0.19546044 -0.28851312 -0.34702814 -0.5534373 -0.6194858 -0.54396707 -0.1737166
0.21185356 0.8377501 1.5002531 1.631221 1.2474073 1.3843321 0.9028162 0.81341773
0.9608382 0.8189102 0.78398526 0.46082017 -0.38013783 -0.1886189 -0.2157675 0.027658802
0.0070255464 0.0334332 -0.17505547 -0.6542153 0.053828098 -0.3724637 -0.52295727 -0.43487912
0.29683062 0.19559124 0.12489657 -0.13402265 0.7325332 0.40396556 1.017984 1.6969212
1.2937981 0.20629723 0.91616076 1.6804454 2.1731446 1.446316 0.8802371 1.6417558
0.42330447 -1.6740055 -0.9686093 -0.08740871 -0.07666942 -0.08407185 -0.25807098 -0.13159311
-0.21547793 0.70881283 0.36094493 0.60949093 0.64696497 0.34502384 -0.2848404 -0.931908
-2.3021069 -2.7489982 -3.1677513 -3.889191 -4.331275 -3.925735 -2.449942 -0.759767
0.54494387 0.5450356 1.2156683 0.82756364 -0.41062748 -2.2309842 -0.75351053 -0.21736474
-0.049675405 0.02800658 -0.3055258 -0.019313946 -0.58865917 1.760876 1.1538472 1.2100639
1.8295743 1.5462571 1.0194142 -1.2790769 -2.352443 -2.3424466 -2.016414 -1.2289568
-0.5797611 0.6149539 0.92964995 0.14865135 -0.59014297 -0.504964 -0.23780538 -0.13645221
-1.2189242 -1.8547971 -0.50759596 -0.041075334 0.022062428 0.011992592 -0.03754926 -0.58515644
-0.1952307 -0.31222698 0.7316492 0.94886386 0.7109167 0.47256017 1.2189201 1.6975254
0.40381637 0.3548617 0.42907855 0.6951105 1.0227553 0.995215 0.29387212 0.3238697
0.07952017 0.12652579 0.19229253 -0.7948644 -0.967369 -0.36578053 -0.10860351 -0.1101766
-0.0351015 -0.07383675 0.007871242 -0.119011775 -0.41021168 -0.9271404 -1.4985693 -1.0469319
-0.3960163 -0.06614995 0.5248019 1.2091391 1.4454248 1.5241411 1.2933524 1.0508097
0.5355735 0.3059084 0.14252469 0.037247818 -0.1881283 -0.056277953 0.0403823 -0.013906532
0.041529186 0.037870113 0.0077641616 -0.044234075 0.57818884 0.5838513 0.612214 0.6351842
0.64117104 0.65678614 0.5692319 0.56920916 0.54991406 0.63723296 0.6005548 0.57965434
0.6726453 0.54605514 0.6007708 0.5414652 0.5399695 0.6383496 0.6063128 0.61427146
0.5205588 0.6475727 0.59791833 0.49671373 0.42252186 0.6658379 0.62819535 0.6636184
0.6716438 0.6291333 0.5714057 0.601242 0.43621534 0.2246771 -0.5227297 -0.61980337
-0.622628 -0.50424176 -0.24956414 0.31058255 0.25949958 0.26023224 0.4191149 0.21768014
-0.1686311 -1.0848298 -1.6858292 -1.6332448 -0.76268685 0.45463926 1.3017023 1.5334771
0.10073744 0.0136792315 0.39339855 0.65654784 0.5625618 0.527669 0.46686268 0.2965073
00000000: 7932 81bd 4918 5abd 4d94 753a f309 97bd
00000010: 3715 71bd 2094 473d 2945 f2bc bfb1 48bc
00000020: 619d 3fbd 8001 25be 5e11 02be d1cd 5bbe
00000030: fca5 663c 75c1 90bd 8804 1bbe da80 83be
00000040: e120 bebe 82b6 03bf f96b 31bf 19b1 03bf
00000050: 0b86 03bf 2230 dabe 4d50 5dbe 5eca debd
00000060: 14dc 1c3b 77fe 85bd 0662 c0bc 9ed9 163c
00000070: cd84 15bd c62c 20bc 96cd 07bd 3d62 0fbe
00000080: a3bd 52be c826 48be feb7 93be acad b1be
00000090: 11ae 0dbf 9f96 1ebf 6d41 0bbf c4e2 31be
000000a0: 24f0 583e ca76 563f 4b08 c03f dacb d03f
000000b0: 0bab 9f3f cb31 b13f f61e 673f 253c 503f
000000c0: 7ef9 753f 19a4 513f 42b3 483f 9ff0 eb3e
000000d0: 6da1 c2be 5025 41be 28f2 5cbe b694 e23c
000000e0: 8e36 e63b 40f1 083d be41 33be a77a 27bf
000000f0: da7a 5c3d 90b3 bebe 87e0 05bf 7aa8 debe
00000100: 2ffa 973e 1249 483e c6c9 ff3d 3c3d 09be
00000110: 4c87 3b3f 93d4 ce3e 4d4d 823f b734 d93f
00000120: 2d9b a53f 953f 533e 8389 6a3f d618 d73f
00000130: cd14 0b40 e220 b93f 3857 613f 0e25 d23f
00000140: 5dbb d83e d045 d6bf c7f6 77bf 5603 b3bd
00000150: db04 9dbd dd2d acbd e121 84be 58c0 06be
00000160: 3fa6 5cbe c274 353f c6cd b83e 9907 1c3f
00000170: 7f9f 253f f7a6 b03e 9ad6 91be 8691 6ebf
00000180: b855 13c0 96ef 2fc0 70bc 4ac0 81e8 78c0
00000190: ce99 8ac0 3e3f 7bc0 dacb 1cc0 1780 42bf
000001a0: 7181 0b3f 7487 0b3f 059b 9b3f 36db 533f
000001b0: c43d d2be 72c8 0ec0 11e6 40bf dd94 5ebe
000001c0: 7078 4bbd 0e6e e53c e16d 9cbe 4838 9ebc
000001d0: 5eb2 16bf 6364 e13f 44b1 933f 60e3 9a3f
000001e0: 7e2f ea3f c1eb c53f 2a7c 823f cbb8 a3bf
000001f0: 6d8e 16c0 a5ea 15c0 ed0c 01c0 754e 9dbf
00000200: 396b 14bf 9e6d 1d3f 8afd 6d3f 0f38 183e
00000210: 9c13 17bf 5245 01bf 4183 73be 21ba 0bbe
00000220: b505 9cbf fe69 edbf cff1 01bf 9c3e 28bd
00000230: 44bc b43c 947c 443c 41cd 19bd d0cc 15bf
00000240: 8eea 47be 37dc 9fbe 5d4d 3b3f bee8 723f
00000250: a3fe 353f 68f3 f13e 9305 9c3f 8348 d93f
00000260: 05c1 ce3e 6fb0 b53e 2fb0 db3e c3f2 313f
00000270: a5e9 823f 69c6 7e3f 6876 963e 40d2 a53e
00000280: 79db a23d fa8f 013e 55e8 443e 3c7c 4bbf
00000290: 7fa5 77bf 9647 bbbe 846b debd 45a4 e1bd
000002a0: 97c6 0fbd b937 97bd 62f6 003c 72bc f3bd
000002b0: 4407 d2be 1359 6dbf 1ed1 bfbf dd01 86bf
000002c0: a6c2 cabe a079 87bd 6b59 063f 12c5 9a3f
000002d0: ae03 b93f 0e17 c33f 928c a53f ef80 863f
000002e0: 581b 093f 07a0 9c3e fef1 113e 2b91 183d
000002f0: b4a4 40be b683 66bd e967 253d 39d8 63bc
00000300: 821a 2a3d b11d 1b3d 826a fe3b ca2e 35bd
00000310: 2f04 143f 4777 153f 0fba 1c3f 6f9b 223f
00000320: c923 243f 2323 283f 2fb9 113f b1b7 113f
00000330: 2bc7 0c3f b321 233f f6bd 193f 3a64 143f
00000340: 7b32 2c3f 45ca 0b3f 1dcc 193f 779d 0a3f
00000350: 713b 0a3f e16a 233f 5137 1b3f e540 1d3f
00000360: 5743 053f 53c7 253f 2d11 193f 4351 fe3e
00000370: c954 d83e 5a74 2a3f 69d1 203f e5e2 293f
00000380: d9f0 2b3f e10e 213f a547 123f ffea 193f
00000390: 9e57 df3e c111 663e 9dd1 05bf 6fab 1ebf
000003a0: 8c64 1fbf fd15 01bf be8d 7fbe ad04 9f3e
000003b0: 21dd 843e 293d 853e 3a96 d63e 8be7 5e3e
000003c0: a2ad 2cbe b4db 8abf 40c9 d7bf 2a0e d1bf
000003d0: 723f 43bf 7ac6 e83e 2e9e a63f fa48 c43f
000003e0: 6e4f ce3d db1e 603c 896b c93e 8513 283f
000003f0: 0d04 103f 5115 073f a008 ef3e cecf 973e

bias f4 [10]
-0.065837815 0.6639779 -0.032757726 -0.24077351 0.41400978 -0.06133085 0.12622635 0.24105272
-0.34980065 0.068397775
00000000: fad5 86bd 75fa 293f f72c 06bd 558d 76be
00000010: 17f9 d33e 0f36 7bbd 7b41 013e 86d6 763e
00000020: 1219 b3be 2214 8c3d
