mutiltask/log/data_cell3_ete_04121025/MNIST_89250.pt (torch, 9511 bytes, 2 tensors)

weight f4 [10, 196]
000000 92 1a af bd 3c f4 9a bd c4 f0 af bc a3 1b ce bd
       -0.0854999 -0.07566115 -0.02147711 -0.10063865
000010 1c a4 a6 bd 2a 17 d7 3c d5 65 54 bd 08 a9 c3 bc
       -0.0813677 0.026256163 -0.051854927 -0.023884311
000020 c3 22 69 3c 99 55 8b bd 1f 8a 52 bd 77 65 06 be
       0.014229479 -0.06803436 -0.051401254 -0.13124643
000030 6c 27 d9 3b 50 a7 66 bd 66 7d d0 bd a5 aa e0 bc
       0.006627014 -0.056311905 -0.10180168 -0.02742512
000040 3b 0d a1 bd 73 bf ac bd ec 0b 01 be 67 0a c7 bd
       -0.07863852 -0.084349535 -0.12602204 -0.09718781
000050 b7 ab 43 be 5d 56 08 be dd 20 63 bd cb 5b 0c bd
       -0.19108473 -0.13314195 -0.055451263 -0.034267228
000060 bb 03 24 bc ab e3 b3 bd ae 00 3c bd 73 62 58 bc
       -0.010010655 -0.087836586 -0.045899086 -0.013207066
000070 16 56 71 bd 34 da 03 bd 25 6e 03 bd c1 f0 ae bd
       -0.05891999 -0.032190517 -0.032087464 -0.08542014
000080 90 ec 06 be 88 9c 3a be f7 45 5b be d1 52 4c be
       -0.13176179 -0.18223774 -0.21413408 -0.19953467
000090 c6 6c 43 be 71 99 3d be c7 11 c8 bd 99 3d 81 3d
       -0.19084463 -0.18515565 -0.09769016 0.06310577
0000a0 e0 9b 0c 3e b3 0b 51 3e a0 f2 cc 3e 0b 91 0e 3f
       0.13731337 0.20414619 0.40028858 0.5569007
0000b0 95 7f 19 3f ad bd 09 3f 0c 54 e4 3e 88 ae 6f 3e
       0.599603 0.5380505 0.44595373 0.23406422
0000c0 47 c0 51 3e 5e 49 21 3e d2 15 22 3e 5a 0c dc 3c
       0.20483504 0.15750644 0.15828636 0.026861358
0000d0 f2 6b 8c bd 19 1a 49 bd 49 23 e6 bd 42 e1 ab 3b
       -0.068565264 -0.049097154 -0.11237199 0.0052453587
0000e0 2a 20 7c bc 16 c9 06 3c d8 51 af bd 2b 31 3f be
       -0.015388528 0.008226654 -0.08560532 -0.186711
0000f0 15 39 02 be 00 78 82 be 65 4b 48 be 7e 01 df bd
       -0.12717088 -0.25482178 -0.1956001 -0.108889565
000100 08 59 94 3c 11 8b 24 bd 69 de f6 3d 04 0a c8 3d
       0.01810886 -0.040171687 0.1205414 0.09767535
000110 5b 4f 4d 3e 11 94 95 3e a7 37 ab 3e 33 91 eb 3e
       0.20049803 0.29214528 0.33440897 0.46009216
000120 76 b5 e4 3e 6d 4d cb 3e 10 00 ef 3e 6e 2b 03 3f
       0.44669694 0.3970751 0.46679735 0.51238143
000130 a0 e3 1e 3f 8b 05 05 3f ba 16 ff 3e 0b 1f ed 3e
       0.6206608 0.5196158 0.49822026 0.46312746
000140 62 77 31 3c fb c8 e7 be d9 66 46 be 48 25 e0 bd
       0.010831686 -0.45270523 -0.19375171 -0.10944611
000150 fa ec ca bd 1a ee e4 bd 52 03 7d bd c3 da 4a be
       -0.09908481 -0.11178227 -0.061770745 -0.19810013
000160 db f3 27 3d 06 96 89 3e de 87 80 3e 08 f4 85 3e
       0.041004043 0.2687227 0.25103658 0.26162744
000170 cb e7 8c 3e d2 bf 6a 3e b1 e6 1b bd f7 75 c3 be
       0.27520594 0.22924736 -0.0380618 -0.38175938
000180 ed 8b 4f bf c2 ee 8b bf 89 b5 a4 bf 48 6b cf bf
       -0.81072885 -1.0932238 -1.28679 -1.6204615
000190 76 cf d6 bf 73 d2 bb bf 5e 91 57 bf 2d db a8 be
       -1.6782062 -1.4673599 -0.8420619 -0.32979718
0001a0 e8 c3 fd 3c 97 46 3c 3e 68 96 ed 3e 13 d0 c6 3e
       0.030977204 0.18386303 0.46403813 0.38830623
0001b0 20 0a bb bd bb 45 f7 be 7b 07 16 be e4 a5 f4 bd
       -0.091327906 -0.48295388 -0.14651291 -0.119457036
0001c0 16 a4 93 bd dd 37 08 3c e7 ef ea bd a9 69 1a be
       -0.07209031 0.0083141 -0.11471539 -0.15079369
0001d0 0f 7f 7e bd 53 5f fd 3e dc 96 fb 3e 4a 0d 0a 3f
       -0.06213289 0.4948679 0.49138534 0.5392653
0001e0 7d dd 0b 3f eb b8 c8 3e 04 bc e3 3d 97 2f ca be
       0.5463484 0.3920358 0.111198455 -0.39489433
0001f0 46 11 37 bf b6 f8 66 bf b2 1a 4a bf 25 c9 e4 be
       -0.7151073 -0.9022325 -0.78946984 -0.4468471
000200 1c a8 95 be 56 51 0a bc c4 ca 60 3e 47 89 bc 3d
       -0.2922982 -0.008442244 0.21952349 0.09205871
000210 20 90 83 b9 67 92 28 bd 9b f0 af bd 5e 43 32 be
       -0.0002509365 -0.041155245 -0.08590814 -0.17408511
000220 28 52 be be a6 b5 b7 be 98 82 49 be e0 da 09 bd
       -0.37172055 -0.35880774 -0.19678724 -0.033656
000230 07 71 b8 b9 5b 73 2a bc cb 34 e5 bc b6 c2 6e be
       -0.00035179427 -0.010403479 -0.027979275 -0.23316464
000240 57 47 1b be 7a ff 5c 3c d4 31 17 3e b9 cd 6e 3e
       -0.15163933 0.013488645 0.14765102 0.23320664
000250 96 e2 58 3e bb 8e b2 3e 0a 40 e5 3e 98 2e 18 3f
       0.21180186 0.3487452 0.4477542 0.59446096
000260 23 ff 06 3f 50 5f c5 3e a6 6e a9 3e 4c dd ad 3e
       0.5273306 0.3854928 0.3309223 0.339579
000270 ab 24 a3 3e e4 44 69 3e 5e 74 da 3d 68 33 9d 3d
       0.31863913 0.22780186 0.106667265 0.076758206
000280 ce 08 a4 bd 90 0e 70 bd 66 7d f0 bd ee f4 17 be
       -0.08009492 -0.058607638 -0.11742668 -0.14839527
000290 77 ba e1 bd 50 6d cc bd a0 52 f5 bc 1f 9d b9 bd
       -0.110218935 -0.09981787 -0.029946625 -0.090631716
0002a0 d4 97 6b bd e0 1f c5 bd d4 6b 6d bc fe 70 53 bd
       -0.05751784 -0.0962522 -0.01449104 -0.05162143
0002b0 8d fd b0 bd 9e 76 38 be dc 99 7a be c7 b6 aa be
       -0.08642111 -0.18013999 -0.24472755 -0.33342573
0002c0 85 c0 a4 be c9 a7 16 be a7 9e 06 3b 99 ee 1d 3e
       -0.3217813 -0.14712442 0.0020541342 0.15423049
0002d0 43 70 75 3e ef a9 90 3e 38 60 59 3e 4d 23 2f 3e
       0.23968606 0.2825465 0.21228111 0.1710331
0002e0 e7 8d 3a 3d ef 2b 9e 3d ed cd 20 bd 3d 05 8d bd
       0.045545485 0.077232234 -0.039258886 -0.06885765
0002f0 8b ac d3 bd aa 7a 3d bd d5 27 03 3c 7e 00 c8 bc
       -0.10335644 -0.04625956 0.008005102 -0.024414297
000300 11 89 9d 3c 97 69 87 3c 9b 06 70 bc 98 7f 88 bd
       0.019230397 0.016529841 -0.014650012 -0.066649616
000310 36 5f 54 3e 18 2b 5a 3e c1 38 77 3e 38 5f 87 3e
       0.20739445 0.21305501 0.24142744 0.26439834
000320 7d 06 75 3e 5f c4 85 3e 13 6a 34 3e b5 f9 4b 3e
       0.23928256 0.26126382 0.17618589 0.19919474
000330 bf b1 32 3e 3f ca 8c 3e d4 24 6d 3e 45 a1 54 3e
       0.17450617 0.27498052 0.2315858 0.20764644
000340 ef d5 97 3e 85 83 2c 3e 56 0a 6a 3e 86 80 2a 3e
       0.29655406 0.16847046 0.22855505 0.1665059
000350 d3 8f 2b 3e 9d 1c 89 3e bf 82 71 3e bf 14 7b 3e
       0.16754083 0.26779643 0.23585032 0.24519633
000360 b0 6e 2b 3e 25 e8 89 3e a5 7e 4d 3e 49 9c 3a 3e
       0.16741443 0.26934925 0.20067842 0.1822368
000370 67 53 2c 3e 59 42 99 3e ea ca 83 3e 6e ed 95 3e
       0.1682869 0.29933432 0.2574075 0.29282707
000380 82 09 9a 3e ea 45 84 3e f8 6d 4d 3e c7 7b 85 3e
       0.3008538 0.2583459 0.20061481 0.26070997
000390 57 66 62 3e e8 8d c8 3d 46 d3 91 bd b5 cd 7f bd
       0.22109352 0.097926915 -0.07120375 -0.062452037
0003a0 e9 57 36 bd d0 ee bd bb e9 9d ec bb 40 bd f6 3d
       -0.04451743 -0.005796291 -0.007220973 0.12047815
0003b0 c9 ad 61 3d c7 d6 41 3d 9c 9f dd 3d c9 20 71 3c
       0.055097375 0.04732397 0.10821459 0.014717289
0003c0 2a ba c8 3c f1 43 0c be 6d 7f d9 be c5 45 d7 be
       0.024502832 -0.13697793 -0.4248003 -0.42045417
0003d0 03 80 9f be 36 3f 60 bd 0f 68 72 3e c1 c0 e0 3e
       -0.31152353 -0.054747783 0.23672508 0.4389706
0003e0 42 db cc 3d d6 d6 20 3e 3d af 07 3e a0 4e 92 3e
       0.100027576 0.15706953 0.13250442 0.2857561
0003f0 16 5d 44 3e 80 05 21 3e e3 0e 2e 3e c2 c0 f0 3d
       0.19176134 0.15724754 0.16997866 0.11755516

bias f4 [10]
000000 26 be b4 bd 90 1c 96 3e ba 64 a6 3a a7 05 1e bd
       -0.088253304 0.29318666 0.0012694814 -0.03857961
000010 32 a7 fe 3c 3c b2 1b bd ca 78 53 3d 79 d2 0c 3d
       0.031085584 -0.038011774 0.051628865 0.03438041
000020 96 9a df bd 27 46 08 bd
       -0.10918157 -0.033270027
