mutiltask/log/data_cell3_ete_04121025/MNIST_90110.pt (torch, 9511 bytes, 2 tensors)

weight f4 [10, 196]
000000 dd d0 bb bd 87 aa a7 bd 57 ca e2 bc f6 37 d8 bd
       -0.09170697 -0.081868224 -0.027684374 -0.10557549
000010 3e 2b b3 bd 54 b2 a4 3c b0 09 6e bd ed ed e2 bc
       -0.08748482 0.020104565 -0.058114707 -0.027701342
000020 4b 51 c1 3b ba c5 a5 bd b7 51 84 bd 62 9f 16 be
       0.0058995835 -0.08094354 -0.06460898 -0.14709237
000030 31 5c aa bb f1 d1 97 bd 2a 9c fa bd 05 37 84 bd
       -0.0051989784 -0.0741309 -0.12236817 -0.06455807
000040 b0 33 fb bd f9 23 13 be 67 cf 54 be 1c bd 23 be
       -0.12265718 -0.14369191 -0.20782243 -0.15990108
000050 6a 6e 7b be ea 91 35 be d3 54 9f bd a9 8d 36 bd
       -0.24553838 -0.17731443 -0.07779851 -0.04456869
000060 8c 93 85 bc 82 9b c0 bd 1f 6d 55 bd e1 0a 9f bc
       -0.016305707 -0.09404661 -0.05210602 -0.019414367
000070 38 61 85 bd d1 46 1d bd 25 15 24 bd 28 f8 c0 bd
       -0.06512684 -0.038397614 -0.040059227 -0.09422332
000080 b8 f9 14 be 57 22 4e be 1f de 6b be df a8 77 be
       -0.14548385 -0.20130287 -0.23033951 -0.24185513
000090 11 af 73 be 27 28 6d be 93 c3 05 be 33 88 62 3d
       -0.23797251 -0.23159848 -0.13062887 0.05530567
0000a0 df 47 2a 3e 95 67 8f 3e ba ea 09 3f 22 03 35 3f
       0.16628979 0.28008714 0.5387379 0.70707905
0000b0 c5 ef 44 3f ff 93 2e 3f 8b e2 04 3f 88 b7 97 3e
       0.7692836 0.68194574 0.5190818 0.2963221
0000c0 b2 fa 89 3e cb 72 55 3e 0f d3 4f 3e d2 20 66 3d
       0.26949078 0.20844571 0.20295356 0.056183644
0000d0 2b 16 c8 bd 0b 5d 9b bd 06 ce 02 be 17 54 7c ba
       -0.09769853 -0.07586106 -0.12773904 -0.00096255675
0000e0 c5 e9 b0 bc 2f 1b 15 3b 03 52 d8 bd a2 73 7c be
       -0.021595845 0.0022751798 -0.105625175 -0.24653485
0000f0 0b 98 12 be dc cc 84 be 59 18 61 be 36 84 d3 bd
       -0.14315812 -0.25937545 -0.21981944 -0.103279516
000100 19 36 4b 3d 77 6e 0c bd e3 4e 9a 3d 1c 0c 89 3d
       0.04961214 -0.034285035 0.07534578 0.06691763
000110 5f 32 82 3e ec 3c c0 3e 83 d9 f6 3e 11 80 27 3f
       0.25429055 0.3754648 0.48212823 0.6542979
000120 16 27 11 3f 05 56 d6 3e 66 77 02 3f ab c7 25 3f
       0.56700265 0.41862503 0.5096344 0.64757794
000130 7a 4b 5c 3f 7f d7 3b 3f a6 b5 1a 3f 96 19 21 3f
       0.8605267 0.73375696 0.60433424 0.62929666
000140 a4 16 5b 3d a7 0c 23 bf fc b2 8b be a3 0f ed bd
       0.05348839 -0.6369118 -0.27284992 -0.11575248
000150 45 a3 d7 bd 3f da f0 bd 20 14 c4 bd fe c3 4e be
       -0.10529188 -0.11760377 -0.09574151 -0.20191953
000160 48 1d 3e bb da 1e b6 3e 29 24 8a 3e ce ed a0 3e
       -0.0029009152 0.35570413 0.26980713 0.3143143
000170 7f 89 a6 3e 43 21 8c 3e 7f 70 a9 bd b3 45 04 bf
       0.32526776 0.27369127 -0.0827341 -0.5166885
000180 8b 54 89 bf e5 c2 af bf ec 99 ca bf a4 99 02 c0
       -1.0728925 -1.3731352 -1.5828223 -2.0406275
000190 eb 48 0b c0 64 07 f4 bf 9a cc 91 bf a7 87 d3 be
       -2.1763256 -1.9064755 -1.1390564 -0.41314432
0001a0 8b 49 db 3d 9f b8 8c 3e a2 f2 1b 3f de a5 05 3f
       0.107073866 0.27484605 0.60917103 0.5220622
0001b0 5f 41 3a bd 57 45 36 bf f0 22 6b be 4d 0f 11 be
       -0.0454725 -0.71199554 -0.22962546 -0.14165993
0001c0 5f 5a a0 bd e7 98 c2 3a f4 fd 0d be f9 e2 3f be
       -0.07829737 0.0014846594 -0.13866407 -0.18738927
0001d0 2a 5c 04 be bb dc 2a 3f fa 18 20 3f a6 44 2f 3f
       -0.12925783 0.6674306 0.6253811 0.68464124
0001e0 4c 57 43 3f f0 da 13 3f e6 17 39 3e 14 76 20 bf
       0.7630508 0.5775595 0.18075523 -0.6268017
0001f0 e7 68 84 bf 71 23 96 bf 8f a7 7a bf 63 f9 06 bf
       -1.0344514 -1.1729566 -0.97911924 -0.52724284
000200 c4 d5 a4 be ce b6 95 3d 50 84 b3 3e a1 b4 0b 3e
       -0.3219434 0.07310258 0.35061884 0.13643123
000210 69 83 8e bd 54 41 e0 bd 7c cd a4 bd 63 ba 68 be
       -0.06958658 -0.1094996 -0.080470055 -0.22727351
000220 f8 c7 07 bf 5d c6 0e bf 35 b8 80 be 62 dd 3a bd
       -0.53039503 -0.5577143 -0.2514054 -0.045621283
000230 9f ed d6 bb d1 37 88 bc 7b 01 23 bd 47 18 a0 be
       -0.0065590884 -0.016628178 -0.039796334 -0.31268522
000240 74 5e 56 be 79 a2 f1 bb 29 60 7c 3e 39 ee bc 3e
       -0.20934469 -0.0073741046 0.24646057 0.369005
000250 96 fd a0 3e fa c3 ed 3e 1a a4 1d 3f 7e b3 46 3f
       0.3144347 0.4643858 0.61578524 0.77617633
000260 1d 02 0e 3f 9d de c8 3e ac d1 b7 3e da 44 c6 3e
       0.55471975 0.3923234 0.35902154 0.38724405
000270 0a e9 ca 3e c6 30 a4 3e e0 39 17 3e d3 63 e6 3d
       0.3963092 0.3206846 0.14768171 0.11249509
000280 28 85 60 bd fa d8 e2 bc 34 24 00 be 58 6d 6e be
       -0.054814488 -0.027691353 -0.1251381 -0.23283899
000290 1a fc 3a be 30 aa 0d be 62 75 57 bd 44 9e d0 bd
       -0.18260232 -0.13834453 -0.05260218 -0.10186437
0002a0 04 82 82 bd 2b d6 d1 bd eb 99 a9 bc b7 a1 82 bd
       -0.06372455 -0.102459274 -0.020703277 -0.06378501
0002b0 26 7f fc bd 66 b6 7e be e1 6c c8 be de 3d e6 be
       -0.12328939 -0.24874267 -0.39145568 -0.44969076
0002c0 97 87 c1 be a9 52 38 be 9d 2b 49 3d fe 35 94 3e
       -0.3779876 -0.18000282 0.04911386 0.28947443
0002d0 32 0c d0 3e 23 23 e3 3e 8f 08 b3 3e 85 de 87 3e
       0.40634304 0.44362745 0.34967467 0.26536956
0002e0 8d 32 cc 3d 04 5c c6 3d e1 3e 2c bd e8 fa ac bd
       0.09970579 0.09685519 -0.042052153 -0.08446294
0002f0 f0 2f fd bd 79 82 7d bd 11 c3 74 3a 30 22 09 bd
       -0.12362659 -0.061892007 0.00093369285 -0.03347987
000300 eb 37 54 3c cb ae 1d 3c 11 dd aa bc e7 35 95 bd
       0.012952785 0.009624193 -0.020857366 -0.07285672
000310 6c bd 84 3e 62 a3 87 3e 28 2a 96 3e f6 ec a1 3e
       0.25925767 0.2649184 0.29329038 0.316261
000320 08 0b 97 3e b2 19 a2 3e 7b 40 6b 3e 0d 84 7f 3e
       0.29500604 0.3166023 0.22973816 0.24952717
000330 64 64 67 3e 00 ee a5 3e 30 2f 91 3e 59 9d 85 3e
       0.2259689 0.32408142 0.28356314 0.2609661
000340 bf 23 b3 3e ff a6 63 3e e6 d1 8f 3e 02 76 61 3e
       0.3498821 0.22231673 0.28089827 0.22017673
000350 40 dc 60 3e 47 aa a3 3e 6a 41 93 3e 34 0e 98 3e
       0.21959019 0.3196585 0.28760844 0.29698336
000360 1e 2b 60 3e 69 49 a4 3e 0e d0 81 3e 13 1d 69 3e
       0.21891448 0.32087258 0.25354046 0.22764997
000370 2c ba 57 3e dd 43 b3 3e a8 58 9e 3e 2c 7b b0 3e
       0.21067113 0.35012713 0.30927014 0.34468973
000380 40 97 b4 3e a8 d3 9e 3e e9 43 81 3e 50 64 9f 3e
       0.35271645 0.31020856 0.25247124 0.3113122
000390 0b d0 7d 3e 78 56 d6 3d 4a bd f6 bd 73 f0 08 be
       0.24786393 0.10465711 -0.12047823 -0.13372974
0003a0 58 05 f5 bd 53 5f 5c bd 5f c7 e7 bc a8 6d 0f 3e
       -0.1196391 -0.053801846 -0.02829331 0.14006674
0003b0 b0 85 97 3d a7 5b 91 3d 8e 55 0f 3e 14 06 22 3d
       0.07398546 0.070975594 0.1399748 0.039556578
0003c0 ae d6 96 3b 56 f4 87 be 14 9d 23 bf 04 71 26 bf
       0.0046032285 -0.265536 -0.6391156 -0.650162
0003d0 99 df dc be 11 9b b7 bc dc 36 c9 3e 67 89 22 3f
       -0.4313934 -0.022412809 0.39299667 0.6349091
0003e0 b2 90 12 3e d1 bc 13 3e de 8a 30 3e 4a dc ac 3e
       0.1431301 0.14427496 0.17240474 0.33761817
0003f0 a0 78 79 3e b2 f4 55 3e c0 d2 59 3e 93 d5 e5 3d
       0.24362421 0.20894125 0.21271801 0.11222377

bias f4 [10]
000000 71 74 c1 bd 4e aa b0 3e a8 bf f0 bb 13 f5 8f bd
       -0.094460376 0.34504932 -0.007347066 -0.07029166
000010 93 a4 90 3d 45 47 07 bd 17 60 7d 3d 3d cd 77 3d
       0.0706264 -0.033026952 0.061859217 0.060498465
000020 6c ba 26 be 19 1e a9 bc
       -0.16282052 -0.020644234
