mutiltask/log/dvs/04011130/68333.pt (torch, 14183 bytes, 2 tensors)

weight f4 [4, 784]
0	0xbce0580d	-0.027385736
1	0xbd50f1c6	-0.051011823
2	0xbbae2914	-0.0053149555
3	0xbd734078	-0.059387654
4	0x3ceee696	0.029162686
5	0xbcd8ed88	-0.026480451
6	0xbd7d4487	-0.06183293
7	0x3c2f2680	0.010690331
8	0xbd2e1b8b	-0.042506736
9	0xba51d294	-0.0008004096
10	0xbd773e55	-0.06036218
11	0x3c9b311e	0.01894432
12	0xbc10222a	-0.008797208
13	0xbd401212	-0.046892233
14	0x3d379230	0.04481715
15	0xbd72675c	-0.059180602
16	0xbc83681b	-0.016040852
17	0xbbd551c0	-0.0065099895
18	0x3cca6791	0.024707587
19	0xbd396658	-0.04526362
20	0xbd89a68b	-0.06721219
21	0x3bbd9258	0.005785268
22	0x3ca7e5ed	0.02049538
23	0x3c9a84c4	0.018862136
24	0xbce95af6	-0.028485756
25	0xbd7e984b	-0.062156957
26	0x3cf2d0d2	0.029640589
27	0xbc1804fd	-0.009278533
28	0x3c9083d4	0.017640986
29	0x3dbe02f8	0.0927791
30	0x3cb92906	0.02260257
31	0xbdb304c5	-0.08741144
32	0x3d72a029	0.059234772
33	0xbd050bd4	-0.032481983
34	0xbd297bfb	-0.041378003
35	0x3bd342f4	0.0064471904
36	0xbd622783	-0.055213463
37	0x3c0d8afc	0.0086390935
38	0x3d0d5ff3	0.034515332
39	0xbddaca2c	-0.106830925
40	0xbd960aba	-0.07326265
41	0xbdf0c207	-0.11755758
42	0xbc001582	-0.007817628
43	0x3cbac9a5	0.02280123
44	0x3dad6748	0.08466965
45	0xbdace651	-0.08442367
46	0xbcc2ec74	-0.02379439
47	0xbda97922	-0.082750574
48	0xbce27089	-0.027641552
49	0x3da0846b	0.07837757
50	0xbdc9e8ee	-0.09858881
51	0xbcbc1c1a	-0.022962619
52	0x3d540829	0.051765595
53	0xbb2793d6	-0.0025570295
54	0xbcc6e373	-0.024278378
55	0xbd0db01f	-0.03459179
56	0x3cb074fc	0.021540157
57	0xbdcb9661	-0.09940792
58	0xbc8fa2e2	-0.017533723
59	0x3c510f16	0.012759944
60	0x3d2b77ad	0.04186218
61	0xbd3a36bf	-0.045462366
62	0xbd626a50	-0.05527717
63	0xbda90356	-0.082525894
64	0x390ae970	0.00013247668
65	0xbce66359	-0.028123545
66	0xbd839e4e	-0.064266786
67	0x3d87ddae	0.06634079
68	0xbd27d9fe	-0.040979378
69	0xbd32bc94	-0.043636873
70	0xbda50b6a	-0.08058818
71	0x3be75841	0.007060081
72	0x3d1fd9e6	0.039026164
73	0xbd6254da	-0.055256702
74	0xbd971289	-0.07376582
75	0xbcdb02c1	-0.026734712
76	0xbc00694a	-0.007837603
77	0xbd0813f7	-0.033222165
78	0xbcca69e4	-0.024708696
79	0xbd26cdba	-0.04072354
80	0x3c30d1c8	0.010792203
81	0x3c94f746	0.018184315
82	0x3d82c42f	0.06385075
83	0xbd0eb648	-0.034841806
84	0x3d490652	0.049078293
85	0xbe68ab55	-0.22721608
86	0xbd167243	-0.036730062
87	0xbddf6604	-0.1090813
88	0xbd69462c	-0.056951687
89	0xbd025c38	-0.031826228
90	0xbcaf562c	-0.021403395
91	0xbe219295	-0.15778573
92	0xbe0212eb	-0.12702529
93	0xbd9f0852	-0.07765259
94	0xbe00d10f	-0.1257975
95	0xbddf9952	-0.109179154
96	0xbe1c5b65	-0.15269239
97	0x3da47ad9	0.08031244
98	0xbd447f36	-0.04797288
99	0x3c474ca5	0.01216427
100	0xbd8c47d9	-0.06849641
101	0x3bb96c5a	0.0056586685
102	0x3c3ab8f4	0.011396635
103	0x3cc862d5	0.02446119
104	0xbde56cf2	-0.1120242
105	0xbd7048a5	-0.05866303
106	0x3bcecc6e	0.006310991
107	0xbc267bd3	-0.010161358
108	0xbd814a0f	-0.06312954
109	0x3d5d72e5	0.05406465
110	0x3ba27b67	0.0049585584
111	0xbd6b4e18	-0.057447523
112	0x3d5f9885	0.054588813
113	0xbd60cc22	-0.054882176
114	0xbcb172f8	-0.021661267
115	0xbcbced97	-0.02306251
116	0xbde245ea	-0.11048491
117	0xbdc71317	-0.09720438
118	0x3ccdec22	0.025137011
119	0xbd53fa9f	-0.051752683
120	0xbda2357b	-0.07920357
121	0xbdb58864	-0.08863905
122	0x3ceca8f3	0.028889155
123	0x3b8dad82	0.0043236623
124	0x3d6d9e8c	0.05801253
125	0xbe0f959f	-0.1402192
126	0x3c901da4	0.017592259
127	0x3cdc3a2e	0.026883211
128	0xbc6247af	-0.013811036
129	0x3da75787	0.081709914
130	0x3d42c7d1	0.04755384
131	0xbd917719	-0.07102794
132	0x3d9ab397	0.07553785
133	0xbcc755ae	-0.024332847
134	0xbc67716a	-0.014126161
135	0x3d6cf149	0.057847295
136	0x3d904493	0.070443295
137	0xbc927192	-0.01787642
138	0x3c884475	0.016634205
139	0x3ca36ab0	0.019948334
140	0x3cd36a16	0.025807422
141	0x3c7572fe	0.01498103
142	0x3d379723	0.04482187
143	0xbd5f709c	-0.054550752
144	0xbc9667cf	-0.018360047
145	0x3d0a6e9a	0.033796884
146	0x3d195b78	0.037440747
147	0xbcfe638f	-0.031053333
148	0xbd3708e3	-0.04468621
149	0x3b00626c	0.0019589914
150	0x3d100769	0.035163317
151	0x3d497391	0.04918248
152	0xba774386	-0.0009432364
153	0x3da46281	0.08026601
154	0xbc93f1fd	-0.018059725
155	0x3d40b0eb	0.047043722
156	0xbd110907	-0.035409
157	0xbd1b9de0	-0.03799236
158	0xbbd5e7c2	-0.006527872
159	0xbd0367e5	-0.032081503
160	0xbc8fe8c7	-0.017567052
161	0x3d3e7496	0.046497904
162	0x3b2e3088	0.002657922
163	0xbd3d415d	-0.046204913
164	0xbd38da8a	-0.04513029
165	0x3bd92e61	0.0066278432
166	0x3c5f70d1	0.013637737
167	0x3cc7280b	0.024311086
168	0x3c450028	0.012023963
169	0xbe050bec	-0.12992829
170	0xbcbc2c39	-0.022970306
171	0xbe1afce9	-0.1513554
172	0xbdbf3fab	-0.093383156
173	0xbdfb5202	-0.12271501
174	0xbcfdec89	-0.030996578
175	0xbc96c4de	-0.01840442
176	0x3c16df60	0.00920853
177	0xbd943ad0	-0.0723778
178	0xbd4dd903	-0.050255787
179	0x3de57b13	0.11205115
180	0xbcf8a6e7	-0.030353023
181	0x3c4aba90	0.0123735815
182	0x3e19eb58	0.15031183
183	0xbd236051	-0.039886776
184	0xbc42d615	-0.011891861
185	0xbc98d2da	-0.01865523
186	0x3d7e07cd	0.06201916
187	0x3d0f2ccb	0.034954827
188	0xbddf06c6	-0.10889964
189	0xbc8cd668	-0.01719208
190	0x3b96af5e	0.004598542
191	0xbddb85c8	-0.10718876
192	0xbd3031d7	-0.04301628
193	0xbda91951	-0.08256782
194	0x3d613a83	0.05498744
195	0x3b9641a1	0.0045854603
196	0x3be404c7	0.0069585773
197	0xbcde992a	-0.027172644
198	0xbcf5f27c	-0.030022852
199	0x3d265349	0.04060677
200	0x3b1afde6	0.002364987
201	0xbc942765	-0.018085191
202	0x3cd6f9be	0.026242133
203	0xbd87a841	-0.06623889
204	0xbd0642f8	-0.03277871
205	0x3dee3344	0.11630872
206	0x3dcd6b2c	0.10030207
207	0x3d86df51	0.06585563
208	0x3ca05de2	0.019576017
209	0x3ca3ed2f	0.020010559
210	0xbb8cf006	-0.004301074
211	0xbdc09d56	-0.094050094
212	0xbce8fd84	-0.028441198
213	0x3d0965c8	0.03354433
214	0x3d93b931	0.07213057
215	0x3d50f378	0.05101344
216	0xbcb3c922	-0.021946494
217	0x3cafddcd	0.021468068
218	0x3d7f7a16	0.06237229
219	0x3d67d4ce	0.05659943
220	0xbe10aa2e	-0.14127418
221	0x3c360318	0.011109136
222	0xbb0083e3	-0.001960986
223	0x3d46fdc6	0.04858186
224	0xbc54573b	-0.0129602505
225	0xbd9a7ae4	-0.07542971
226	0xbd0fffe0	-0.03515613
227	0xbde127c3	-0.10993912
228	0x3d5dc398	0.05414161
229	0xbe31a7b5	-0.17349131
230	0xbdb045fa	-0.08607097
231	0xbc9a4600	-0.018832207
232	0xbd3899f5	-0.0450687
233	0x3d9418a9	0.07231266
234	0x3cc2724c	0.023736142
235	0x3dbf9114	0.09353843
236	0xbd19d385	-0.037555236
237	0xbdb3599d	-0.08757327
238	0xbb0f1378	-0.0021831673
239	0xba431f70	-0.0007443344
240	0xbddcfa30	-0.10789907
241	0x3d9d4389	0.07678897
242	0x3da0e023	0.07855251
243	0xbc76ddbd	-0.015067515
244	0xbd7d5c84	-0.061855808
245	0x3827e1c0	4.002615e-05
246	0x3b4b333e	0.0031005885
247	0xbd7a5a6a	-0.06112138
248	0xbd9ff54d	-0.07810459
249	0xbba08db9	-0.004899707
250	0xbd790d5c	-0.060803756
251	0xbb9079ed	-0.004409066
252	0xbdbbb895	-0.091660656
253	0xbe03588a	-0.12826744
254	0xb95819f8	-0.0002060904
255	0xbd0b2724	-0.033972874

bias f4 [4]
0	0xbba11fb0	-0.0049171075
1	0xbcd45350	-0.025918633
2	0xbd2f8525	-0.042851586
3	0x3c7ae22a	0.015312711
