mutiltask/log/dvs/04011130/72500.pt (torch, 14183 bytes, 2 tensors)

weight f4 [4, 784]
0	0xbd01bbb4	-0.03167315
1	0xbc859477	-0.016306145
2	0xbcc69ec9	-0.024245637
3	0xbd7f41d7	-0.06231865
4	0x3d56f01c	0.05247508
5	0xbd4124cf	-0.047154244
6	0xbda2a104	-0.079408675
7	0x3cde0380	0.027101278
8	0xbd727635	-0.059194762
9	0xbc0f1877	-0.00873386
10	0xbd4bf5d8	-0.049795
11	0x3ce138a8	0.027492836
12	0xbd311f2f	-0.04324263
13	0xbd09b079	-0.033615563
14	0x3d14c203	0.036317836
15	0xbdaed748	-0.085371554
16	0xbc12def4	-0.008964289
17	0xbd1bf89e	-0.038078897
18	0x3c7ef6f8	0.015561812
19	0xbdb7387a	-0.08946319
20	0xbd9e0aa4	-0.07716873
21	0xbce3d953	-0.02781359
22	0xbbe051c4	-0.0068456847
23	0x3c3e9216	0.011631509
24	0xbd16b4ac	-0.036793396
25	0xbdad9749	-0.08476121
26	0xbcd59433	-0.026071643
27	0xbccb7469	-0.024835782
28	0xbc4788c5	-0.0121786045
29	0x3dff31cd	0.124606706
30	0x3cdd11be	0.026986
31	0xbdbd30c4	-0.09237817
32	0x3db5a255	0.08868853
33	0xbc202421	-0.009774239
34	0xbd626fe8	-0.055282503
35	0xbc7a2b16	-0.015269062
36	0xbdac8d14	-0.08425346
37	0x3d85bd49	0.06530244
38	0x3d7c5fe1	0.061614875
39	0xbddf4e61	-0.109036215
40	0xbe032502	-0.12807086
41	0xbdeda67b	-0.11604019
42	0xbc3dcc05	-0.011584287
43	0x3c869323	0.016427582
44	0x3dc55533	0.09635391
45	0xbdd99d72	-0.106257334
46	0xbd14957a	-0.036275364
47	0xbdd8e881	-0.105912216
48	0xbca4cccd	-0.020117188
49	0x3d88f572	0.0668744
50	0xbdd86ec0	-0.10567999
51	0xbd5e1210	-0.054216444
52	0x3d86e06d	0.065857746
53	0x3bfe3a84	0.0077584404
54	0xbc1d1453	-0.009587365
55	0xbd12d7cf	-0.035850342
56	0x3d286f41	0.041121725
57	0xbdbca56f	-0.092112415
58	0xbd2224c5	-0.039585847
59	0x3c0c60d2	0.008568006
60	0x3d3406c3	0.04395176
61	0xbd92e8c0	-0.071733
62	0xbd16675d	-0.03671967
63	0xbe29d136	-0.16583714
64	0x3b8b3124	0.0042478014
65	0xbc387a42	-0.011259617
66	0xbd7f46bf	-0.062323328
67	0x3de611c7	0.112338595
68	0xbd56970f	-0.052390154
69	0xbc6de3fb	-0.014519687
70	0xbda4df8a	-0.08050449
71	0x3c91ab82	0.017781977
72	0x3d2e8109	0.042603526
73	0xbda7333f	-0.08164071
74	0xbd6e30aa	-0.05815188
75	0xbb57bcbc	-0.003291889
76	0xbcaa7901	-0.020809652
77	0xbd26d9bc	-0.04073499
78	0xbd192742	-0.037390955
79	0xbd69e49a	-0.057102777
80	0xbc324b88	-0.010882266
81	0x3c73eb93	0.014887708
82	0x3d80117e	0.06253336
83	0xbd56324a	-0.052294053
84	0x3d3518bf	0.044213053
85	0xbe791dae	-0.24327728
86	0xbd499a70	-0.04921955
87	0xbe09f9d4	-0.13474208
88	0xbdf7f9a2	-0.121081606
89	0x3cd51752	0.026012097
90	0xbc0b3f1a	-0.008498931
91	0xbe4fd62f	-0.20296548
92	0xbdd98cb4	-0.1062254
93	0xbdabcf02	-0.08389093
94	0xbe2b4ec0	-0.1672926
95	0xbdf0a050	-0.11749327
96	0xbe0d0ce4	-0.13774449
97	0x3d359fd9	0.044341896
98	0xbd68d417	-0.05684289
99	0x3d4646f2	0.048407502
100	0xbd7f971d	-0.062399972
101	0x3c1b4624	0.009477172
102	0x3d0d904e	0.034561448
103	0x3bd4ee96	0.006498168
104	0xbda2ce83	-0.07949545
105	0xbd3c57dd	-0.04598223
106	0x3c33b839	0.010969215
107	0xbd2b8135	-0.04187127
108	0xbde85080	-0.11343479
109	0x3d600d91	0.054700438
110	0xbc17ca2d	-0.009264511
111	0xbd7ef946	-0.062249444
112	0x3d99fa3d	0.07518432
113	0xbd4967b2	-0.049171157
114	0xbcf9a078	-0.030472025
115	0xbdb18060	-0.08667064
116	0xbd9e8b7f	-0.077414505
117	0xbde437f0	-0.11143482
118	0x3c4ebdbd	0.012618479
119	0xbdb395c4	-0.087688
120	0xbda8b9b7	-0.08238547
121	0xbe000a86	-0.12504014
122	0x3cd64f86	0.026160967
123	0xbd48e7cb	-0.04904918
124	0x3da12107	0.078676276
125	0xbe0c3cc9	-0.13695063
126	0x3c54e4a9	0.01299397
127	0x3d6639af	0.056207355
128	0xbd8b091a	-0.06788845
129	0x3dfdf443	0.12400105
130	0xbc81fc23	-0.015867298
131	0xbdae6b3d	-0.08516548
132	0x3de8e029	0.1137088
133	0x3ca32f79	0.019920098
134	0x3c76759a	0.015042687
135	0x3d2b561e	0.041830175
136	0x3dc2c4a3	0.09510162
137	0x3bdfd8fe	0.0068312874
138	0x3c73ccce	0.014880372
139	0x3b7b8d95	0.003838395
140	0x3cb460d0	0.02201882
141	0x3c50c00a	0.012741098
142	0x3d752d25	0.059857506
143	0xbd837237	-0.06418269
144	0xbbb55d9e	-0.0055348417
145	0x3cbf4364	0.023347564
146	0x3cb77d67	0.022398664
147	0xbdbb6606	-0.09150319
148	0xbd20e753	-0.039283108
149	0xbce0a49e	-0.027422246
150	0x3d5e19b4	0.05422373
151	0x3d7c82be	0.061648123
152	0x3b4f231e	0.0031606625
153	0x3dde31ad	0.10849319
154	0xbd2b72c0	-0.04185748
155	0x3db6c5b0	0.08924425
156	0xbb58795f	-0.0033031327
157	0x3bd9e905	0.0066500925
158	0x3c401a2b	0.011724989
159	0xbc6d9b0a	-0.014502296
160	0x390b1940	0.0001326548
161	0x3c4fc6f8	0.012681715
162	0xbc1e9f2e	-0.009681506
163	0xbda156b0	-0.078778625
164	0xbcba4671	-0.022738667
165	0xbbb06812	-0.0053835
166	0xbbbf9d1e	-0.0058475873
167	0x3cca3234	0.024682142
168	0x3c8899aa	0.016674835
169	0xbe0c906f	-0.13726972
170	0xbcccb882	-0.024990324
171	0xbe4b969c	-0.19881672
172	0xbd994442	-0.07483722
173	0xbdceb2b9	-0.100926824
174	0xbd4a2669	-0.049353037
175	0xbd67ce80	-0.056593418
176	0x3cc0129e	0.023446377
177	0xbd924715	-0.07142464
178	0xbc9f3aad	-0.019437158
179	0x3e19d6ee	0.15023395
180	0xbc04a308	-0.00809551
181	0x3ce2c4b6	0.02768169
182	0x3e4c1395	0.19929345
183	0xbd2a2cf4	-0.041546777
184	0xbd036625	-0.032079834
185	0xbd8f53bc	-0.06998393
186	0x3dd4187c	0.103562325
187	0x3d52eaf4	0.0514936
188	0xbe0c7b4a	-0.13718906
189	0xbd1e68c9	-0.03867415
190	0x3cc0105d	0.023445303
191	0xbde1950e	-0.11014758
192	0xbd0cbafd	-0.034358013
193	0xbdab77f8	-0.083724916
194	0x3d840a26	0.06447248
195	0x3c60cf66	0.013721323
196	0xbc078cf1	-0.008273349
197	0xbca360f4	-0.019943692
198	0xb99c64f8	-0.00029829866
199	0x3d3ef863	0.0466236
200	0x3cb4b436	0.022058588
201	0xbd9d44eb	-0.07679161
202	0x3d0c8c27	0.034313347
203	0xbdbfce72	-0.09365548
204	0xbd14aa3e	-0.036295168
205	0x3e08b511	0.13350321
206	0x3db88ec3	0.09011605
207	0x3d56af9a	0.05241356
208	0xbb8d604b	-0.0043144575
209	0xba035807	-0.00050103705
210	0x3da0bc86	0.07848458
211	0xbdb4a46d	-0.08820424
212	0xbd625d56	-0.055264793
213	0x3d71e048	0.059051782
214	0x3d9f755d	0.07786057
215	0x3d8dc86f	0.06922995
216	0xbd0c4477	-0.03424498
217	0x3c5bed6e	0.013423307
218	0x3d9937d5	0.07481352
219	0x3dd59b9f	0.10430073
220	0xbe57b189	-0.21063818
221	0xbb69958a	-0.003564211
222	0x3c6493e2	0.013951274
223	0x3d81b407	0.063331656
224	0xb9cdd770	-0.0003926116
225	0xbdbfffad	-0.09374938
226	0xbd344579	-0.044011567
227	0xbe0e873c	-0.13918775
228	0x3d476cc1	0.0486877
229	0xbe3057f4	-0.17221051
230	0xbe03cb67	-0.1287056
231	0xbd933a83	-0.071888946
232	0xbcd928a8	-0.026508644
233	0x3da2fea0	0.07958722
234	0x3cf4f5ee	0.029902425
235	0x3dde2d95	0.10848538
236	0x3ad80962	0.0016482288
237	0xbdced8f5	-0.10099975
238	0x3d443433	0.047901344
239	0xbd4ff605	-0.050771732
240	0xbe184fbe	-0.14874169
241	0x3e188994	0.14896232
242	0x3dd18b73	0.10231676
243	0xbba515e1	-0.0050380086
244	0xbd287435	-0.04112645
245	0xbd528997	-0.051400747
246	0xbc35060a	-0.011048803
247	0xbda2120d	-0.07913599
248	0xbd8813ea	-0.06644423
249	0x3b9fc9e0	0.0048763603
250	0xbd869419	-0.06571216
251	0x3c358a42	0.0110803265
252	0xbe05c103	-0.1306191
253	0xbde72259	-0.11285848
254	0xbae10158	-0.0017166538
255	0xbdafe003	-0.08587649

bias f4 [4]
0	0x3ba212dd	0.0049460963
1	0xbd1a19d2	-0.03762228
2	0xbd1bb95d	-0.038018573
3	0x3cbf7e10	0.023375541
