mutiltask/log/dvs/04011130/75000.pt (torch, 14183 bytes, 2 tensors)

weight f4 [4, 784]
0	0xbd80cb66	-0.06288795
1	0xbcb12a0e	-0.021626499
2	0xbd98792f	-0.07444989
3	0xbcebaefb	-0.02876996
4	0x3d0082d3	0.031374764
5	0xbd506244	-0.050874963
6	0xbdcd444f	-0.100227945
7	0x3ca69fc7	0.02033986
8	0xbdf73b41	-0.12071849
9	0xbd414305	-0.047183055
10	0xbd14807d	-0.03625535
11	0xbcdd398d	-0.027004981
12	0xbd1af808	-0.037834197
13	0xbcfbcfd9	-0.030738758
14	0x3aa84c50	0.0012840126
15	0xbde12f87	-0.10995393
16	0xbd24594f	-0.040124234
17	0xbd976f23	-0.073942445
18	0xbce33786	-0.027736437
19	0xbdf370b7	-0.11886733
20	0xbdc11263	-0.09427335
21	0xbda1e37d	-0.07904718
22	0xbd79c6ee	-0.06098073
23	0xbd2f96c1	-0.04286838
24	0xbd42c1bd	-0.047548044
25	0xbde9dc9e	-0.114190325
26	0xbdbe4c8f	-0.09291946
27	0xbd83f68f	-0.06443512
28	0x3c713cfa	0.014724011
29	0x3e262df9	0.16228475
30	0x3d7ad29e	0.061236016
31	0xbde8b6c5	-0.113629855
32	0x3c80263b	0.01564323
33	0xbd4bf97e	-0.04979848
34	0xbdf217e4	-0.11820963
35	0xb9e8c78e	-0.00044399168
36	0xbde18337	-0.11011355
37	0x3cc48bf4	0.023992516
38	0x3d2776b1	0.040884677
39	0xbd3355ff	-0.043783184
40	0xbe138506	-0.14406213
41	0xbde52229	-0.11188156
42	0xbc7bfd5a	-0.015380228
43	0xbc16fc36	-0.009215405
44	0x3d92dddf	0.07171225
45	0xbe35c4ec	-0.17750901
46	0x3cd33cd6	0.025785845
47	0xbdf6d100	-0.12051582
48	0xbc9347d1	-0.01797858
49	0x3d346170	0.044038236
50	0xbdd8817d	-0.10571573
51	0xbd12ecb9	-0.035870288
52	0x3d8f925d	0.070103385
53	0xbcf2c45f	-0.029634653
54	0xba8f091c	-0.0010912749
55	0xbd21ce82	-0.03950358
56	0x3d0828b8	0.033241957
57	0xbe0cbf8d	-0.13744946
58	0xbc20c64e	-0.0098129045
59	0xbd27324f	-0.040819462
60	0x3e03f234	0.12885362
61	0xbd4d00de	-0.050049655
62	0xbacbec66	-0.0015558123
63	0xbe623233	-0.22089462
64	0xbd1ef2c3	-0.038805734
65	0xbda419a5	-0.08012704
66	0xbd98d1b9	-0.074618764
67	0x3dca5ff0	0.0988158
68	0xbd76cf58	-0.060256332
69	0xbc9568ee	-0.018238511
70	0xbd7006a4	-0.058600083
71	0x3d16250b	0.03665642
72	0x3bbb70b2	0.0057202214
73	0xbdca7402	-0.09885408
74	0xbb42b251	-0.0029708336
75	0x3b67a91d	0.0035348602
76	0xbcafe6f7	-0.021472437
77	0xbd7c5e50	-0.06161338
78	0xbd132812	-0.035926886
79	0x3b182848	0.002321737
80	0x3b824f42	0.0039767334
81	0x3ba36ea4	0.0049875546
82	0x3d81dc1f	0.06340813
83	0xbd3640b7	-0.04449531
84	0xbc217383	-0.0098542
85	0xbe5fc62d	-0.21852942
86	0xbd29b380	-0.04143095
87	0xbd4f575e	-0.05062043
88	0xbda9e174	-0.08294955
89	0xbcd0432d	-0.025422657
90	0xbcd800b0	-0.026367515
91	0xbe4e82de	-0.2016711
92	0xbda1ff25	-0.07909993
93	0xbddfe071	-0.10931481
94	0xbe37fb8b	-0.1796705
95	0xbde7557f	-0.11295604
96	0xbe3f72e4	-0.18696171
97	0x3dae7fbc	0.08520457
98	0xbdc46733	-0.09589996
99	0xbd2c3f07	-0.042052295
100	0xbde88d9c	-0.11355135
101	0xbcde0b0a	-0.027104873
102	0x3cfe8183	0.031067615
103	0xbd4b4888	-0.049629718
104	0xbd9c65ed	-0.07636628
105	0xbc4b5f46	-0.012412852
106	0x3d081db8	0.033231467
107	0xbd91a85c	-0.0711219
108	0xbe293357	-0.16523491
109	0x3d8904f6	0.06690399
110	0xbd1603e7	-0.036624815
111	0xbd8394ea	-0.064248875
112	0x3c2bee40	0.010493815
113	0xbc0278bc	-0.007963356
114	0xbdcf3eee	-0.10119425
115	0xbdaaf23e	-0.08346985
116	0xbd1498cd	-0.036278535
117	0xbd8ceca8	-0.06881076
118	0xbd78de55	-0.060758907
119	0xbe171be1	-0.14756729
120	0xbd79a7d1	-0.060951058
121	0xbdd4e2b3	-0.10394802
122	0x3d221204	0.039567962
123	0xbd928b40	-0.07155466
124	0x3d91faa2	0.071278825
125	0xbdfb0219	-0.122562595
126	0xbdbe791a	-0.09300442
127	0xbc503f63	-0.012710425
128	0xbd8e2ee8	-0.069425404
129	0x3d9af4a5	0.075661935
130	0xbcdc5384	-0.026895292
131	0xbe31776e	-0.17330715
132	0x3e084b2c	0.13309926
133	0x3dc0fb67	0.09422951
134	0x3cd8f5ee	0.026484456
135	0xbd3e4822	-0.04645551
136	0x3d8988fa	0.06715579
137	0x3d0211fd	0.031755436
138	0x3b4bae5c	0.0031079268
139	0xbc23c7ca	-0.009996364
140	0x3c385d76	0.011252752
141	0xbbb7d608	-0.0056102313
142	0x3d249741	0.04018331
143	0xbdc3cdbb	-0.09560724
144	0x3d168a1a	0.036752798
145	0xbd988b92	-0.07448496
146	0xbda01d53	-0.07818093
147	0xbdf06392	-0.117377415
148	0xbd8be34e	-0.06830464
149	0xbcc255e4	-0.023722596
150	0x3c225573	0.009908068
151	0x3d28b494	0.041187838
152	0xbca51667	-0.020152284
153	0x3d9cba86	0.07652764
154	0xbcec80a4	-0.028869934
155	0x3dc9af6f	0.098479144
156	0x3d38ce1e	0.045118444
157	0xbb356daf	-0.0027683785
158	0xbd626c52	-0.055279084
159	0xbc4804c6	-0.012208169
160	0xbd358484	-0.04431583
161	0xbcdf4c35	-0.027258018
162	0xbd1c2d03	-0.038128864
163	0xbe12a3cc	-0.14320296
164	0xbd33c74b	-0.043891232
165	0xbcf0c487	-0.029390587
166	0xbd2215ef	-0.0395717
167	0xbab70178	-0.001396223
168	0x3d253294	0.04033144
169	0xbdbbfea5	-0.09179429
170	0xbd07f519	-0.033192728
171	0xbe4f08a0	-0.20218134
172	0xbcc3eadb	-0.023915699
173	0xbde10ee4	-0.10989168
174	0xbd6546e3	-0.055975806
175	0xbda6d3b7	-0.0814585
176	0x3c0a5b81	0.008444668
177	0xbe2609ed	-0.16214724
178	0x3ce78fb5	0.028266767
179	0x3d9d9caf	0.07695901
180	0xbcee5524	-0.029093333
181	0x3b2d57eb	0.0026450108
182	0x3e353cfc	0.17699045
183	0xbd5e41b0	-0.054261863
184	0xbd818531	-0.06324232
185	0xbddc1fc9	-0.1074825
186	0x3d89b425	0.06723813
187	0x3c8aabcb	0.01692762
188	0xbe3ad353	-0.18244676
189	0xbdcbd3cb	-0.09952506
190	0x3d19107f	0.037369248
191	0xbd8f2036	-0.069885656
192	0xbdce246a	-0.10065539
193	0xbdb3d760	-0.08781314
194	0x3d2f2cc4	0.0427673
195	0xbc7c413d	-0.015396413
196	0x3cc3b9b1	0.023892255
197	0x3c64bac5	0.013960545
198	0x3b2a32af	0.0025970151
199	0x3c4fc4b1	0.012681172
200	0x3daa1484	0.08304694
201	0xbe08c756	-0.1335729
202	0x3dd11cde	0.10210584
203	0xbe06af7a	-0.13152876
204	0x3c4e61fa	0.012596602
205	0x3da3c5eb	0.07996734
206	0x3d84e052	0.06488098
207	0x3d24947c	0.04018067
208	0x3d3d305e	0.046188705
209	0x396fc86c	0.00022867479
210	0x3e32b4eb	0.17451827
211	0xbdd546af	-0.104138725
212	0xbd8fd74a	-0.07023485
213	0x3df2b180	0.11850262
214	0x3de02b90	0.10945809
215	0x3d550aea	0.05201236
216	0xbd8768a5	-0.06611756
217	0xbd3c9b6f	-0.04604667
218	0xbb8ce7ae	-0.0043000793
219	0x3dc33435	0.09531442
220	0xbe276759	-0.16348018
221	0xbc2f9a03	-0.010717872
222	0xbc7c5d8c	-0.015403163
223	0x3d86f86e	0.06590353
224	0xbcad920f	-0.02118781
225	0xbe099851	-0.1343701
226	0xbd3a66a0	-0.045508027
227	0xbe44e7e2	-0.19229081
228	0xbd259c3b	-0.040432196
229	0xbe54c17c	-0.20776933
230	0xbe0a466b	-0.13503425
231	0xbdf494de	-0.11942457
232	0xbd3939e5	-0.04522123
233	0x3d5e9252	0.05433876
234	0xbac7420d	-0.001520218
235	0x3e0b6c18	0.13615453
236	0xbc9f4391	-0.019441398
237	0xbdc8d6d1	-0.09806598
238	0x3df26835	0.11836282
239	0xbd4527ce	-0.048133664
240	0xbde9406f	-0.11389243
241	0x3e1d5f30	0.15368342
242	0x3d9f4b81	0.07778073
243	0xbcd0016a	-0.0253913
244	0xbd1f5919	-0.03890333
245	0xbde6c2ee	-0.11267649
246	0xbd8014ee	-0.06253992
247	0xbdabd9c7	-0.08391147
248	0xbc75776b	-0.014982085
249	0xb9d31ab6	-0.00040264957
250	0xbd3433dc	-0.04399477
251	0x3c825959	0.015911745
252	0xbe2cb897	-0.1686729
253	0xbde9b052	-0.114105836
254	0xbd044874	-0.03229566
255	0xbde92b5b	-0.113852225

bias f4 [4]
0	0x3d1cf8fc	0.038323388
1	0xbd061f2d	-0.032744575
2	0xbdca9b9b	-0.09892961
3	0x3d7b4719	0.0613471
