mutiltask/log/dvs/04011130/76667.pt (torch, 14183 bytes, 2 tensors)

weight f4 [4, 784]
0	0xbd6a0465	-0.057133097
1	0xbcd04fef	-0.02542874
2	0xbd580303	-0.052737247
3	0xbc66e8d8	-0.0140936
4	0x3d43e95c	0.04782997
5	0xbd49b52c	-0.049245045
6	0xbdda2bc4	-0.10652879
7	0x3b2a236e	0.002596106
8	0xbdf4af6e	-0.11947523
9	0xbd0542a7	-0.032534268
10	0xbcce971a	-0.025218535
11	0xbcd4c254	-0.02597157
12	0xbd36f200	-0.044664383
13	0xbd52389d	-0.051323522
14	0xbcc41222	-0.023934428
15	0xbdcf44de	-0.10120557
16	0xbcdba174	-0.026810385
17	0xbd6192a7	-0.0550715
18	0xbcff78cc	-0.03118553
19	0xbdfbbd27	-0.12291937
20	0xbdae884c	-0.0852209
21	0xbd8c9054	-0.06863466
22	0xbd3a82bd	-0.045534838
23	0xbd46ef33	-0.048567962
24	0xbd2d81c6	-0.04236009
25	0xbdac2453	-0.08405366
26	0xbd70cae4	-0.05878724
27	0xbd4d1796	-0.05007132
28	0x3bbdab04	0.005788209
29	0x3e07a735	0.13247378
30	0x3daf7927	0.0856803
31	0xbdcfa874	-0.10139552
32	0x3ca58990	0.020207196
33	0x3d071360	0.03297746
34	0xbdb45b00	-0.088064194
35	0xbd0e021c	-0.03466998
36	0xbda291d6	-0.07937972
37	0x3cef57b5	0.029216627
38	0x3d370284	0.044680133
39	0xbd3297bd	-0.04360174
40	0xbe0691af	-0.13141511
41	0xbd43e47b	-0.047825318
42	0x39af1f74	0.00033402035
43	0x3bfae82a	0.0076570706
44	0x3d4cc063	0.04998816
45	0xbe19a2b3	-0.15003471
46	0x3d676805	0.056495685
47	0xbd8d7d2c	-0.0690864
48	0x3c7472df	0.0149199655
49	0x3d71d088	0.05903676
50	0xbda26da6	-0.0793107
51	0xbc5465d3	-0.01296373
52	0x3de06a2e	0.10957752
53	0x3bc9c6ff	0.0061577554
54	0x3ccd4b91	0.025060447
55	0xbd2da306	-0.0423918
56	0x3d151b34	0.036402896
57	0xbde90b1d	-0.11379073
58	0x3cf987dc	0.03046029
59	0xbbf68303	-0.007522942
60	0x3d5b30d1	0.05351335
61	0xbc3dc1f8	-0.01158189
62	0xbcd601be	-0.026123878
63	0xbe4671a0	-0.19379282
64	0xbcfb9108	-0.030708805
65	0xbde59e98	-0.1121189
66	0xbda6f541	-0.08152247
67	0x3db31991	0.08745111
68	0xbd854dbc	-0.06508967
69	0xbb1cdad8	-0.0023934152
70	0xbd7c479e	-0.061591737
71	0x3d2988c6	0.041390203
72	0xbc31c35a	-0.010849798
73	0xbd92ac87	-0.07161813
74	0xbc93b186	-0.018028986
75	0x3d4a3b70	0.04937309
76	0xbb454fbf	-0.0030107347
77	0xbd921030	-0.07131994
78	0xbc88ee8c	-0.01671531
79	0x3c4da982	0.012552621
80	0x3d636a08	0.05552104
81	0xbc21d9b0	-0.009878561
82	0x3d92e2f6	0.071721956
83	0xbc8f8c9c	-0.017523102
84	0xbca5ec2e	-0.02025422
85	0xbdfcf156	-0.12350719
86	0xbd56eb1e	-0.05247032
87	0xbc4ef335	-0.012631227
88	0xbd6c0bd9	-0.057628486
89	0x3c46f232	0.012142705
90	0x3ca059fe	0.019574162
91	0xbe0d6abd	-0.13810249
92	0xbd4423ec	-0.04788582
93	0xbdab848e	-0.08374892
94	0xbe2fdbe9	-0.17173733
95	0xbde5f894	-0.11229053
96	0xbe587cd3	-0.21141367
97	0x3d25a6de	0.04044234
98	0xbdd1e4f6	-0.10248749
99	0x3c445efa	0.011985535
100	0xbd89c0b1	-0.06726206
101	0x3baf4ae0	0.005349502
102	0x3ce094c8	0.027414694
103	0xbd520545	-0.051274557
104	0xb869fb60	-5.578564e-05
105	0x3cafa587	0.021441234
106	0x3d90d205	0.07071308
107	0xbccc6656	-0.024951141
108	0xbe2426fb	-0.16030495
109	0x3da17369	0.07883341
110	0xbd39ed80	-0.045392513
111	0xbd066d7c	-0.032819256
112	0x3d481961	0.04885233
113	0xbd28382e	-0.041069202
114	0xbd3cb2cb	-0.046068948
115	0xbd72237f	-0.059115883
116	0xbdb723cf	-0.08942377
117	0xbabe8971	-0.001453681
118	0xbd4a92a3	-0.04945625
119	0xbdcbfed9	-0.09960718
120	0xbc1b3686	-0.009473449
121	0xbd80e917	-0.06294458
122	0x3d3d9b5d	0.046290744
123	0xbd4d934d	-0.050189305
124	0x3d3e727f	0.04649591
125	0xbdad5ba2	-0.08464743
126	0xbd969d77	-0.07354253
127	0x3c985d72	0.018599246
128	0xbd28aaaf	-0.0411784
129	0x3d872ee7	0.06600743
130	0xbc882509	-0.016619222
131	0xbe061dbe	-0.13097283
132	0x3e11962b	0.14217441
133	0x3dc6a579	0.0969953
134	0x3db8df8e	0.09027015
135	0xbc6ba7f0	-0.014383301
136	0x3dbba77f	0.09162807
137	0x3dba6775	0.09101764
138	0x3c62eab3	0.013849902
139	0xbc5b54eb	-0.013386945
140	0x3cca32e3	0.024682468
141	0xbb31da76	-0.002713827
142	0x3d4ce8c2	0.050026663
143	0xbd6b1a25	-0.05739798
144	0x3dacb63c	0.08433196
145	0xbd95b748	-0.07310349
146	0xbd8b9ab1	-0.068166144
147	0xbd9ce00e	-0.076599225
148	0xbd18c95d	-0.03730141
149	0x3cbeae90	0.023276597
150	0x3c9fdc20	0.019514143
151	0x3d40598f	0.04696041
152	0x3c5707a1	0.0131243775
153	0x3db99fc5	0.09063677
154	0xbcc00297	-0.023438735
155	0x3ddde479	0.10834593
156	0x3d963562	0.07334401
157	0x3c6b6b0e	0.014368786
158	0xbc950ae5	-0.018193671
159	0xbb964c1b	-0.004586709
160	0xbc9791fb	-0.018502226
161	0xbd20a18e	-0.03921657
162	0xbc5ace69	-0.013354876
163	0xbdf75ce1	-0.12078262
164	0xbcbacf5c	-0.022803955
165	0xbcd72ea8	-0.026267365
166	0xbd340c37	-0.04395696
167	0x3b48136a	0.003052915
168	0x3d6b6b8a	0.057475604
169	0xbdbbd67d	-0.0917177
170	0xbd0a7273	-0.033800554
171	0xbe23d79e	-0.1600022
172	0x3d99729f	0.07492565
173	0xbdb02b1d	-0.08601973
174	0x3bbd8e47	0.005784783
175	0xbd48fb14	-0.04906757
176	0x3d1e1396	0.038592897
177	0xbdf186b4	-0.11793271
178	0x3d8f3269	0.06992037
179	0x3d9c8c23	0.076439165
180	0xbd311759	-0.043235157
181	0xbb8eaa4d	-0.0043537975
182	0x3e27090d	0.16312046
183	0xbc69e4d2	-0.014275746
184	0xbdd68161	-0.10473896
185	0xbd6a5408	-0.057209045
186	0x3e04b647	0.12960158
187	0x3c2f26a7	0.010690368
188	0xbe0840c5	-0.13305958
189	0xbd882228	-0.0664714
190	0x3d904294	0.07043949
191	0xbd12de82	-0.03585673
192	0xbd83e0b0	-0.0643934
193	0xbd90af00	-0.070646286
194	0x3d5c6c98	0.0538145
195	0x3d2db6ae	0.042410545
196	0x3c4da2ea	0.012551049
197	0x3cc1600b	0.023605367
198	0x3ce0ff62	0.027465526
199	0xbcef915b	-0.029244116
200	0x3d85546a	0.06510241
201	0xbd69a86e	-0.057045393
202	0x3e0877cd	0.1332695
203	0xbdf43ac4	-0.11925271
204	0x3cf8ac47	0.030355586
205	0x3dbbda22	0.09172465
206	0x3d91a5af	0.0711168
207	0x3da3da03	0.08000567
208	0x3d84aca2	0.064782396
209	0x3d50e167	0.05099621
210	0x3e34c5a9	0.17653526
211	0xbd4ef178	-0.05052325
212	0xbc06edd5	-0.0082354145
213	0x3dd6362c	0.10459551
214	0x3e1085d6	0.14113554
215	0x3d9c80a2	0.07641722
216	0xbd04ad61	-0.03239191
217	0xbd28486e	-0.0410847
218	0xba949dde	-0.0011338552
219	0x3df3bb26	0.1190093
220	0xbdd55462	-0.10416485
221	0xbbb88f93	-0.0056323498
222	0x3ce34937	0.027744872
223	0x3db0c320	0.08630967
224	0xbc31652c	-0.010827344
225	0xbd91e8f7	-0.07124513
226	0x3bc6990c	0.006060725
227	0xbdea412e	-0.11438213
228	0xbd1d7100	-0.038437843
229	0xbe35a003	-0.17736821
230	0xbdf3b476	-0.118996546
231	0xbd56811b	-0.05236922
232	0xbc9e6a6e	-0.019337859
233	0x3dbf50d1	0.093415864
234	0x3c9f384a	0.01943602
235	0x3e221ebc	0.15832037
236	0xbca2bccd	-0.019865418
237	0xbd7b18de	-0.061303012
238	0x3e4c6d3e	0.19963548
239	0x3c007ccb	0.007842253
240	0xbd86f1d8	-0.06589097
241	0x3e43ad44	0.19109064
242	0x3d954279	0.07288069
243	0xbcbfd2d6	-0.023415964
244	0x3c2aa436	0.0104151275
245	0xbdd4a177	-0.103823595
246	0xbd727cc5	-0.05920102
247	0xbd760f2e	-0.06007307
248	0xbc30f77a	-0.0108011905
249	0x3d1d6c71	0.038433496
250	0xbc4f1964	-0.012640331
251	0x3d08c383	0.03338958
252	0xbe1cd1a1	-0.15314342
253	0xbd9e7ca5	-0.07738618
254	0xb949f880	-0.00019261427
255	0xbda0efa7	-0.0785821

bias f4 [4]
0	0x3d16b437	0.03679296
1	0xbd3f2488	-0.0466657
2	0xbd023e4a	-0.031797685
3	0x3d132faf	0.035934146
