mutiltask_ann/log/data_cell3_ete_03151128/EMNIST_97292.pt (torch, 632607 bytes, 4 tensors)

weight f4 [200, 784]
-0.027850736 -0.021709843 -0.0069622546 0.034320626 0.03866801 0.015455253 0.0020513625 0.005834399
-0.006587539 0.017824635 -0.017487692 0.010795888 -0.023977216 0.037489455 -0.027160715 -0.022109028
0.028753305 0.03213286 0.028746823 -0.011185068 0.032351743 -0.026084084 -0.02351245 -0.0029088405
0.017480608 0.0012527467 -0.013451143 0.009462203 0.041611504 0.023848549 0.0023209155 -0.0105645005
0.01761499 -0.024352083 -0.015421361 0.038696516 0.027335541 0.011201831 0.036822654 0.03748184
-0.015040567 -0.023341348 0.008226379 0.011693208 0.021722944 0.034278724 0.0036695106 -0.011292143
0.039458986 0.037581317 0.033115413 0.043871187 -0.011909779 0.020339888 0.019929202 0.037280593
0.0027527155 0.009434288 0.031433225 0.055012666 0.056319077 0.029084949 -0.024033953 -0.0021391392
0.018733889 0.019121237 -0.0215971 0.011000425 -0.021792442 -0.006791461 0.0314597 4.9980474e-05
0.007881082 0.0049060755 0.18765682 0.1758655 0.13194357 0.186034 0.10809585 0.08521545
0.06698231 -0.0012467126 0.032348182 0.018204354 0.03191596 0.033827182 -0.00076187676 0.03408555
0.005934676 -0.028757254 -0.024013553 0.029242296 0.08126732 0.021858297 -0.0548368 -0.028018266
0.015366782 0.027898433 0.0395411 0.008281314 0.046794623 0.048188277 0.09606759 0.08390148
0.053834096 0.04630409 0.014576424 0.02036948 0.029560443 -0.013870308 0.013171077 -0.012134147
0.004179627 0.0049165245 0.017340232 0.008665104 -0.01696534 -0.008163058 0.033945505 0.075948
0.10750373 -0.010972455 -0.02594003 -0.029459026 0.01617779 0.018368771 0.049092386 0.02087427
0.087062284 0.04411434 0.044089228 0.0349296 0.04973763 0.032793637 0.083448894 -0.012468552
0.00041095223 0.023508105 0.02357541 -0.013137284 0.035272498 0.029242057 0.02062433 -0.043618098
-0.032180827 0.01980114 0.018901056 0.0678095 0.023464942 0.018994626 -0.10750569 0.0077452194
0.040428884 0.06257115 0.031789303 0.033126038 0.08645015 0.098095715 0.050737996 0.07445914
0.036264185 0.051305424 0.08556818 0.033931434 0.07920411 0.115508094 0.039036307 0.03995977
-0.026399206 0.030583756 0.04514621 0.18034105 0.029028319 0.062390134 0.040485315 0.0014501751
0.021139521 -0.06234743 -0.0035916045 0.07117363 0.049118355 0.066789255 0.07549 0.05704543
0.121086754 0.16893493 0.09789776 0.06649158 0.07850222 0.059103448 0.18343839 0.13221022
0.13147472 0.13476552 0.028078102 -0.023405451 0.008151777 -0.00030768575 0.09403434 0.14038754
0.06341977 0.06516094 0.017815353 0.0495298 0.05401711 0.036188517 0.041097123 0.022713197
0.06549828 0.10722162 0.011967242 0.03258067 0.12233533 0.08631225 0.046714064 0.068099484
0.04552863 0.10978443 0.20729074 0.043365188 0.13669486 0.1058304 0.046319313 0.011122445
-0.0016909144 0.04512451 0.06358413 0.048138384 0.058754016 0.029604 0.054001853 0.06302933
0.10164268 0.031929705 0.01172613 0.0424987 0.017572822 0.029563578 0.017755214 0.033970527
-0.04203423 -0.07379862 0.046243243 0.029620541 0.0790113 0.07813315 0.08412544 0.09658555
0.315088 0.086535454 0.04201365 -0.0016662148 -0.024008673 0.05409703 0.072320655 0.025491752
00000000: 3a27 e4bc d7d8 b1bc a023 e4bb c993 0c3d
00000010: 5962 1e3d 0838 7d3c 2770 063b 7c2e bf3b
00000020: 48dc d7bb f804 923c 5942 8fbc 3ce1 303c
00000030: de6b c4bc 8b8e 193d 2680 debc fe1d b5bc
00000040: 0d8c eb3c bf9d 033d 757e eb3c 9341 37bc
00000050: 4383 043d 4aae d5bc 2e9d c0bc 3fa2 3ebb
00000060: 7e33 8f3c 3433 a43a 2f62 5cbc 5b07 1b3c
00000070: d370 2a3d 085e c33c 801a 183b ba16 2dbc
00000080: 504d 903c 057e c7bc e0a9 7cbc 3d80 1e3d
00000090: c9ee df3c e287 373c 5ad3 163d 8f86 193d
000000a0: b66c 76bc 5b36 bfbc efc7 063c de94 3f3c
000000b0: 51f4 b13c d967 0c3d 2c7c 703b ae02 39bc
000000c0: bf9f 213d deee 193d 07a4 073d 46b2 333d
000000d0: 3c21 43bc d69f a63c 9142 a33c 89b3 183d
000000e0: e766 343b 4692 1a3c 20c0 003d f654 613d
000000f0: d5ae 663d 8f43 ee3c dae2 c4bc cd30 0cbb
00000100: d077 993c 24a4 9c3c 67ec b0bc 203b 343c
00000110: 1086 b2bc e78a debb e3db 003d 20a2 5138
00000120: a71f 013c 25c3 a03b 1c29 403e 1616 343e
00000130: 371c 073e b27f 3e3e 5b61 dd3d 7085 ae3d
00000140: 052e 893d bc68 a3ba 877f 043d 4c21 953c
00000150: 4fba 023d 5f8e 0a3d afb8 47ba 4a9d 0b3d
00000160: ac77 c23b 5594 ebbc 12b8 c4bc 8a8d ef3c
00000170: 7b6f a63d 2c10 b33c 8d9c 60bd 9086 e5bc
00000180: f5c4 7b3c 418b e43c d9f5 213d 59ae 073c
00000190: b8ab 3f3d 1261 453d 16bf c43d 8ad4 ab3d
000001a0: 2481 5c3d 5ca9 3d3d f4d1 6e3c e5dd a63c
000001b0: be28 f23c 4a40 63bc 80cb 573c 4dce 46bc
000001c0: 41f5 883b cc1a a13b 1a0d 8e3c 15f8 0d3c
000001d0: e6fa 8abc 59be 05bc 710a 0b3d a08a 9b3d
000001e0: ea2a dc3d d0c5 33bc 3080 d4bc 0e54 f1bc
000001f0: 4987 843c 1b7a 963c 1915 493d 8400 ab3c
00000200: b64d b23d 3db1 343d e896 343d 5712 0f3d
00000210: afb9 4b3d 9f52 063d 41e7 aa3d e648 4cbc
00000220: 1375 d739 1294 c03c 3821 c13c c33d 57bc
00000230: e579 103d 0a8d ef3c 5bf4 a83c e4a8 32bd
00000240: 0bd0 03bd 0036 a23c 63d6 9a3c b5df 8a3d
00000250: 8d39 c03c 9e9a 9b3c f12b dcbd 9ccb fd3b
00000260: c298 253d 4e25 803d 8035 023d 2baf 073d
00000270: c70c b13d 68e6 c83d a5d2 4f3d 097e 983d
00000280: c189 143d a325 523d 5f3e af3d b0fb 0a3d
00000290: c435 a23d 828f ec3d 89e4 1f3d dbac 233d
000002a0: 2643 d8bc c98a fa3c 3beb 383d 53ab 383e
000002b0: cccc ed3c cc8c 7f3d eed3 253d cd13 be3a
000002c0: ca2c ad3c 0560 7fbd 2061 6bbb 7bc3 913d
000002d0: 5430 493d cec8 883d 809a 9a3d 78a8 693d
000002e0: 55fc f73d 47fd 2c3e 9f7e c83d bd2c 883d
000002f0: c6c5 a03d 7516 723d 46d7 3b3e 1e62 073e
00000300: 4fa1 063e f9ff 093e 0c04 e63c cabc bfbc
00000310: 088f 053c e250 a1b9 1395 c03d c0c1 0f3e
00000320: 39e2 813d 1973 853d 81f1 913c c2df 4a3d
00000330: 0c41 5d3d 693a 143d 7555 283d 0711 ba3c
00000340: f623 863d 0297 db3d 4012 443c 4f73 053d
00000350: f28a fa3d 7ac4 b03d 3f57 3f3d be77 8b3d
00000360: 3b7c 3a3d a9d6 e03d 0644 543e b29f 313d
00000370: bdf9 0b3e 9cbd d83d 52b9 3d3d ea3a 363c
00000380: aca1 ddba 7ad4 383d 6538 823d c12c 453d
00000390: 0da8 703d 1684 f23c 0c31 5d3d 8515 813d
000003a0: 0a2a d03d b9c8 023d f41e 403c 1e13 2e3d
000003b0: e1f4 8f3c 512f f23c 6273 913c ae24 0b3d
000003c0: 162c 2cbd bb23 97bd 8e69 3d3d c7a6 f23c
000003d0: add0 a13d 4604 a03d f549 ac3d a5ce c53d
000003e0: 3753 a13e 8039 b13d 8116 2c3d e464 daba
000003f0: d6ad c4bc d994 5d3d da1c 943d 14d4 d03c

bias f4 [200]
0.0020091182 -0.022800602 0.008859125 -0.0038764474 -0.017442198 -0.043473247 0.021380035 -0.029756844
-0.008394002 0.0115424525 0.017231213 -0.025878549 -0.043415282 -0.013368805 -0.009167031 0.05713694
0.023924492 -0.004651506 0.024336655 0.03799861 -0.0027754195 0.03398405 0.0012308988 -0.0016833215
0.026618646 -0.024058433 -0.05436616 -0.036920555 -0.0008195358 -0.015194175 0.02803742 0.027144551
-0.018871121 -0.031415302 -0.014230953 0.06307597 -0.06346672 0.041215815 0.048616473 0.040834304
-0.0051064836 0.018582856 0.010152428 -0.0056701405 0.011546287 -0.018286107 -0.0013922985 0.04342999
0.03259598 -0.015039811 -0.024217378 -0.051909108 -0.03226187 -0.008438134 0.01348491 -0.049811672
0.030294359 -0.017691592 0.003061027 0.016033608 0.056257747 0.017288521 -0.041367352 0.017812833
0.035797145 0.022779018 -0.034431014 0.06646586 0.0033061532 -0.021560797 -0.049095366 -0.011491734
-0.021627398 -0.014708874 0.0009680389 0.035557896 0.007008737 -0.011430818 0.03802278 -0.025415655
-0.03666055 0.039602414 0.066676356 0.04681322 0.050788254 -0.03106422 -0.042525224 0.04690123
-0.05834467 -0.011538915 -0.0015749624 -0.060220424 0.022485614 0.046781227 0.021469587 -0.0408815
0.034386132 -0.078192875 0.027248736 -0.03280314 0.016081465 -0.04614303 0.05194235 0.01376481
0.06371194 0.0046145027 -0.010496535 0.06430822 0.01848388 -0.018559413 -0.05098843 0.019775921
-0.05074725 -0.0006165976 -0.049643733 -0.010578491 0.009267796 0.011569319 0.010622 0.045402013
-0.04667506 -0.020981295 -0.06684791 0.030863754 -0.03134916 0.050796643 0.017523667 -0.013311341
0.032330595 0.017767057 0.037770603 -0.008412168 0.034834992 0.029555494 0.050719775 -0.014614048
-0.01773294 -0.014377142 -0.0510751 -0.019517928 0.0031140738 -0.0036494413 -0.018159501 0.03560158
-0.025260223 0.005699175 -0.008614151 -0.02848575 -0.012355764 0.019032406 0.019378362 0.04278702
0.0035232413 0.044032257 -0.0050177975 -0.016141508 0.016485566 -0.016748177 -0.016280137 0.0076844464
-0.006559648 -0.00774441 -0.009687759 0.012682649 -0.060232215 -0.00038623056 -0.0047019226 -0.040675998
-0.0075727925 0.014428574 -0.012288918 -0.0282989 0.029654533 -0.0035546941 0.03704114 -0.02613696
-0.04921943 0.044242952 0.026293667 0.007797234 -0.010367599 -0.02913578 0.008939739 -0.05044393
-0.0141307665 0.0032066407 0.038220093 -0.015457789 0.0014523664 0.004291828 0.033935703 -0.0033574402
0.013461973 0.01584899 -0.012392789 -0.0036037867 -0.009619212 0.007882242 0.048922475 0.06644793
00000000: 69ab 033b 54c8 babc dd25 113c ff0b 7ebb
00000010: f1e2 8ebc 0111 32bd 2f25 af3c a0c4 f3bc
00000020: ff86 09bc 8e1c 3d3c 7928 8d3c 40ff d3bc
00000030: 39d4 31bd d508 5bbc 5131 16bc 6d08 6a3d
00000040: 4cfd c33c a96b 98bb aa5d c73c 6ea4 1b3d
00000050: d0e3 35bb dc32 0b3d 1c56 a13a e6a2 dcba
00000060: 590f da3c 3116 c5bc 0daf 5ebd 023a 17bd
00000070: 1ed6 56ba fdf0 78bc bbae e53c 405e de3c
00000080: 9c97 9abc 55ad 00bd f128 69bc f92d 813d
00000090: d7fa 81bd ead1 283d 1122 473d df41 273d
000000a0: 4a54 a7bb 133b 983c 5f56 263c 96cc b9bb
000000b0: a32c 3d3c bfcc 95bc c97d b6ba a5e3 313d
000000c0: 5d83 053d 8a69 76bc 8663 c6bc a59e 54bd
000000d0: 0625 04bd 1940 0abc d0ef 5c3c 5307 4cbd
000000e0: e02b f83c f5ed 90bc 839b 483b ea58 833c
000000f0: 866e 663d a8a0 8d3c d070 29bd 38ec 913c
00000100: 07a0 123d 109b ba3c 8907 0dbd 411f 883d
00000110: 0cac 583b 45a0 b0bc 3918 49bd d347 3cbc
00000120: f12b b1bc 7dfd 70bc fec3 7d3a 28a5 113d
00000130: 8ca9 e53b 5348 3bbc c6bd 1b3d 7e34 d0bc
00000140: 5f29 16bd 2436 223d 9d8d 883d 38bf 3f3d
00000150: 5807 503d 647a febc ee2e 2ebd 811b 403d
00000160: d2fa 6ebd b80d 3dbc f86e ceba b1a9 76bd
00000170: c033 b83c ac9d 3f3d fde0 af3c 5c73 27bd
00000180: 79d8 0c3d 9623 a0bd be38 df3c 965c 06bd
00000190: 47bd 833c 7900 3dbd 80c1 543d cc85 613c
000001a0: 687b 823d 4135 973b a9f9 2bbc 07b4 833d
000001b0: 826b 973c e909 98bc 3ed9 50bd 1d01 a23c
000001c0: 59dc 4fbd 2aa3 21ba 3a57 4bbd 6851 2dbc
000001d0: f4d7 173c 3e8d 3d3c e607 2e3c 76f7 393d
000001e0: 592e 3fbd f7e0 abbc 8fe7 88bd fcd5 fc3c
000001f0: fa67 00bd 2410 503d cb8d 8f3c d017 5abc
00000200: 166d 043d 388c 913c 59b5 1a3d 31d3 09bc
00000210: 23af 0e3d 5d1e f23c 8abf 4f3d c36f 6fbc
00000220: ac44 91bc 1b8e 6bbc 2034 51bd 10e4 9fbc
00000230: 7d15 4c3b 772b 6fbb 3cc3 94bc f6d2 113d
00000240: 87ee cebc 25c0 ba3b 5e22 0dbc f35a e9bc
00000250: d56f 4abc d9e9 9b3c 5fbf 9e3c 7141 2f3d
00000260: 2ee6 663b 2b5b 343d 566c a4bb 323b 84bc
00000270: bd0c 873c 7933 89bc ec5d 85bc cfcd fb3b
00000280: 51f2 d6bb d2c4 fdbb 68b9 1ebc e3ca 4f3c
00000290: 0eb6 76bd fd7e cab9 9612 9abb e09b 26bd
000002a0: 3025 f8bb d365 6c3c 7557 49bc 18d3 e7bc
000002b0: 10ee f23c dff5 68bb 73b8 173d 2e1d d6bc
000002c0: 509a 49bd 1938 353d d165 d73c f17f ff3b
000002d0: dddc 29bc 29ae eebc fc77 123c 4b9e 4ebd
000002e0: bb84 67bc 8126 523b ac8c 1c3d ab42 7dbc
000002f0: 545d be3a 76a2 8c3b 2a00 0b3d 8008 5cbb
00000300: 9b8f 5c3c bed5 813c 200b 4bbc 822d 6cbb
00000310: e699 1dbc 8524 013c ef62 483d da15 883d

weight f4 [3, 200]
-0.06429286 -0.062129896 0.06390632 -0.01718444 0.08203362 -0.0740244 -0.0049208133 -0.05053202
0.039630316 -0.043927792 0.05835389 -0.13522616 -0.010480983 -0.010571281 -0.0974424 0.07243642
0.07940221 -0.24568903 0.10428593 -0.020101013 -0.0052164774 0.27059603 0.031537224 0.0050631906
0.03658744 0.075051755 -0.14780183 -0.26712295 0.113084435 -0.28115925 -0.00089096394 0.088011056
-0.06652838 -0.031333696 -0.12005718 0.42109254 -0.09870246 0.003650848 0.08770236 0.020907896
-0.013173635 0.03625315 0.26169235 -0.007468805 0.09089593 -0.15850334 -0.033475995 0.011348955
0.36902502 -0.0033490397 -0.44198248 -0.3142944 -0.2290334 -0.20914638 -0.028368488 -0.23940815
0.3722475 -0.19801001 -0.12939718 0.039405458 0.26152402 -0.012170875 -0.046217036 0.04422603
0.24175043 0.041084517 -0.17675647 0.0076175826 0.061622683 0.10001768 -0.1367319 -0.071834184
-0.38350862 0.08978102 0.1639332 0.1011568 -0.010017035 0.0051549445 0.095833205 -0.09092529
-0.43301505 0.12590745 0.032538425 0.068500996 0.047528293 -0.06379421 -0.0015818347 -0.0148819
-0.30185726 -0.037973903 -0.06140944 -0.37498572 -0.046627518 0.16357918 -0.025288306 -0.36254358
0.27455404 -0.15047313 0.109108195 -0.0005381084 0.07281011 -0.15079351 0.021531152 -0.028533654
0.07512516 -0.035216425 0.035306104 0.03782506 0.0032915124 -0.3616363 -0.21468991 0.04310642
-0.085131325 0.039245863 -0.04660515 -0.045811955 -0.02360033 -0.027029375 0.425536 0.48649922
-0.30230838 -0.05954874 -0.2602052 0.06165163 -0.04695812 0.14251277 -0.060180537 -0.1387522
0.34026098 -0.073681764 0.13923813 -0.18941316 0.042181924 0.03392126 0.060187284 -0.29108122
-0.28546095 -0.14926897 -0.3449361 -0.036487304 -0.08469096 0.03718268 -0.27274862 0.007719318
-0.3316555 -0.035111077 -0.02689752 -0.049712036 0.012311751 0.015159282 0.2950402 0.4141281
-0.120125234 0.052294783 -0.23255013 -0.02739473 -0.048886668 -0.069438554 0.106557585 0.066096954
-0.012650273 -0.24985987 -0.01064527 0.25468013 -0.11502179 -0.12156664 0.04433688 -0.10787976
0.04630283 -0.078381225 0.13318536 -0.26460555 -0.07534732 -0.22985336 0.14045238 0.07537012
-0.10066929 -0.030541593 -0.118351094 -0.25474954 -0.06258302 -0.1893402 -0.071438946 -0.16578732
-0.07787885 0.27046895 0.016673408 0.055221975 -0.18306802 0.0033279425 0.24492581 0.08755969
-0.01454114 0.0015828984 -0.3278276 0.28199598 0.006976136 0.08730585 0.34935686 0.35446405
0.04381482 -0.19115448 -0.26788068 -0.045964032 -0.0078117773 -0.077888936 -0.005112879 0.045026887
-0.12714618 0.04412188 0.114950724 0.03886362 -0.058321383 -0.108849466 0.072421804 0.008745281
0.2268584 0.22981395 -0.04409569 0.09012015 -0.1415954 -0.06361546 0.16946727 -0.124523394
0.036163338 -0.13833086 -0.014883203 0.069798455 -0.20987001 0.14880092 0.14809251 0.20636989
0.13997558 0.05336606 -0.12135697 -0.078077175 -0.03736909 0.04754264 0.07590543 0.11574091
0.058537073 0.27890477 -0.09827074 -0.007190199 -0.1331518 0.22717276 -0.013613758 0.076565765
-0.19931962 0.20621057 0.10259672 0.2610044 0.047674455 0.12059628 0.19682717 0.21600933
00000000: faab 83bd eb7b 7ebd 51e1 823d 62c6 8cbc
00000010: 3e01 a83d 1b9a 97bd c63e a1bb aafa 4ebd
00000020: 6653 223d a1ed 33bd 7d04 6f3d ba78 0abe
00000030: 6eb8 2bbc 2b33 2dbc e28f c7bd 8c59 943d
00000040: a09d a23d e895 7bbe dd93 d53d e1aa a4bc
00000050: fcee aabb 908b 8a3e 2d2d 013d 1fe9 a53b
00000060: b6dc 153d bcb4 993d 5d59 17be 57c4 88be
00000070: d098 e73d 1bf4 8fbe 948f 69ba 243f b43d
00000080: 0840 88bd c357 00bd 8ae0 f5bd 7199 d73e
00000090: 8424 cabd 1143 6f3b 4b9d b33d 0947 ab3c
000000a0: 3bd6 57bc 2f7e 143d 8afc 853e e1bc f4bb
000000b0: a527 ba3d b34e 22be 201e 09bd f8f0 393c
000000c0: d9f0 bc3e 907b 5bbb 874b e2be 32eb a0be
000000d0: bb87 6abe 782a 56be 0865 e8bc 6927 75be
000000e0: 3997 be3e 23c3 4abe b280 04be 9e67 213d
000000f0: 7ae6 853e 5a68 47bc 134e 3dbd 5b26 353d
00000100: 6d8d 773e 3d48 283d a6ff 34be ea9c f93b
00000110: 1168 7c3d 12d6 cc3d 7203 0cbe cd1d 93bd
00000120: 3e5b c4be 1ddf b73d 1bde 273e 4c2b cf3d
00000130: 7d1e 24bc cfea a83b 3344 c43d 0a37 babd
00000140: 26b4 ddbe e2ed 003e 0347 053d 404a 8c3d
00000150: 07ad 423d 8aa6 82bd 9155 cfba 36d3 73bc
00000160: 098d 9abe 868a 1bbd 7788 7bbd 21fe bfbe
00000170: 7ffc 3ebd 4d81 273e 6c29 cfbc 509f b9be
00000180: 5992 8c3e a115 1abe 1e74 df3d d80f 0dba
00000190: 781d 953d 9d69 1abe 1962 b03c 69bf e9bc
000001a0: 38db 993d 193f 10bd 229d 103d 73ee 1a3d
000001b0: 6ab6 573b 6528 b9be acd7 5bbe 5c90 303d
000001c0: 5559 aebd 45c0 203d 0be5 3ebd 51a5 3bbd
000001d0: 7b55 c1bc b56c ddbc dbdf d93e 6d16 f93e
000001e0: 2ac8 9abe 61e9 73bd 9e39 85be 6b86 7c3d
000001f0: 2857 40bd deee 113e de7f 76bd 0f15 0ebe
00000200: b036 ae3e 77e6 96bd 7194 0e3e 86f5 41be
00000210: f4c6 2c3d 05f1 0a3d f186 763d 9908 95be
00000220: f027 92be f7d9 18be 779b b0be b673 15bd
00000230: 7472 adbd de4c 183d b5a5 8bbe 55f2 fc3b
00000240: c0ce a9be a2d0 0fbd 3058 dcbc d99e 4bbd
00000250: 3ab7 493c a35e 783c 820f 973e 9908 d43e
00000260: 3804 f6bd 0e33 563d 9f21 6ebe ea6a e0bc
00000270: 633d 48bd cd35 8ebd dd3a da3d d75d 873d
00000280: 1743 4fbc 44db 7fbe 8069 2ebc 6f65 823e
00000290: 8b90 ebbd eef7 f8bd 979a 353d 10f0 dcbd
000002a0: 09a8 3d3d 5686 a0bd be61 083e 617a 87be
000002b0: b24f 9abd ae5e 6bbe c0d2 0f3e a65b 9a3d
000002c0: b32b cebd 5d32 fabc 0f62 f2bd 886e 82be
000002d0: 872b 80bd 66e2 41be 954e 92bd 27c4 29be
000002e0: f27e 9fbd e87a 8a3e ac96 883c 7030 623d
000002f0: 2f76 3bbe 9c19 5a3b d5cd 7a3e 7f52 b33d
00000300: f63d 6ebc 4279 cf3a 05d9 a7be c761 903e
00000310: 1298 e43b 69cd b23d e7de b23e 507c b53e
00000320: 2b77 333d 00be 43be a827 89be c844 3cbd
00000330: f0f9 ffbb 3c84 9fbd f089 a7bb 1d6e 383d
00000340: 9c32 02be 25b9 343d 496b eb3d 762f 1f3d
00000350: 67e2 6ebd 78ec debd e251 943d 5e48 0f3c
00000360: 924d 683e 5954 6b3e af9d 34bd ea90 b83d
00000370: 62fe 10be d348 82bd d488 2d3e 1f06 ffbd
00000380: 0220 143d 9ba6 0dbe aed8 73bc 7ef2 8e3d
00000390: 2ae8 56be 455f 183e 90a5 173e a152 533e
000003a0: c255 0f3e 5f96 5a3d 018a f8bd ede6 9fbd
000003b0: 5510 19bd 12bc 423d 4e74 9b3d 9209 ed3d
000003c0: 92c4 6f3d 9bcc 8e3e 2b42 c9bd c39b ebbb
000003d0: f258 08be fa9f 683e 3d0c 5fbc 83ce 9c3d
000003e0: 711a 4cbe dd28 533e 3b1e d23d 5ea2 853e
000003f0: 4a46 433d 2ffb f63d 108d 493e 8d31 5d3e

bias f4 [3]
0.09782091 -0.11327682 -0.052288033
00000000: 5456 c83d adfd e7bd fa2b 56bd
