mutiltask_ann/log/data_cell3_ete_03151128/EMNIST_97750.pt (torch, 632607 bytes, 4 tensors)

weight f4 [200, 784]
00000000: 225e 21bd ee36 08bd e19d 97bc 9a92 ba3c
00000010: b32f de3c f21b 803b 068e 1bbc ab25 bbbb
00000020: 0d8c 94bc c7bf cd3b 64d7 edbc 6a8d 44ba
00000030: 7480 11bd 1d88 d43c 968a 1ebd 82d9 09bd
00000040: 08f7 8c3c 81a6 a83c 70e9 8c3c c835 babc
00000050: 8671 aa3c aa21 1abd 1c99 0fbd 90d2 6cbc
00000060: df79 c23b a5a3 28bc 1dc6 ccbc e28a 08bb
00000070: a44c f63c fd91 493c d97a 14bc 0377 abbc
00000080: d3b1 dd3b 454c 13bd 95d7 e4bc 4e37 de3c
00000090: 1d7b 8e3c 4b82 a33b 75a6 de3c 287e d43c
000000a0: 3c31 debc f51e 0cbd ccc8 8339 c5d7 f03b
000000b0: 2bd2 8d3c d807 df3c 4a50 acbb f720 7cbc
000000c0: c04e f23c cc15 ce3c 020a 663c ec23 c93c
000000d0: 4718 a2bc 059f 193c 015a 093c 18d2 d23c
000000e0: 5e10 10bc 969a 0abb 4fcc a63c a20f 4e3d
000000f0: 778d 563d 150b 933c 00eb 56bd 4f36 babc
00000100: e3e2 dc3c 0b9b 293d acf7 02bc bb2a 1f3c
00000110: b662 cfbc f443 3f3b 08c1 703d 8f33 613c
00000120: bd8e e13c 01d5 453c de94 5f3e 43e6 833e
00000130: c228 fe3d 855f f33d e004 0c3d 2978 ca3c
00000140: 118c 553d c671 a33c a7d2 b73c 1731 da3b
00000150: 9fdf a63c 0abe b63c 26d6 4cbc c97c b53c
00000160: fe8c 273b 286f 1bbd 8509 59bd 4506 523c
00000170: e19a b63d a2c0 483d 3e15 07bd c467 89bc
00000180: 5b2b 343d f440 0a3d d2eb f23c 0032 59bc
00000190: 44ec 263d 86e9 843d 0c02 ee3d 7aee d33d
000001a0: a868 ad3d cc78 913d 2008 093d b9a8 073d
000001b0: 1679 393d 91fd 573c d6b4 ff3b 22fc c1bc
000001c0: eb5e f1bb 6709 d8bb 9e82 8abb 44ba e6bc
000001d0: 6d1a b03c 53bf a33c 7619 4e3d 311e b43d
000001e0: b8b1 033e a7bc 85bb 4378 f3bc d8de 04bd
000001f0: f49d 56bc 1e7b 2ebc d4b6 d73c bc2f 07bb
00000200: eefa 8f3d c8a6 553d 5e06 483d ba50 4d3d
00000210: 47f4 9e3d 878b 8b3d d716 413e 2726 db3d
00000220: 3c23 443d 2787 923c 3f76 3c3c e933 cabc
00000230: cc5e c23c cf6f c33c c86b 103d cc2a 62bd
00000240: cc69 993c 7369 933d 2173 493d 688b 633d
00000250: c0d5 d5ba f6a4 3cbd aab5 14be c96b 043b
00000260: a958 1a3d 1687 223d 771d d03c a367 b83c
00000270: 1981 1a3d 718e 843d a7d0 123d 1029 a93d
00000280: c8b0 933d a036 f33d 37e3 523e 3765 383e
00000290: 24a2 433e 62a2 153e fb4e eb3c b3c4 e83c
000002a0: 186c 1bbd f273 0c3d a592 f33d a8bc 623e
000002b0: 1c02 aa3d 86a2 0e3e d884 053e 8079 ac3c
000002c0: 387a fe3a 7c91 b0bd 0f08 38ba 1f89 943d
000002d0: 64a3 1d3d cb4a 0b3d 0dc5 a43d 6f52 9a3d
000002e0: e0a2 2b3d 9b18 b63d a8d1 7f3d ec46 be3d
000002f0: 39c2 113e 192b 0a3e 8961 943e 69c6 543e
00000300: e05d 683e 7969 443e 828d c63c de28 0fbd
00000310: 3e6c 5ebb 94f3 ecbb 864f 133e fecc 4a3e
00000320: 3809 123e 4dbc fa3d b6de 5e3d ced0 503d
00000330: bff3 2f3d d4c4 3b3d 89ae 643d 858e 8e3c
00000340: d3af 0d3d 5b87 9b3d e0c7 023c cd9c a23c
00000350: 255e 933d 799a 0f3d cd81 843d 4992 fe3d
00000360: 8a07 f83d 2c51 453e fdb5 9c3e 9b0c c53d
00000370: b7b7 4d3e a6d4 263e e20c 2d3d 7ef3 dcb9
00000380: 43de 58bc 4f84 243d 0f22 cb3d a29c bd3d
00000390: 43c4 203e 6238 b23d 4233 983d 6a15 403d
000003a0: f7e9 7a3d 23e0 e23c b897 873c 7707 203d
000003b0: d0a0 84bb 72ba 643b b8a9 15bd d3a6 ab3b
000003c0: 8ed4 cabc 745c d73b c27d fd3d 3c95 a93d
000003d0: 9382 093e 34a1 e43d 7896 f73d f5a3 263e
000003e0: c21b ce3e 2001 203e d8fe 233d 5275 58bc
000003f0: 70a1 11bd 4f9e 6e3d 7b5c ee3d 8e01 ab3d
-0.039396413 -0.03325551 -0.0185079 0.022774983 0.027122354 0.0039095813 -0.00949431 -0.0057112775
-0.018133188 0.006278965 -0.02903337 -0.0007497879 -0.035522893 0.02594381 -0.038706385 -0.033654697
0.017207637 0.020587208 0.017201155 -0.022730723 0.020806085 -0.03762976 -0.035058126 -0.014454499
0.0059349383 -0.010292922 -0.024996812 -0.0020834734 0.030065842 0.012302873 -0.009062492 -0.020930773
0.006765583 -0.03596141 -0.027934829 0.02712598 0.01739269 0.0049898974 0.027178982 0.025939062
-0.027123086 -0.03420921 0.00025135872 0.0073499405 0.01731213 0.02722542 -0.0052585946 -0.015388719
0.029578567 0.025156878 0.014040472 0.024553262 -0.019786967 0.009376292 0.008383275 0.025734946
-0.008792965 -0.002114927 0.020361094 0.050307877 0.052381005 0.01794962 -0.052470207 -0.022730974
0.026963657 0.041407626 -0.00799362 0.009714778 -0.025315624 0.002918479 0.05877784 0.013745203
0.027533883 0.01207471 0.21834132 0.25761613 0.12410118 0.11883453 0.034184337 0.0247155
0.05213553 0.019951712 0.022439314 0.006658684 0.020370303 0.022307415 -0.012502229 0.022154229
0.0025566216 -0.037947804 -0.052987594 0.012818878 0.089162596 0.049011834 -0.032979243 -0.016773112
0.04398666 0.03375335 0.029653464 -0.01325655 0.040752664 0.064898536 0.11621484 0.1034822
0.08467227 0.07103118 0.033455014 0.03311989 0.045281492 0.013183014 0.0078035397 -0.023679797
-0.0073660514 -0.0065929177 -0.0042269966 -0.02816499 0.021496976 0.019988691 0.05031725 0.08794821
0.12860763 -0.004081327 -0.029720431 -0.032439083 -0.013099182 -0.010649471 0.026332296 -0.0020627817
0.07030283 0.052161008 0.048834197 0.050125815 0.07761436 0.06813722 0.18856369 0.10700636
0.047885165 0.017886711 0.011502801 -0.024682956 0.023726843 0.023857025 0.03525904 -0.055216596
0.018727206 0.07197847 0.04918206 0.05555287 -0.0016314313 -0.046055757 -0.14522424 0.0020205847
0.03768221 0.03967961 0.025404675 0.022510355 0.037720773 0.06472481 0.035843518 0.08259785
0.07211453 0.11875653 0.20594488 0.1800736 0.1910482 0.14612725 0.028724184 0.028414106
-0.037944883 0.03429026 0.118932046 0.22142279 0.083011836 0.13929185 0.13038957 0.02105403
0.0019415086 -0.08621499 -0.0007020244 0.07252716 0.0384859 0.034006875 0.08045397 0.07535254
0.041903377 0.08891412 0.062455803 0.09290871 0.14234246 0.13493003 0.28980663 0.20778812
0.2269206 0.1918086 0.024237398 -0.034951083 -0.003393903 -0.007231185 0.14385805 0.19804761
0.14261329 0.12242947 0.054411612 0.05098038 0.042957064 0.045842007 0.055830512 0.017401943
0.034591507 0.075941764 0.007982224 0.019850159 0.07195691 0.035059426 0.0647007 0.124302454
0.12110813 0.19269246 0.30607596 0.09621545 0.20089613 0.16292056 0.042248614 -0.00042143086
-0.013236585 0.04016524 0.099186055 0.09258391 0.15699868 0.087021604 0.07431652 0.046895422
0.061258283 0.027694767 0.016551837 0.03906962 -0.0040474907 0.003490117 -0.03653881 0.005238393
-0.024759557 0.0065723006 0.12377502 0.08280417 0.13428716 0.111635596 0.120892465 0.16273482
0.40255553 0.15625429 0.04003796 -0.013211565 -0.03555435 0.058256444 0.11638733 0.08349906

bias f4 [200]
00000000: cdf7 e63b 221e 0ebd eaf0 0d3a 8bd0 79bc
00000010: 8931 f2bc 7e94 7ebd 0276 193d a370 f4bc
00000020: d3e9 aebc a512 223c 9fb9 fc3c 54c8 a5bc
00000030: b265 87bd 9e04 d1bc d7b6 25bc d584 613d
00000040: 8dbb 0f3d 14de ab3b 9d51 dfbb 6a50 563d
00000050: de42 7cbc 35dc 123d 1641 613c e7b6 8ebc
00000060: d5fb 1e3d 00da 18bd 1f04 77bd e098 0cbd
00000070: 42dd 72bc 3fc9 27bc 966f 1e3d f112 2d3d
00000080: 9b2c 76bb 099a c0bc 4dde ccbc a530 803d
00000090: a647 9ebd d452 fc3c 7e5a 783d 04a1 613d
000000a0: ecc2 b23b 7aa1 023d 26c5 cc3b 09bb 0dbc
000000b0: 8c76 76bb d5f8 25bc d64c 61bc fd36 643d
000000c0: ac58 f73c 5b3a adbb df0f c3bc a2c8 42bd
000000d0: 9c4c e5bc 1c68 173c 59dc cf3c c03f 1abd
000000e0: e161 de3c 0522 b73b c179 343c c1a3 da3c
000000f0: 041b 4f3d 1032 983b bce9 57bd d9da bf3b
00000100: 0d56 ed3c 9dab 0a3d dc1a ddbc e241 a13d
00000110: 082b 873c 40d5 10bd f570 5abd 11cc 233b
00000120: 0e7b c0bc 3b62 e4bc e21c 69bc 3c76 ea3c
00000130: ee28 b13a 867b 453b f896 3b3d 81d7 44bc
00000140: caae 1cbd 27f8 d83c 0e5d a53d 3fb0 6e3d
00000150: 135d 743d 2c9a 2abd e849 63bd ab9b 733d
00000160: 423d 4bbd 472e 283c 859d 89bc 2131 79bd
00000170: 5125 203d e48d 263d c8c9 063d 8693 1fbd
00000180: 0fa9 203d ec3e afbd a415 813c ec59 5fbd
00000190: 8422 e03c e696 1ebd 3a87 873d caf6 4e3b
000001a0: 2ad8 543d 0642 13bc ee8b 0eba fddd 9d3d
000001b0: eee2 e33b 2ccf 91bc 2b1a 32bd 059d ec3c
000001c0: e41b 82bd ec79 b3bc abe6 37bd 7ddc 713b
000001d0: 5999 08bb 2a09 f3ba eee5 ea3b 7413 383d
000001e0: ab72 40bd 5e76 4bbc 9c7a 8bbd 1f04 273d
000001f0: 5cff bdbc 5182 213d 33dd 833a 50b1 bc3b
00000200: 893f fd3c f0ee 3b3d 423c 423d e3ec 74bc
00000210: fc2c 3c3d 783b 213d f343 803d 3df9 8cbc
00000220: 1e6d 8abc 69ca c0bc 06cd 55bd c6d1 56bc
00000230: 47fd 523c 372d f53b 1f77 3dbc 78c2 413d
00000240: 0191 93bc 8c2e 593c a541 e93b b84b 8bbc
00000250: 84e8 a7bc bbc3 f23b 45e5 9d3c b2fa 1e3d
00000260: 39a4 d6bb 1e7b 423d 6c4e 4ebc 9970 e4bc
00000270: 7a7e c63c b63f 05bd 29a9 c4bc 51b3 833c
00000280: ecc6 97bc d5d8 a3ba 24e5 853b 387f 4a3c
00000290: 3c2a 92bd 2ead 1ebc c22f d53b dd6c 5bbd
000002a0: b246 8cbc 87a9 213d a727 aebc 28c8 c6bc
000002b0: 5578 5b3d 93ca e73b 927d de3c 7579 47bd
000002c0: 7a40 7abd 5a26 613d a2ff 1c3d 6cb8 a93b
000002d0: 3ce4 793a e815 09bd eb56 8c3c 3b07 41bd
000002e0: ea82 c7bb f084 e738 e310 b83c c827 04bd
000002f0: 1e26 6e3c 12fe c5bb e954 d53c 7814 adbc
00000300: 1a24 ed3c a0ac 293b 8665 5abb 4b24 f8bb
00000310: 5ec9 bebc 3cf9 d3bb 423a 423d e240 883d
0.007048583 -0.034696706 0.0005414622 -0.015247474 -0.029564636 -0.062153332 0.037466057 -0.029838866
-0.02135173 0.0098921405 0.03085023 -0.020237125 -0.06611194 -0.025514897 -0.010114393 0.05505832
0.03509097 0.0052449796 -0.006815149 0.052322783 -0.015396802 0.035854537 0.013748428 -0.017421199
0.038814384 -0.037317276 -0.060306665 -0.03432548 -0.01482326 -0.010240852 0.038680635 0.042254392
-0.0037563208 -0.02351095 -0.025008345 0.06259278 -0.077285096 0.030801214 0.060633175 0.055085197
0.0054553654 0.031892277 0.006249088 -0.00865055 -0.003760728 -0.010130127 -0.013751229 0.055716503
0.03019365 -0.0052864975 -0.023811279 -0.04755462 -0.027990632 0.00924113 0.025373625 -0.037658453
0.027146282 0.0055887722 0.0110153565 0.026689412 0.050562873 0.00464464 -0.05271314 0.005854946
0.028971696 0.03385507 -0.026990347 0.07873894 0.016500011 -0.03535962 -0.05333038 0.002499346
-0.023496177 -0.027878871 -0.014228078 0.028620832 0.0013516226 0.003013344 0.045798272 -0.012014271
-0.03825263 0.026485516 0.080743894 0.05827355 0.059659075 -0.041650936 -0.055490404 0.05947463
-0.049618967 0.01026494 -0.016798744 -0.06083787 0.039098088 0.04066266 0.032907277 -0.03895905
0.039223727 -0.08556923 0.01575739 -0.054529116 0.027360208 -0.038718127 0.06617589 0.0031580203
0.051963963 -0.008987909 -0.0005437721 0.077083565 0.0069545424 -0.017798983 -0.043481987 0.028883466
-0.06352976 -0.021908723 -0.044897716 0.0036905103 -0.0020843355 -0.001854216 0.007168523 0.044940427
-0.046984356 -0.012418358 -0.06810495 0.040775415 -0.023193054 0.03943092 0.0010060429 0.005758442
0.030914085 0.045882165 0.047420748 -0.014949056 0.045941338 0.039363354 0.0626296 -0.01720869
-0.016897734 -0.023534017 -0.05219748 -0.013111537 0.012877769 0.0074821967 -0.011564045 0.0473046
-0.01801348 0.013255727 0.007118421 -0.017003879 -0.020496614 0.007408587 0.019274363 0.0388133
-0.0065503386 0.047480695 -0.012591939 -0.027885722 0.02423023 -0.032531463 -0.024006443 0.016076716
-0.01852747 -0.0012500534 0.0040861536 0.012359433 -0.07136962 -0.009684844 0.0065059373 -0.053570617
-0.017123554 0.039468314 -0.021259142 -0.024265364 0.053581554 0.0070737093 0.027159486 -0.048699815
-0.061096646 0.054968216 0.038329728 0.0051794555 0.0009532606 -0.033468157 0.01713129 -0.047126036
-0.006088604 0.000110397 0.02246899 -0.0322645 0.014535455 -0.0060422504 0.026041465 -0.021127924
0.028947879 0.0025890246 -0.0033324673 -0.007572686 -0.023289379 -0.00646892 0.04741884 0.066530004

weight f4 [3, 200]
00000000: cbb1 84bd 1c19 bcbd 8123 9e3d c60e 04bd
00000010: da1c 813d 0aa4 e3bd 36ea f63c 144c 98bd
00000020: d05b da3c 0977 4fbd 9f75 dc3d 4a50 3fbe
00000030: 1876 81bd 8ad8 d0bc bfda 04be c708 903d
00000040: 4376 e23d f155 9cbe 9061 993d 73b5 f3bc
00000050: 99d8 86bc de0e c13e a448 753d c2d8 fcbc
00000060: 40c7 453d 12c9 973d dbbf 70be a896 b2be
00000070: 0eb2 063e 1492 c6be 2d1f 393c c329 073e
00000080: c1df 5ebd 56ee 42bc 042d 33be 7184 163f
00000090: 1664 0dbe cd9c 873a 0485 0f3e 0275 703c
000000a0: 6a24 90bc bff9 7e3d 7d0e a73e 00b4 1239
000000b0: 8241 c43d 5fde 3bbe decc 26bd 82cf cf3c
000000c0: f6b8 f63e 0ecf 6c3c b844 19bf 9284 c4be
000000d0: 63cf 84be d6b8 7bbe f3ad 18bd 2ff7 91be
000000e0: 2996 053f 6b94 69be bc69 21be a80c 743d
000000f0: 7f1d a53e 09c6 8dbc 9b86 96bd d853 283d
00000100: 55b0 9d3e 7220 933d 44e3 5fbe 0686 223c
00000110: cbb5 ac3d 89fd ee3d 8b0a 75be 8bd0 e9bd
00000120: 1d3d 01bf 1712 c43d 8b74 483e e49e 003e
00000130: 27c2 7bbc 0022 22bc d139 223e ec15 cebd
00000140: b9d1 16bf f65b 173e f580 513d 5383 ae3d
00000150: cd91 1b3d f7f0 cbbd 7eee 89bc 474c 14bc
00000160: c2ee b7be d512 06bd 2f3c d3bd 8c43 05bf
00000170: ba56 f9bc 4b20 823e 0972 9bbc 59f4 f1be
00000180: d7d0 be3e c895 4cbe d379 073e 722c 1fbc
00000190: 8d96 e03d bb0f 34be 546f 303d f7d2 61bd
000001a0: 52f7 a73d ad22 33bd 5f77 473d 66ec 353d
000001b0: 79c8 54bc ae60 f6be 5688 8ebe a17e 983d
000001c0: 8eb3 f0bd 7f43 643c 9703 80bd c832 79bd
000001d0: 6c65 68bd 369c 55bd d64a 073f a0db 2d3f
000001e0: db11 d0be 068d 67bd 2963 babe 79fb c73d
000001f0: 1a1d 3dbd 9339 353e 9fe6 c7bd 0268 18be
00000200: ccd3 f43e 8a75 2dbd 30d1 3b3e b14a 75be
00000210: 36c5 8c3d dc77 563d 16c2 cb3d 054d babe
00000220: eed8 d2be 4cdd 62be e94d fabe 2fd7 e4bc
00000230: 89a4 c5bd a3f1 503d 6286 abbe 8c72 533c
00000240: d214 fdbe a0f8 debc e278 9d3b 53a0 79bd
00000250: 8742 1c3c 985f 42bb cc81 c13e 791b 2e3f
00000260: a323 2abe ce97 a83d a31b b1be 5c8f 66bd
00000270: 1c88 56bd 88dc c2bd 0cf1 ed3d a1e5 b03d
00000280: 56ee 13bd 4bb4 9cbe 5405 e3ba a7b7 be3e
00000290: 61db 25be 8c07 3cbe 8776 843d e3a2 14be
000002a0: 695f 403d 6b8c 99bd 49b8 243e b68e a9be
000002b0: 4b70 99bd 2a6e 86be 29ef 203e a907 963d
000002c0: 0358 11be 1c99 03bd 6c09 11be ad5b a8be
000002d0: 2b83 84bd fc1b 71be b089 90bd 15b0 49be
000002e0: 32b5 b7bd f214 b23e 44f8 73bc 7b75 333d
000002f0: 3957 5cbe b11a 783b b223 963e d485 933d
00000300: 136a 9b3b e081 01bd b83a f2be f09e bf3e
00000310: 6a8c a8bc a8ba ab3d 154b f03e 5158 043f
00000320: a9b8 a03d b646 51be f3b8 cdbe 01e1 29bd
00000330: 8240 38bc 51fe 3bbd fe3b acbc 93a0 bf3d
00000340: 3bd6 26be a4ab a03d b26a 0c3e 4959 c83d
00000350: 92cb cabb 8f7b 08be 467a e73d 49d5 3abb
00000360: c2f0 8c3e 919d b73e a56d b6bd 62d4 0c3e
00000370: f572 13be cfee d6bd 850f 4f3e cb7a 12be
00000380: a444 0f3d ac72 5dbe 4557 8a3c 341a 053e
00000390: ff1f a6be 7bc8 693e e07d 303e dc31 783e
000003a0: 8540 443e b3f2 693d e5bd e4bd 7385 04be
000003b0: a2aa 93ba e358 983d 70dc 813d 5739 143e
000003c0: 6895 c83d 2910 ba3e 8c79 22be 916d ebbc
000003d0: 1b2b 54be d7e1 c93e 5a3e 833a 2cc0 763d
000003e0: 9b3c 90be e609 743e 137d 323e b9b1 bb3e
000003f0: b7df d73d e6aa 653e baf8 8e3e 8f3f b73e
-0.06479224 -0.09184477 0.077216156 -0.03224065 0.06304331 -0.11115272 0.030140977 -0.07436386
0.026655108 -0.05065063 0.10764622 -0.18682972 -0.06321353 -0.025493879 -0.1297407 0.07032924
0.11057713 -0.30534318 0.07489312 -0.029749608 -0.016460704 0.37706655 0.05988373 -0.030865077
0.048285723 0.07411398 -0.23510687 -0.34880567 0.1315386 -0.38783324 0.011298937 0.13199525
-0.054412607 -0.011897644 -0.17497641 0.5879584 -0.13807711 0.0010346413 0.14015585 0.014676334
-0.017595489 0.062249895 0.3262824 0.000139907 0.09582807 -0.18346547 -0.04072272 0.025367502
0.4818799 0.014453663 -0.5987048 -0.38382393 -0.25939474 -0.24582228 -0.037275266 -0.285089
0.5218225 -0.22810523 -0.1576299 0.059582382 0.32249066 -0.017306345 -0.07349893 0.041095585
0.30798593 0.07183923 -0.21864039 0.009919649 0.08433112 0.11669452 -0.23929803 -0.114167295
-0.50483876 0.09573763 0.19575708 0.12560612 -0.015366114 -0.009895802 0.15842368 -0.10062775
-0.5891376 0.14781174 0.051148374 0.08521142 0.037980843 -0.0995807 -0.016837355 -0.009051389
-0.35924345 -0.032732803 -0.103142135 -0.52056193 -0.030436862 0.25415263 -0.018975275 -0.47256735
0.37268707 -0.19979012 0.13230066 -0.009715186 0.10966215 -0.17584126 0.04307492 -0.055132832
0.082014695 -0.04373424 0.048697826 0.0444149 -0.0129872495 -0.48120636 -0.2783839 0.074460275
-0.11752997 0.013932108 -0.06250685 -0.060839444 -0.05673735 -0.052150927 0.52848566 0.67913246
-0.40638623 -0.056530975 -0.36403778 0.097647615 -0.04617033 0.17697744 -0.09760784 -0.14883426
0.47817838 -0.042348422 0.18341517 -0.23954274 0.068735525 0.0523604 0.09949128 -0.36386886
-0.4118113 -0.2215473 -0.48887566 -0.027934639 -0.09650523 0.051011693 -0.33500963 0.012905728
-0.49429947 -0.027218163 0.00480567 -0.060943913 0.009537346 -0.002965903 0.3779434 0.6801067
-0.16615157 0.082320794 -0.34591398 -0.056289062 -0.052375898 -0.09514719 0.11618242 0.08637548
-0.036115967 -0.30606303 -0.0017320313 0.3724949 -0.16196968 -0.18362254 0.0646792 -0.14515261
0.04696599 -0.07497486 0.16085924 -0.33116692 -0.07492121 -0.26255924 0.15716232 0.0732568
-0.1419373 -0.03212844 -0.1416375 -0.32882443 -0.06470331 -0.23545831 -0.07057512 -0.19696076
-0.08970107 0.34781605 -0.014890734 0.04381321 -0.21517648 0.0037857706 0.29324108 0.0720326
0.0047428696 -0.031618 -0.47310424 0.37425947 -0.020574767 0.08385211 0.46932283 0.5169726
0.07847721 -0.2043713 -0.40180168 -0.041474346 -0.011245849 -0.045896832 -0.0210247 0.09356799
-0.1629266 0.07845238 0.13712576 0.09782655 -0.0061888183 -0.13328384 0.11302619 -0.0028508476
0.27527434 0.358624 -0.08907632 0.13752893 -0.14399321 -0.10494768 0.20220764 -0.14304654
0.03497757 -0.21625775 0.016887316 0.12998277 -0.32446286 0.22830383 0.17235518 0.2423777
0.19165237 0.05711622 -0.11169032 -0.12941532 -0.0011266063 0.07438829 0.06340873 0.14474998
0.09794122 0.36340454 -0.15866679 -0.028738769 -0.20719568 0.39430115 0.0010013089 0.060241863
-0.28171238 0.23831901 0.17430525 0.3665903 0.10540717 0.22428474 0.27924138 0.3579068

bias f4 [3]
00000000: c03e b63d 8eaa ffbd ca0d 17bd
0.08898687 -0.124837026 -0.036878385
