mutiltask_ann/log/data_cell3_ete_03151128/FMNIST_88275.pt (torch, 633375 bytes, 4 tensors)

weight f4 [200, 784]
000000 25 f8 6b 3d e3 fa 95 3d f5 01 80 3d 6d bb 37 3d
       0.057609696 0.073232435 0.06250373 0.044856478
000010 31 88 90 3d fb 19 4f 3d f9 fd 76 3d 8c b6 78 3d
       0.070572264 0.050561886 0.0603008 0.060720965
000020 a0 de 6f bd f8 d6 b4 be 69 78 41 bf aa 2a ae be
       -0.05856192 -0.35320258 -0.75574356 -0.34016925
000030 f0 e4 19 3f f6 f4 0d 3f 9a f0 06 3f 32 ff 17 3f
       0.60114956 0.55451906 0.5271088 0.5937377
000040 f7 2b d6 3d 37 65 39 bf ad ff 07 bf 5d f1 1a be
       0.104576044 -0.72420067 -0.53124505 -0.15131135
000050 55 ec e3 3c c2 d7 3b 3d 4e d0 eb 3d 55 b0 79 3d
       0.027822653 0.04586006 0.1151434 0.06095918
000060 a1 5d 33 3d f7 a6 ba 3d 28 11 91 3d 0e 43 03 3d
       0.043790463 0.09113877 0.070833504 0.03204637
000070 94 fb 90 3d 71 52 e6 3c 59 20 8f 3d 23 63 2d 3d
       0.07079235 0.028115483 0.06988592 0.042330872
000080 b6 91 b5 3c b9 c8 40 3d bf 8c 90 bc 44 05 8b be
       0.022164207 0.047066424 -0.017645238 -0.27152455
000090 22 07 e5 be 26 ce 37 bf 3e 61 0d bf 6a 8e 36 bd
       -0.44732004 -0.7179893 -0.55226505 -0.04456941
0000a0 f2 13 e4 3c 5b f8 33 3c 33 46 ba 3d 45 1c c8 3d
       0.027841542 0.0109845055 0.09095421 0.09771017
0000b0 b2 f8 f7 3d f9 cb 99 be 34 8e 42 bf 12 bf 1d bf
       0.12107982 -0.3003843 -0.75998235 -0.61619675
0000c0 ef 4c 9a be 6b 7e 48 3b 95 a7 cb 3d 77 57 73 3d
       -0.3013682 0.003059293 0.09944073 0.059409585
0000d0 35 2f 68 3d e9 5e 6b 3d d3 36 8a 3d 67 05 67 3d
       0.056685645 0.05746356 0.06748738 0.056401636
0000e0 45 fa bb 3d 8b 28 15 3d 33 c3 9e 3d 03 0e 7f 3d
       0.091785945 0.036415618 0.07752075 0.062269222
0000f0 a5 3b 8b 3a 41 c8 dc bd a3 c5 e9 be b7 5e 1b bf
       0.0010622634 -0.10780383 -0.45658597 -0.606914
000100 4d 96 65 be e6 48 10 be c0 96 29 bd 7b e8 1f bd
       -0.22420616 -0.14090309 -0.041403532 -0.03904007
000110 bb 5f 6a 3d 64 cf 5d 3e 5c f7 48 3e 6d c5 16 3e
       0.057220202 0.21661144 0.1962561 0.1472375
000120 31 e6 26 bc 0f f2 bb 3d 30 33 c4 bc 65 1a 17 be
       -0.010186718 0.091770284 -0.02395019 -0.14756162
000130 17 28 d5 be 95 1e f7 be d7 61 27 be 43 00 a0 3d
       -0.4163215 -0.4826552 -0.16345917 0.0781255
000140 90 4a 47 3d 21 17 a8 3d fc c9 6f 3d 8f 37 c8 3d
       0.048655093 0.082075365 0.058542237 0.09776222
000150 a5 84 ea 3c e4 62 9e 3d 3c 6a 4b 3d 37 f5 a9 bb
       0.028627703 0.07733706 0.04966186 -0.0051867026
000160 28 81 3e bd 65 63 c4 be a1 08 e1 be bf 1f 0e be
       -0.04650989 -0.38357082 -0.43951896 -0.13879298
000170 4c 02 86 3c e0 c6 c0 bd bb 46 61 be bf 49 14 be
       0.016358517 -0.094129324 -0.21999638 -0.14481257
000180 aa fa 7a 3d 1b 3f a3 3e 52 7f aa 3e 8c 77 3a 3e
       0.061274208 0.31884083 0.33300263 0.18209666
000190 94 c9 b4 3d b8 a9 89 bc 8d 90 7f bd af e1 77 3d
       0.088275105 -0.016804561 -0.062393714 0.060517963
0001a0 0d 6b 07 bc c5 82 68 be 76 ef db be fe 5b 86 bd
       -0.008265269 -0.22706135 -0.42956132 -0.06560515
0001b0 3e 9b 85 3c 74 76 74 3d c2 cd a2 3d 0e ec 39 3d
       0.016309377 0.05968328 0.079494014 0.045391135
0001c0 a6 db 32 3d be 53 56 3d ed 82 09 3d 91 cb df bc
       0.043666504 0.052325957 0.033572126 -0.027318748
0001d0 d6 e8 24 be c3 37 a7 be c8 d0 5f be 60 50 71 be
       -0.16104445 -0.3265973 -0.21856987 -0.23565817
0001e0 93 f7 ec bd 66 49 a6 bd 72 5f a7 bd c4 3d e6 bc
       -0.115706585 -0.081194684 -0.081725016 -0.028105624
0001f0 4f 4d b2 3d 1e bb aa 3e 44 5b ae 3e 59 08 47 3e
       0.08706152 0.33345884 0.34054005 0.19436778
000200 85 bc d9 3d b6 81 13 bb 63 ca e9 bc 37 f3 93 3d
       0.1063166 -0.0022507734 -0.028538888 0.07224124
000210 4c 19 08 be 0e 32 69 be 60 8b 87 be d5 e7 6d be
       -0.132909 -0.22773 -0.26473522 -0.23232968
000220 67 48 7c ba 00 72 9b 3c 5c 78 09 3d 2c ec b8 3d
       -0.0009623826 0.018975258 0.03356205 0.09029421
000230 ca d7 07 3d c9 a4 80 3d e8 a6 f5 3c 4b e4 ab bc
       0.033164777 0.0628143 0.029986814 -0.020982882
000240 08 38 71 be 83 b4 92 be ce 73 8d be 9a 85 42 be
       -0.2355653 -0.28653345 -0.27627414 -0.18996277
000250 13 91 88 bd 15 7c b8 bd eb ac ed bc 40 83 ef bc
       -0.06668296 -0.09008042 -0.029013118 -0.02923739
000260 40 7c 8d 3c 7e d8 54 3e bf 55 3f 3e c0 1f aa 3d
       0.017271161 0.2078571 0.18685053 0.08306837
000270 6c c1 e5 3d e1 a3 a6 bc fa e0 9f bd 62 7f ab 3d
       0.11218533 -0.020341815 -0.07806583 0.08373906
000280 51 b1 a2 bc e9 22 54 be b6 5d 61 be 3b d7 5f be
       -0.019859942 -0.20716442 -0.22008404 -0.21859448
000290 55 bc 5f bd a0 8f 8f 3c 7a ec 0c 3d 4d 7f 30 3d
       -0.054622967 0.01752454 0.03440521 0.043090153
0002a0 26 76 a1 3d d6 4a 8f 3d ff 86 b6 3c a2 55 18 bd
       0.07883863 0.06996696 0.022281168 -0.03719104
0002b0 cc 6a 38 be bf a9 a9 be 5e 03 6a be fe 60 09 be
       -0.1800949 -0.33137318 -0.22852847 -0.13415906
0002c0 39 7e d4 bd 31 5a bc bd e4 5c 33 bd fc ae 92 bb
       -0.103756376 -0.0919689 -0.04378976 -0.004476426
0002d0 21 ee b4 bd cf f6 c5 3d 2e 6c 65 3e c5 92 a5 3c
       -0.08834482 0.09666216 0.22404549 0.020211587
0002e0 b3 ae 67 3d 9d d4 d3 3d a8 44 6a 3b fb 67 cd bc
       0.05656309 0.10343287 0.0035746489 -0.025073996
0002f0 84 f6 91 bd 4a dc ef bd 0e 28 58 be 32 b0 44 be
       -0.07127097 -0.11711939 -0.2110903 -0.19207838
000300 97 71 7e bd 7b 05 84 3d fb e8 0d 3d fc 3a 98 3d
       -0.062120046 0.06446358 0.034646016 0.074331254
000310 32 74 59 3d c7 9d 94 3d 67 89 48 3b c9 bb 4f bd
       0.053089328 0.07256656 0.0030599476 -0.050716195
000320 9c 39 f5 bd d7 c0 63 be f7 f9 40 be ae 87 4a be
       -0.11973879 -0.22241531 -0.18845354 -0.1977832
000330 5e 42 16 be df 12 8d bd 3a 05 fc 3b 30 ad fd 3d
       -0.14673755 -0.06888365 0.0076910527 0.123865485
000340 04 dc c9 3c 30 8b ef 3d f7 20 2d 3e dc 34 91 3c
       0.024641044 0.1169647 0.16907106 0.0177254
000350 08 1d b9 3c 57 8e f3 3d b1 4d ba 3d c9 75 51 bd
       0.022596851 0.118923835 0.0909685 -0.05113772
000360 0b 7a db bd b0 b2 4d bd e3 22 02 be eb 6f 4a be
       -0.10716637 -0.050219238 -0.1270862 -0.19769256
000370 29 17 27 bc 6f 91 f2 3d 83 a0 7f 3d 32 9c a0 3d
       -0.010198393 0.118441455 0.062408935 0.07842292
000380 48 ae 95 3d 1f 9d ad 3d ca 3e 2f 3d 33 6a 53 bd
       0.07308632 0.08477234 0.04278449 -0.05161495
000390 97 0e 4d be 73 bb de bd 02 8d d6 bd e5 29 5a be
       -0.20025097 -0.10875597 -0.10476114 -0.21305044
0003a0 ca 54 11 be f5 e7 9b 3c ce 90 9a bc 2a 08 6b 3c
       -0.141925 0.019031504 -0.018867876 0.014345208
0003b0 e7 ea 92 bd ed fa e6 3d 62 b7 68 3e 4d 81 b2 3d
       -0.0717371 0.11278329 0.22726205 0.087160684
0003c0 d1 e6 41 3d 09 e8 8c 3d 4e 22 33 3e 6a be a8 3d
       0.047339264 0.06880195 0.17493555 0.082394436
0003d0 d4 2e 02 be fc 0b cb bd 16 4a e1 bd f1 60 60 be
       -0.12713176 -0.09914395 -0.11000459 -0.2191198
0003e0 44 61 94 3c 69 f9 8c 3d f3 f4 d1 3d 8d de 8e 3d
       0.018112786 0.06883509 0.102517985 0.06976042
0003f0 49 5e b0 3d 27 5d 15 3d 55 1d 3d 3d 6d c4 42 bd
       0.086117335 0.03646579 0.04617055 -0.047550607

bias f4 [200]
000000 0a f6 f7 bd fd d6 7c 3d 5a 33 97 bc 1e 89 27 3d
       -0.12107475 0.061728466 -0.018457104 0.04090225
000010 86 00 0f be df ef 91 3d 8f 88 c6 3d 47 b2 2e 3c
       -0.13965043 0.0712583 0.09694015 0.010662622
000020 54 be 5c bc 0c 21 8f 3d c1 79 4d 3c f5 3a c9 3d
       -0.013473112 0.06988725 0.012541235 0.09825698
000030 b7 49 01 be 3e 2f a3 bc c8 19 08 be 62 c9 60 bd
       -0.12625776 -0.019919988 -0.13291085 -0.054879554
000040 a4 27 fa bb c8 d7 0e 3d 2b 0e 62 3d bc dd 85 3d
       -0.00763412 0.034873754 0.055189293 0.06536433
000050 60 91 0d 3c f4 02 0a bd 83 c4 a8 3d b6 da f8 3d
       0.008640617 -0.033694223 0.08240607 0.12151091
000060 ea f7 15 be 18 b9 f6 bd 84 28 15 3e 1d a1 1a 3d
       -0.14645353 -0.120470226 0.14566237 0.037751306
000070 12 a3 6d bc 6c 2a ad bd b9 6e b6 bd ac bd d9 bc
       -0.014504211 -0.08455357 -0.089078374 -0.0265797
000080 8b 32 75 bd 80 30 d4 3d 45 32 24 3b cd 81 18 3d
       -0.059862655 0.10360813 0.0025054377 0.037233163
000090 73 7c 11 bc 2d ef c8 3d 85 54 28 be fc e6 59 bd
       -0.008879769 0.09811244 -0.16438492 -0.0531988
0000a0 31 5a a4 bc b6 da 28 be e9 d0 15 3d 9b 8c 00 bd
       -0.020062538 -0.16489682 0.036576185 -0.03138409
0000b0 43 43 27 3d e8 63 39 3d 8f 60 a0 3c 42 ab f3 bd
       0.04083563 0.045261294 0.019577293 -0.11897899
0000c0 38 be 0e 3c bf d8 2d be a8 bc 1b bd 73 b7 89 3d
       0.008712344 -0.16977213 -0.038021713 0.06724443
0000d0 d1 da 09 3e da d6 4c 3d 12 31 70 3d ec 56 3d 3c
       0.13462378 0.050009586 0.058640547 0.011556368
0000e0 e3 5b c4 bd 30 a6 67 bd 3f d2 0b be e9 85 36 3e
       -0.095878385 -0.056554973 -0.13654421 0.1782452
0000f0 d2 04 d8 3d ed 90 54 bd ca 61 b9 3d 66 fe 70 bc
       0.105477944 -0.051896024 0.09051855 -0.014709091
000100 c5 98 06 bd 35 e5 2c bd 2f df 98 bc 1c 5e 63 3d
       -0.032860536 -0.042210776 -0.01866111 0.05550967
000110 7a 52 04 be 26 f2 57 bd da bf 97 bd 56 e1 54 3c
       -0.12922087 -0.052721165 -0.0740964 0.012993177
000120 5f a7 f3 3c d4 63 53 3d 26 eb de 3d 4d 91 07 3e
       0.029742895 0.051608875 0.10884695 0.13239022
000130 bb b6 41 3d 61 20 07 3d 4c 9b 88 bd e3 49 0b 3e
       0.047293406 0.032989863 -0.066702455 0.13602404
000140 13 a6 11 3e 47 40 d3 3d 25 67 ae bd eb 19 9e bd
       0.14223509 0.10314994 -0.08515767 -0.07719787
000150 f7 fe 21 be 54 c0 cc 3d cd 56 8e bd 9f 92 31 be
       -0.15819918 0.09997621 -0.0695015 -0.17341088
000160 a6 60 93 3c 07 56 d1 bc cb 34 ba 3c 20 b3 ca 3d
       0.017990422 -0.025553716 0.022730252 0.09897447
000170 88 a9 84 3d e1 86 24 bd ae de f1 3c 97 73 f5 bd
       0.06477648 -0.040167693 0.029525127 -0.11984938
000180 18 e0 17 3e ac 6e c2 3d c4 9e 9d bd 0a f6 d1 3d
       0.14831579 0.09493765 -0.07696298 0.10252006
000190 be 95 22 3d 63 83 a1 bd 5e 02 cf bd da 10 c9 bd
       0.039693587 -0.07886388 -0.101078734 -0.09817667
0001a0 d5 18 bc 3c bf 82 d9 3d 99 8e 90 bd 8b 06 2c 3d
       0.02296106 0.10620641 -0.07058448 0.041998427
0001b0 aa 31 2a 3e ee 6d 04 be b1 55 ab bd ba 1a be 3d
       0.16620508 -0.1293256 -0.08365954 0.092824414
0001c0 6e 87 42 bd d0 4e cd 3d 43 ee fe bc 8d 1c 29 bd
       -0.047492437 0.10024798 -0.031119471 -0.041286994
0001d0 ee aa 1f bd b6 6d a3 3d 15 69 43 3d c5 6c 37 bd
       -0.03898137 0.0797991 0.047707636 -0.044781465
0001e0 fe 53 c3 bd 4c f1 82 bd 61 91 51 be 3c 8c f7 3d
       -0.095375046 -0.0639368 -0.20465614 0.120872945
0001f0 7a 66 94 3c b8 85 f1 3d e4 93 2e 3e 61 35 e6 bd
       0.01811527 0.11793083 0.17048603 -0.1124065
000200 bd 5a 62 3d bc dc 30 be 79 f6 79 bd 89 ce e8 bd
       0.055262316 -0.17271703 -0.06102607 -0.113675185
000210 90 15 a2 bb 7a e8 06 3c 0c f9 43 be 76 0f ca 3d
       -0.004946418 0.008234138 -0.19137973 0.0986623
000220 bb 8e 49 be 45 a3 6d bc b7 c3 f1 bd 4f 51 14 be
       -0.19683354 -0.0145042585 -0.11804908 -0.14484142
000230 83 e3 4d 3d 2b bc 2d be 33 98 ac bc 38 ce 00 3d
       0.0502658 -0.16966312 -0.021068668 0.031446666
000240 a8 93 a7 3d 35 89 14 bc 8f 5e 92 3d 71 54 12 3e
       0.0818246 -0.009065916 0.07146942 0.14290024
000250 e5 58 a9 bb eb 54 85 bd f3 81 1c 3e 01 8a b8 bb
       -0.0051680678 -0.065103374 0.15283947 -0.0056316857
000260 70 2a b2 bd c2 a8 57 bd a7 d3 22 3e 71 c2 dd 3d
       -0.086995006 -0.052651174 0.15901051 0.108281024
000270 a7 7f 79 bd 1b 0b e6 bd a4 a8 09 bd bb 50 ce 3d
       -0.060912754 -0.11232587 -0.033608094 0.10073992
000280 36 0c 82 bd b4 7b dc bc 6c 17 15 3e c1 67 23 bc
       -0.06349985 -0.026914455 0.14559716 -0.009973467
000290 2e 95 02 3e ee d6 f4 bd 7b 0c 8e bd a2 89 f8 39
       0.1275222 -0.11955057 -0.06935974 0.0004740479
0002a0 57 86 9e 3b 4a 13 98 3d cb 4e a7 bd f7 a4 f7 bd
       0.004837792 0.07425554 -0.081693254 -0.120920114
0002b0 6b f6 38 3d 30 50 23 be a0 98 17 3e 96 84 51 bd
       0.045156877 -0.15948558 0.14804316 -0.051151834
0002c0 8b 22 96 3d 93 04 fb bc aa 81 f1 3d 2c 80 ac 3b
       0.07330807 -0.03064183 0.117923096 0.0052643027
0002d0 91 bc f9 bd 8c 25 57 3e 75 44 1a 3e 42 5c e3 bd
       -0.12194169 0.21010417 0.15065177 -0.11101581
0002e0 b8 2d 03 3c c2 05 3b b9 94 17 92 bc 98 b1 70 3d
       0.008006506 -0.00017835855 -0.017833509 0.058763117
0002f0 22 b3 10 3d 74 e3 fd 3d 61 a9 b9 3d 7b 25 dd bc
       0.035327084 0.12396899 0.090655096 -0.026995411
000300 0f 58 a5 bd 7c 69 da 3d 2b ea d8 3d 8b 15 1c 3e
       -0.080734365 0.10664651 0.10591539 0.15242593
000310 65 68 37 be f6 6b 6f bd a8 a9 e4 3d ed 8a 1d be
       -0.17910917 -0.05845257 0.11165172 -0.15385027

weight f4 [4, 200]
000000 3b 61 1e be 08 32 8b 3b 47 a2 79 bd 52 28 98 bd
       -0.15466778 0.0042479075 -0.060945775 -0.074295655
000010 2b 5d bb bc 98 1c a2 3d ad 49 83 3d 32 8a 09 be
       -0.022871574 0.0791561 0.06410537 -0.13431624
000020 5b 1f 71 3d 07 15 a5 3d 89 0f 75 3c f5 d1 7f 3e
       0.058867794 0.08060651 0.014957317 0.24982436
000030 9d b0 20 be 76 0c 8a 3d 27 1f a2 bd 51 a9 90 3d
       -0.15692373 0.06740658 -0.07916098 0.070635445
000040 6f 8c ad 3b f0 5f 36 3d 48 a2 40 3e 7a 04 bf 3c
       0.005296282 0.044525087 0.18811905 0.023317564
000050 02 83 96 bd d5 73 aa bd fc a2 3f bd 9a 08 0e 3e
       -0.073492065 -0.083228745 -0.046786293 0.13870469
000060 21 17 a4 bd 2f f1 26 be 4e 9e 2f 3e 70 d1 e3 3d
       -0.08012224 -0.16302942 0.17150232 0.111239314
000070 20 3a e5 bc f0 65 22 bc 49 e2 42 be 3c a5 cb 3d
       -0.027981818 -0.009911999 -0.19031633 0.09943625
000080 34 79 ae 3c 3e dd f2 3c c9 3c eb 3d 50 a7 17 3e
       0.021298029 0.029646512 0.11486203 0.14809918
000090 85 f0 01 3e 6c ac 60 3e 45 1e 99 be 3e 23 4a 3d
       0.12689407 0.21940774 -0.29905906 0.049350016
0000a0 a5 2f d6 3b 1c b6 1c be 3c 5e d1 bc c7 b0 c8 bd
       0.0065364414 -0.15303844 -0.02555763 -0.097993426
0000b0 72 91 d4 bd 74 28 c9 3d bf 83 08 3e 9e 01 97 be
       -0.10379304 0.09822169 0.13331507 -0.2949342
0000c0 06 4d 99 bd 2c 4c b5 be a4 4e 84 bd c0 1f 8f 3d
       -0.07485394 -0.35409677 -0.06460312 0.06988478
0000d0 22 1b 1f 3d e6 64 cb bd a8 7d 8a bd 22 68 4e bd
       0.038844235 -0.09931354 -0.06762248 -0.050392278
0000e0 7b d0 3d be 95 9b 08 3d 37 e4 46 be be cd 36 3e
       -0.1853656 0.0333515 -0.19422995 0.17851922
0000f0 f2 66 89 bc 83 a2 d6 bd 2f eb 34 bc cb 1f c7 3d
       -0.016772721 -0.104802154 -0.0110424 0.09722861
000100 53 b1 b4 3d 9c 78 86 bd ee ee 94 3c 27 b4 0b bd
       0.088228844 -0.06565973 0.018180337 -0.034107354
000110 05 a2 20 be 8f 39 91 bc 36 77 b4 bd 9c 68 2c 3d
       -0.15686806 -0.017727641 -0.088118 0.04209195
000120 c3 b5 01 3e a6 2d 74 3d fd 5e 8b 3c 66 70 28 3e
       0.12666993 0.059613846 0.017013067 0.16449127
000130 ff 8e 4a bd db aa d8 bc f2 d7 ea bd 36 c1 02 3c
       -0.049452778 -0.026448658 -0.114669695 0.007980635
000140 f3 d7 c6 3d e3 33 54 3e ac ed 0b be 94 0e 2b bd
       0.09709158 0.20722918 -0.13664883 -0.04176195
000150 68 ee a8 bd bf c5 0e bd e9 5a 98 3d 2a f1 02 bd
       -0.082485974 -0.034856554 0.07439215 -0.031968273
000160 76 70 2b 3d f5 4c c2 bd 4b b3 f0 bd 41 3c 09 3e
       0.041855298 -0.09487335 -0.117529474 0.13401891
000170 7e 17 42 3d f2 4e ca bc 53 76 eb 3c f2 d2 34 be
       0.047385685 -0.024695847 0.028742945 -0.17658594
000180 32 4f db 3d 80 72 10 3d 04 ac d2 bd b2 04 08 3d
       0.10708465 0.035265446 -0.102867156 0.033207603
000190 48 1b 81 3d 5d 80 0e bd ff 01 20 be 10 63 a3 3d
       0.063040316 -0.034790386 -0.15625761 0.07977879
0001a0 ad 99 bc bc 08 2b 96 bd d5 45 c8 bd d1 18 94 bc
       -0.023022497 -0.07332426 -0.097789444 -0.01807824
0001b0 dd f1 a6 3e a5 45 87 bd 2e ed bf 3d 15 43 82 3e
       0.32606402 -0.066050805 0.0937141 0.25441805
0001c0 e3 20 cf 3d 50 40 88 bd a3 85 35 3d 3e 68 58 3d
       0.101136945 -0.06652892 0.0443169 0.052833788
0001d0 3e 26 0f be be de 51 3d 6a 01 c9 3d 7d cd dd bc
       -0.13979432 0.051237814 0.09814723 -0.027075524
0001e0 6d e1 71 be 31 de 17 3d c7 8c 07 be f9 2a d6 3d
       -0.2362115 0.037077133 -0.13237296 0.10457415
0001f0 8c 1c 8b 3b 9e e2 e3 bc bc 7a 9a 3e 0a 02 8b bd
       0.0042453464 -0.02781802 0.30171764 -0.06787498
000200 a7 ac 2a 3d 07 30 bb bc 74 8f f8 bc aa 3c cc 3b
       0.04166856 -0.02285005 -0.030341841 0.0062328177
000210 a3 35 11 3d d5 c0 60 3d a8 95 e8 be c0 0f 55 3e
       0.035451543 0.0548714 -0.4542668 0.2080679
000220 e5 be 98 bd 74 3a 6d bc ec 91 09 3c 90 27 19 be
       -0.07458285 -0.014479268 0.008396607 -0.14956498
000230 00 15 11 3e 54 95 07 be 53 b7 bf 3d 46 7e aa bd
       0.14168167 -0.13240558 0.09361138 -0.08324866
000240 fb 6d 44 3e 80 27 a2 bd dd 01 9f 3e 93 ea 42 3e
       0.19182579 -0.0791769 0.3105611 0.19034795
000250 95 73 3e 3d 78 49 7a 3d bf 65 10 3e c4 a7 86 bd
       0.046496946 0.06110522 0.14101313 -0.065749675
000260 a3 62 11 3d 33 87 71 3d 9b 10 04 3e f0 38 32 3e
       0.035494458 0.058966827 0.1289696 0.17404532
000270 41 97 f2 3c 1c df cb 3c 68 48 82 bd 06 5c c3 3d
       0.02961314 0.02488666 -0.06361467 0.095390365
000280 ad f4 78 3d 52 f3 83 bc 5f b3 7b 3d 26 e1 7d bd
       0.060780216 -0.016107235 0.06145036 -0.061982296
000290 99 91 b8 3d 94 5f d9 bd 94 e3 58 3d 86 70 ea 3d
       0.090121455 -0.10613933 0.05295141 0.114472434
0002a0 c3 36 5c bd 62 31 56 bd 38 8a ae 3c c9 f2 13 bd
       -0.053763162 -0.05229319 0.021306142 -0.03612021
0002b0 d5 4b 98 3d 72 71 94 be da 68 e2 3d 7d b1 fc 3c
       0.07436339 -0.28992802 0.11055155 0.030846352
0002c0 6e 56 02 3d ec 11 b4 bd e9 f2 a7 3d b8 b5 aa 3d
       0.031820707 -0.08792481 0.08200628 0.08335441
0002d0 6c 97 0c 3b 68 47 de 3e 84 64 3c 3e 82 de 18 3c
       0.002145256 0.43413854 0.18397719 0.009330394
0002e0 57 50 f9 3b 8d 42 64 bd 54 70 b5 3d 50 ba 13 bd
       0.007608454 -0.05572753 0.088593155 -0.036066353
0002f0 68 b5 87 bd ea e5 0d bd 31 d8 2e 3e 39 c0 50 bd
       -0.06626397 -0.03464309 0.17074658 -0.050964568
000300 f1 33 65 3d 52 a5 4b 3d 66 d8 84 bc ae 34 b4 bc
       0.05595774 0.04971821 -0.016216468 -0.021997776
000310 c1 3a ca bd 49 a9 b1 bd 06 1e 27 bd 9c cb 1b 3d
       -0.09874488 -0.08674867 -0.040800117 0.038035974
000320 c7 c3 e6 bd 3f 42 09 3d fc bc 2f be 4d c7 f4 3c
       -0.1126781 0.033510443 -0.17161936 0.02988019
000330 4d 52 11 3d b1 ea f1 bd ec 3d 8d bc 2f fd 76 be
       0.03547888 -0.11812342 -0.01724144 -0.2412002
000340 a3 06 85 3c 09 8b 64 be b1 8c 9d 3c 2b 2f 0d 3e
       0.016238516 -0.22318663 0.019232126 0.13787524
000350 22 08 b4 be 6f 24 94 3b a7 0a 73 be ef e1 24 3d
       -0.35162455 0.004520945 -0.23734532 0.04025453
000360 88 50 8b be 49 23 8a 3b 49 3d 05 bd b9 c1 68 be
       -0.27209878 0.004215632 -0.03252915 -0.2273015
000370 39 62 f5 bd b9 95 62 be f2 7b 42 3d db 55 16 be
       -0.11981625 -0.22127427 0.047481485 -0.14681189
000380 af 45 6b be cd 5a b3 bd 75 5f 1f 3e ee 4e 2e 3e
       -0.22975801 -0.08757553 0.15563758 0.17022297
000390 e1 63 9d 3c 94 51 63 bd 78 68 4d 3d f2 38 41 3d
       0.019212665 -0.05549772 0.050148457 0.047173448
0003a0 4d 6d 1e be 64 b0 c8 bd 31 4b 1b 3e 8d af 70 be
       -0.15471382 -0.09799269 0.15165402 -0.23504467
0003b0 c1 fb eb 3d aa b7 19 be 14 59 17 3e ea e0 c5 be
       0.115226276 -0.15011469 0.14780074 -0.38648158
0003c0 8d a8 a4 be eb 32 24 3d 6b f1 af 3e 12 18 77 be
       -0.32159844 0.04008762 0.34363875 -0.24130276
0003d0 89 5b 21 be 47 08 b0 3e 1c 4f 44 3e d9 77 12 bd
       -0.15757574 0.34381315 0.19170803 -0.035758827
0003e0 11 cf 39 be d6 38 90 bd 64 01 57 be a7 a0 8e 3b
       -0.18145396 -0.070420906 -0.20996624 0.0043526473
0003f0 90 40 22 bc f4 7d 25 3e aa 4b 07 be a2 7e 52 be
       -0.009903088 0.16161329 -0.13212457 -0.20556119

bias f4 [4]
000000 79 62 43 3e 5a 7b 39 bd 4a 0e 29 bd a0 90 09 be
       0.19080533 -0.045283653 -0.041273393 -0.13434076
