mutiltask_ann/log/data_cell3_ete_03151128/FMNIST_89600.pt (torch, 633375 bytes, 4 tensors)

weight f4 [200, 784]
0.6774583 0.692419 0.672465 0.62539077 0.61537504 0.5610871 0.53220206 0.18152699
-0.7663226 -3.3537664 -6.182426 -2.566646 5.4881735 3.7317545 2.8316805 5.4160986
1.3495262 -3.4017618 -4.1847954 -1.3803046 0.28147018 0.68095547 0.6392323 0.57372004
0.66014975 0.6961923 0.69278944 0.6516532 0.6832825 0.6321528 0.6712473 0.59788054
0.49971563 0.4399767 0.49804223 -1.2260934 -1.7033877 -4.181893 -4.994759 -0.7792889
0.9522602 0.40303412 0.93235826 1.3836392 -0.092145875 -3.315458 -5.120866 -3.6142368
-0.94318086 0.88316864 1.0113779 0.84468925 0.73411506 0.6364497 0.6669717 0.6703787
0.6972758 0.6256123 0.64784205 0.6524078 0.113858 -0.89740336 -3.5430157 -3.5350392
1.0816567 -0.114047386 -1.862866 -0.44889206 -0.60068166 2.3612092 2.690374 1.4199735
-0.28174624 -0.41634807 0.4787974 0.38035855 -4.1162276 -3.9749393 -1.2615333 0.6972535
0.8377827 0.68560666 0.6601136 0.70508575 0.6267296 0.657377 0.61930996 0.25436863
-0.8216296 -2.6633227 -3.8951323 -0.73616886 1.3749788 -0.3845106 -2.6143258 -0.64942336
-0.47764722 3.223724 2.8266237 1.8119588 0.9639744 -1.1423535 -0.41981703 1.3611441
1.6477695 -2.9869566 -4.120998 -1.1260316 0.67016065 0.74006474 0.67801124 0.6545989
0.63863885 0.64166164 0.48993298 -0.11757818 -1.2522657 -1.8983359 -2.2452185 -1.8244257
0.41107792 -0.7501688 -0.8112902 0.9411318 0.6252803 1.7029055 3.178771 1.6423255
1.8526318 -1.2548344 -1.4808248 1.1988897 -0.71406454 -2.183658 -1.4752537 -2.6631868
0.31546885 0.71510696 0.6430366 0.6862835 0.6267715 0.6523562 0.34468967 -0.102261916
-1.1767513 -2.3615294 -2.3990507 -1.6433302 0.14360878 0.45526114 -0.045469444 1.3490787
0.80691904 1.7903739 2.0958471 1.0783889 1.7109154 -0.54125917 -0.9364534 0.10473227
-1.0037662 -2.7004542 -1.0257525 -1.7967904 -0.20247822 0.5811933 0.65864885 0.631312
0.6791899 0.687821 0.3421056 -0.26809162 -0.091636874 -2.3847113 -3.1593556 -2.2819357
0.2357795 0.37299687 0.5142444 1.0140524 0.697147 1.0704511 2.3178496 -0.055776108
1.0427116 0.046733845 0.768039 0.76576406 -1.5860441 -1.6610935 -2.0431607 -0.91248095
-0.61925834 0.3760009 0.702301 0.70229995 0.6532141 0.6449287 0.188478 -0.2757468
0.298468 -1.671367 -2.7369115 -1.9605868 -0.43198064 0.3833364 0.6505504 2.1077278
0.7194779 0.546987 1.7589117 -0.29287386 0.58150965 0.4639728 0.49457294 0.4762516
-0.9470452 -1.1322677 -1.3797699 -0.25421414 -0.3085243 0.30734915 0.7821151 0.7919504
0.6747992 0.5759857 0.1871142 -0.048214786 -0.17819639 -0.63192075 -1.1787602 -1.6762456
-1.0490707 0.101352766 0.018384391 0.94025725 0.2815866 0.9764948 1.9788343 -0.5370271
-0.75773656 -1.451255 0.72241306 -0.7084476 -1.1109457 -1.2070366 -0.85020375 0.11783222
0.2523268 0.19163129 0.7643182 0.7543451 0.68891704 0.43982825 0.17140259 0.075768635
00000000: e86d 2d3f 5f42 313f ab26 2c3f 9c19 203f
00000010: 3889 1d3f 67a3 0f3f 653e 083f 36e2 393e
00000020: b82d 44bf 1ca4 56c0 6fd6 c5c0 ee43 24c0
00000030: 1e9f af40 11d5 6e40 413a 3540 ae50 ad40
00000040: 46bd ac3f 77b6 59c0 d8e9 85c0 d2ad b0bf
00000050: dc1c 903e 1953 2e3f baa4 233f 51df 123f
00000060: 93ff 283f a939 323f a65a 313f bed2 263f
00000070: 9aeb 2e3f c4d4 213f ddd6 2b3f b30e 193f
00000080: bada ff3e a044 e13e 64ff fe3e a1f0 9cbf
00000090: 9c08 dabf 11d2 85c0 11d5 9fc0 7a7f 47bf
000000a0: 53c7 733f 7d5a ce3e 08af 6e3f 171b b13f
000000b0: fab6 bcbd 7730 54c0 22de a3c0 a84f 67c0
000000c0: 4d74 71bf 5717 623f d574 813f 8e3d 583f
000000d0: f7ee 3b3f 5eee 223f a8be 2a3f f09d 2b3f
000000e0: ab80 323f 2128 203f fad8 253f 3304 273f
000000f0: 622e e93d 3abc 65bf c5c0 62c0 153e 62c0
00000100: ba73 8a3f ad91 e9bd 6572 eebf 2ed5 e5be
00000110: 46c6 19bf 0d1e 1740 162f 2c40 b1c1 b53f
00000120: 0b41 90be 932b d5be ef24 f53e 5bbe c23e
00000130: 23b8 83c0 6865 7ec0 ec79 a1bf 357f 323f
00000140: ed78 563f eb83 2f3f 34fd 283f 8080 343f
00000150: 5a71 203f dc49 283f 198b 1e3f 9b3c 823e
00000160: 5156 52bf e173 2ac0 d949 79c0 9075 3cbf
00000170: 4eff af3f 93de c4be 1d51 27c0 9c40 26bf
00000180: 2d8e f4be 7e51 4e40 67e7 3440 44ee e73f
00000190: 07c7 763f a438 92bf 42f2 d6be f839 ae3f
000001a0: 1cea d23f 4c2a 3fc0 37df 83c0 ce21 90bf
000001b0: a68f 2b3f e274 3d3f 2592 2d3f cb93 273f
000001c0: d67d 233f f043 243f 7fd8 fa3e d4cc f0bd
000001d0: 3e4a a0bf acfc f2bf a9b1 0fc0 c886 e9bf
000001e0: ce78 d23e 100b 40bf b7b0 4fbf 03ee 703f
000001f0: 5f12 203f cff8 d93f fc70 4b40 b937 d23f
00000200: 0a23 ed3f 6a9e a0bf ab8b bdbf 3875 993f
00000210: efcc 36bf 0dc1 0bc0 1dd5 bcbf a771 2ac0
00000220: 2285 a13e 4011 373f 0c9e 243f 47b0 2f3f
00000230: 1974 203f d100 273f 2a7b b03e b26e d1bd
00000240: c99f 96bf 4c23 17c0 0c8a 19c0 a558 d2bf
00000250: 2e0e 133e fd17 e93e 2b3e 3abd 9cae ac3f
00000260: 3f92 4e3f f92a e53f 5c22 0640 a608 8a3f
00000270: 47ff da3f f68f 0abf 69bb 6fbf df7d d63d
00000280: 697b 80bf 3ed4 2cc0 dc4b 83bf 3afd e5bf
00000290: 7356 4fbe 16c9 143f 369d 283f aa9d 213f
000002a0: 64df 2d3f 0915 303f 7728 af3e 4e43 89be
000002b0: 1dac bbbd 1c9f 18c0 e232 4ac0 3c0b 12c0
000002c0: 2e70 713e 72f9 be3e 85a5 033f 78cc 813f
000002d0: 3a78 323f 8b04 893f a657 1440 7d75 64bd
000002e0: 9377 853f fd6b 3f3d 349e 443f 1d09 443f
000002f0: 7e03 cbbf b69e d4bf 25c3 02c0 5a98 69bf
00000300: b787 1ebf 3183 c03e 00ca 333f eec9 333f
00000310: 0a39 273f 0c1a 253f 6000 413e af2e 8dbe
00000320: ccd0 983e 5bef d5bf 8f29 2fc0 82f4 fabf
00000330: 912c ddbe ab44 c43e 798a 263f 03e5 0640
00000340: b42f 383f 5707 0c3f 0524 e13f 90f3 95be
00000350: d1dd 143f d88d ed3e aa38 fd3e 40d7 f33e
00000360: 8e71 72bf 26ee 90bf 4d9c b0bf 5b28 82be
00000370: e6f6 9dbe de5c 9d3e b238 483f 43bd 4a3f
00000380: a4bf 2c3f cd73 133f dd9a 3f3e de7c 45bd
00000390: 1d79 36be 8fc5 21bf 9de1 96bf 378f d6bf
000003a0: f347 86bf 0a92 cf3d dd9a 963c b3b4 703f
000003b0: 1e2c 903e 90fb 793f 714a fd3f 9c7a 09bf
000003c0: 06fb 41bf b9c2 b9bf 10f0 383f d25c 35bf
000003d0: 7833 8ebf 2d80 9abf f4a6 59bf 0552 f13d
000003e0: fa30 813e fe3a 443e 5caa 433f c31c 413f
000003f0: de5c 303f 2b31 e13e 2984 2f3e 962c 9b3d

bias f4 [200]
-1.3755404 0.8718365 -0.011781682 0.7510237 -0.99827677 0.65735155 1.2621925 -0.1430597
0.26567978 0.63482577 0.6548513 1.4302979 -1.4751145 0.09414093 -1.4651318 -0.27243346
-0.10748919 0.3722533 1.0093055 0.5661128 0.161928 -0.56923395 0.90706664 1.1321121
-1.4959034 -1.4072574 1.6326752 1.0469779 -0.089598306 -1.006509 -0.5268079 -0.15650105
-0.47319868 1.2030126 0.6510379 0.20366874 0.5397124 0.8518478 -1.119747 -0.286531
-0.09180027 -1.4326425 0.8109141 -0.4760964 0.2759165 0.9437159 0.7965432 -1.3241187
-0.18091819 -1.5560702 -0.64442396 1.0766423 1.2927258 0.44442162 0.5177354 -0.3871909
-1.4166994 -0.79094976 -1.402142 1.6617885 1.2538133 -0.25843376 0.725498 -0.004384318
-0.28986907 0.37545055 0.33111024 0.5457755 -1.4466245 -0.9317327 -1.0128103 0.7986166
0.6836698 0.9970167 0.81096876 1.5685695 0.6029891 0.16386415 -1.313908 1.0819939
1.5474751 0.9286479 -1.3652512 -1.0403109 -1.4874612 1.1433864 -0.2981257 -1.4167786
0.36573362 -0.46947998 0.30964983 1.2829912 0.91758645 -0.21580134 0.6423378 -1.3798758
1.2934054 1.3229995 -0.44740826 0.9416504 0.9917156 -1.1099954 -0.8853859 -0.61071557
0.24999519 0.7603426 -1.0361879 0.37760642 1.5202558 -1.4900194 -0.43001115 1.5576738
-0.2849212 0.7372616 -0.093316235 -0.2601963 -0.8372779 1.0261178 0.38508555 -1.2522155
-1.3830514 -0.34314254 -1.5231761 1.4201773 0.14208955 1.0402218 1.6629521 -0.7918723
0.6427971 -1.5324013 -1.0541093 -0.5585131 -0.6539583 -0.2658497 -1.5993822 1.2879142
-1.533008 0.16572687 -0.904797 -1.5143983 0.22737788 -1.4729869 0.18096559 0.26178765
1.492268 0.14712812 1.4445468 1.5461677 0.5231287 -0.13282228 1.4732862 0.31352696
0.03341779 0.27021813 1.2990619 1.1185322 -0.438582 -0.30016178 -1.0553167 1.0810304
0.00022825076 -0.8739571 1.5630476 0.2787967 1.3287712 -1.4377078 -0.40012684 0.58851534
-0.20970728 0.43120638 -1.0780529 -1.1646773 0.18941148 -1.3388292 1.312794 -0.42208314
1.2406938 -1.0000492 1.2170533 0.45151666 -0.6827426 1.7124414 1.4264253 -1.3515259
0.31591347 0.20157467 0.0051258313 0.6443883 0.28481698 1.3240988 1.4986496 -0.18122108
-0.9834053 1.345189 1.3570085 1.2177948 -1.4334615 -1.2561538 0.93324286 -1.1940917
00000000: b511 b0bf ad30 5f3f f507 41bc 1743 403f
00000010: 118f 7fbf 3148 283f 868f a13f 3e7e 12be
00000020: 2e07 883e f183 223f 56a4 273f 0014 b73f
00000030: 8dd0 bcbf f6cc c03d 7089 bbbf 667c 8bbe
00000040: 4b23 dcbd fc97 be3e ec30 813f c5ec 103f
00000050: 74d0 253e 51b9 11bf 8535 683f 0de9 903f
00000060: c379 bfbf 0321 b4bf 80fb d03f 5f03 863f
00000070: 517f b7bd 49d5 80bf e2dc 06bf d041 20be
00000080: 1947 f2be 51fc 993f 6baa 263f 8a8e 503e
00000090: 982a 0a3f b312 5a3f df53 8fbf 31b4 92be
000000a0: c801 bcbd d460 b7bf 1198 4f3f e8c2 f3be
000000b0: ed44 8d3e 5d97 713f 41ea 4b3f b97c a9bf
000000c0: 9e42 39be 4f2d c7bf f8f8 24bf 6acf 893f
000000d0: 0a78 a53f 3b8b e33e 4f8a 043f e33d c6be
000000e0: 6856 b5bf af7b 4abf 6479 b3bf 7cb5 d43f
000000f0: f47c a03f 6e51 84be 3dba 393f 53aa 8fbb
00000100: b869 94be 0e3b c03e 4887 a93e f1b7 0b3f
00000110: fe2a b9bf 0986 6ebf c5a3 81bf 2372 4c3f
00000120: fc04 2f3f 7d3c 7f3f a69b 4f3f e3c6 c83f
00000130: 7e5d 1a3f 01cc 273e 232e a8bf c77e 8a3f
00000140: aa13 c63f debb 6d3f 8dc0 aebf e828 85bf
00000150: 2165 bebf 7c5a 923f efa3 98be 0059 b5bf
00000160: 7041 bb3e ae5f f0be 6c8a 9e3e 0e39 a43f
00000170: f2e6 6a3f 07fb 5cbe 4070 243f c59f b0bf
00000180: 4f8e a53f 0c58 a93f b212 e5be 0010 713f
00000190: 13e1 7d3f 5414 8ebf a6a8 62bf db57 1cbf
000001a0: bdfe 7f3e d0a5 423f cea1 84bf a155 c13e
000001b0: be97 c23f f5b8 bebf 6c2a dcbe db61 c73f
000001c0: 31e1 91be 2dbd 3c3f 951c bfbd 7338 85be
000001d0: d857 56bf d457 833f ef29 c53e 9948 a0bf
000001e0: d407 b1bf 61b0 afbe 6ff7 c2bf 5fc8 b53f
000001f0: ec7f 113e fd25 853f 9ddb d43f 25b8 4abf
00000200: 5a8e 243f ba25 c4bf 0eed 86bf b7fa 0ebf
00000210: d069 27bf 741d 88be 8eb8 ccbf 5fda a43f
00000220: 9b39 c4bf 4eb4 293e c7a0 67bf ced7 c1bf
00000230: bfd5 683e d68a bcbf 0b4f 393e 0809 863e
00000240: a302 bf3f c1a8 163e e9e6 b83f d3e8 c53f
00000250: c3eb 053f 9002 08be a494 bc3f 9b86 a03e
00000260: 18e1 083d 085a 8a3e a947 a63f 102c 8f3f
00000270: d28d e0be ceae 99be 9e14 87bf 345f 8a3f
00000280: 9956 6f39 a7bb 5fbf f211 c83f 71be 8e3e
00000290: 2d15 aa3f cf06 b8bf 6ddd ccbe f1a8 163f
000002a0: 81bd 56be 15c7 dc3e a3fd 89bf 2514 95bf
000002b0: 15f5 413e c15e abbf a209 a83f 481b d8be
000002c0: 0ecf 9e3f 9d01 80bf 67c8 9b3f 312d e73e
000002d0: 38c8 2ebf 4831 db3f 1b95 b63f cdfe acbf
000002e0: 69bf a13e 9769 4e3e 97f6 a73b a2f6 243f
000002f0: 88d3 913e 127c a93f c0d3 bf3f 0592 39be
00000300: 73c0 7bbf 272f ac3f 74b2 ad3f b3e0 9b3f
00000310: ab7b b7bf a6c9 a0bf 01e9 6e3f ffd7 98bf

weight f4 [4, 200]
-0.7297868 -0.41660306 -0.35948732 -0.3608922 -0.43507713 -0.047736783 -0.15272464 -0.4515065
-0.33230695 0.042565037 -0.26409954 0.7918576 -1.8652205 -0.32693112 -0.8727854 -0.2613677
-0.21421328 -0.19449529 0.03901278 -0.15907279 -0.36587867 -0.36144987 -0.3359287 0.091615796
-0.63250756 -0.71450776 0.90224767 0.16110459 -0.3417628 -0.2868925 -0.7277142 -0.2783447
-0.17989942 -0.22060497 -0.06051995 0.5200148 -0.031596094 0.90080583 -1.5842125 0.09629888
-0.20586273 -2.0803049 -0.25377908 -0.4018951 -0.38832185 -0.0066661886 -0.019399699 -1.8648856
-0.33552262 -3.3327277 -0.347871 -0.15597291 -0.21557264 -0.5782182 -0.3771655 -0.33764482
-1.3688558 -0.38613263 -0.9631339 0.93520385 -0.37274536 -0.3600021 -0.35170066 0.40719646
-0.23025733 -0.5224406 -0.30928215 -0.3006086 -1.9102887 -0.20228688 -0.35608408 -0.20041573
-0.047880895 -0.20215592 -0.22600873 0.28660202 -0.60302573 -0.3073699 -0.7225715 -0.2422239
0.42799756 0.76763827 -0.76864326 -0.27289185 -0.47659445 -0.37782326 -0.21870928 -0.30067268
-0.19468823 -0.39276913 -0.38124353 -0.029855683 -0.16182098 -0.4060335 -0.26224956 -1.374819
0.28867176 -0.29635057 -0.37753436 -0.2480868 -0.10584723 -0.30627745 -0.85635877 -0.15230218
-0.2968172 -0.33694735 -0.5690638 -0.24684685 1.7267457 -0.95491666 -0.053853232 1.9683836
-0.17283718 -0.32664934 -0.26638183 0.13662776 -0.4565558 -0.19326505 -0.1685285 -0.22176649
-1.3920197 -0.23319091 -2.1337476 -0.09640161 -0.29432768 -0.33049822 2.8682687 -0.63631636
-0.25269288 -0.3087517 -0.26329857 -0.26680386 -0.15496026 0.16080314 -4.39372 0.2144675
-0.648344 -0.3501026 -0.183919 -1.5790317 0.58340347 -0.4124342 -0.16184017 -0.38702512
0.67195415 -0.572353 1.2741547 0.040142976 -0.26257715 -0.28738642 0.072974026 -0.34979534
-0.27537972 -0.2722788 0.34882748 0.54687077 -0.17731625 -0.26933447 -0.30915263 -0.19033107
-0.31642658 -0.26811078 -0.1454201 -0.3452826 -0.09805907 -1.7421461 0.01728444 -0.088262536
-0.31302303 -0.37605548 -0.20303226 -0.41235906 0.3162087 -1.880779 -0.067453474 -0.015831243
-0.14517514 -0.40630737 -0.07331213 -0.12339452 0.008305078 4.5310774 0.47346336 -0.18764615
-0.21366669 -0.3693134 -0.25230184 -0.30031508 -0.42988804 -0.35957214 0.46656606 -0.47497842
-0.07702029 -0.2856126 -0.2809381 -0.3037169 -0.35672373 -0.48724025 -0.3204754 -0.25959682
-0.26984295 -0.29406944 -0.4150873 -0.26743653 0.005914323 -0.17584962 -0.06897048 -0.52135664
-0.1619045 -0.7577977 -0.12467592 0.41881412 -1.7499473 -0.13910213 -1.0526139 0.069814995
-0.5927139 0.05527815 0.045127865 -0.6564167 -0.4105527 -0.40525725 -0.22945935 -0.26657584
-0.7491339 -0.1086556 0.51987463 0.5438371 -0.2388559 -0.16002241 0.1343867 -0.026257016
-0.19505425 -0.3372362 0.24054907 -1.9808484 0.23216784 -2.4123132 1.4317001 -4.7818823
-0.61085397 0.8675565 1.68938 -0.4489449 -0.45344114 1.0502337 0.26299015 0.55891716
-0.3589046 0.25760752 -0.43125224 -0.05193114 -0.08938531 1.3968655 -0.48174086 -0.4163956
00000000: 4fd3 3abf ff4c d5be b90e b8be ddc6 b8be
00000010: 6ec2 debe a587 43bd d963 1cbe dc2b e7be
00000020: 2324 aabe ad58 2e3d 0e38 87be 2eb7 4a3f
00000030: 8cbf eebf 8463 a7be dd6e 5fbf fdd1 85be
00000040: ba5a 5bbe c629 47be ddcb 1f3d fae3 22be
00000050: 7354 bbbe f50f b9be d9fe abbe 10a1 bb3d
00000060: 04ec 21bf fbe9 36bf b4f9 663f 9af8 243e
00000070: 89fb aebe 93e3 92be 7a4b 3abf 3283 8ebe
00000080: 8e37 38be 45e6 61be c4e3 77bd b11f 053f
00000090: e86a 01bd 369b 663f 7ac7 cabf 5938 c53d
000000a0: aecd 52be b723 05c0 55ef 81be 32c5 cdbe
000000b0: 1fd2 c6be 0b70 dabb 1eec 9ebc 92b4 eebf
000000c0: 9fc9 abbe 694b 55c0 261c b2be 5db7 1fbe
000000d0: 13bf 5cbe 1c06 14bf d61b c1be c8df acbe
000000e0: ab36 afbf 2db3 c5be f18f 76bf 8569 6f3f
000000f0: 7bd8 bebe 3252 b8be 1c12 b4be 0e7c d03e
00000100: 94c8 6bbe abbe 05bf 3b5a 9ebe 5fe9 99be
00000110: 5784 f4bf 4b24 4fbe a750 b6be c839 4dbe
00000120: c21e 44bd f601 4fbe d56e 67be 80bd 923e
00000130: e55f 1abf 965f 9dbe 72fa 38bf 8b09 78be
00000140: 7f22 db3e f183 443f cec5 44bf 7bb8 8bbe
00000150: 3004 f4be 0d72 c1be 53f5 5fbe c5f1 99be
00000160: 5a5c 47be 0919 c9be 5a32 c3be e893 f4bc
00000170: 66b4 25be 9fe3 cfbe 9345 86be 12fa afbf
00000180: c9cc 933e 43bb 97be 2f4c c1be 770a 7ebe
00000190: 6fc6 d8bd 66d0 9cbe 543a 5bbf 1af5 1bbe
000001a0: 6df8 97be 5d84 acbe 2aae 11bf 6cc5 7cbe
000001b0: 0106 dd3f 6b75 74bf 3595 5cbd fef3 fb3f
000001c0: 3bfc 30be 953e a7be 3363 88be 26e8 0b3e
000001d0: afc1 e9be 46e7 45be bc92 2cbe c116 63be
000001e0: b42d b2bf 99c9 6ebe 528f 08c0 356e c5bd
000001f0: 1eb2 96be 1037 a9be b791 3740 a1e5 22bf
00000200: f660 81be b414 9ebe 12cf 86be 849a 88be
00000210: e7ad 1ebe 94a9 243e 5b99 8cc0 5e9d 5b3e
00000220: dff9 25bf a640 b3be 4355 3cbe b61d cabf
00000230: ee59 153f 932a d3be 6eb9 25be 2828 c6be
00000240: 3005 2c3f ba85 12bf 8017 a33f f66c 243d
00000250: 8370 86be 5024 93be 6873 953d 6018 b3be
00000260: 92fe 8cbe 2068 8bbe 8499 b23e b9ff 0b3f
00000270: 6492 35be 35e6 89be 4149 9ebe 26e6 42be
00000280: aa02 a2be d145 89be 02e9 14be e2c8 b0be
00000290: 32d3 c8bd a5fe debf 1998 8d3c fdc2 b4bd
000002a0: 8e44 a0be 588a c0be b0e7 4fbe ba20 d3be
000002b0: 1be6 a13e 5ebd f0bf 0c25 8abd 86b0 81bc
000002c0: cba8 14be 8507 d0be ac24 96bd 44b6 fcbd
000002d0: 0612 083c 96fe 9040 ca69 f23e 5026 40be
000002e0: 71cb 5abe a516 bdbe b52d 81be e6c2 99be
000002f0: 491a dcbe d719 b8be bfe1 ee3e 5f30 f3be
00000300: d0bc 9dbd d13b 92be 1ed7 8fbe c880 9bbe
00000310: 7ea4 b6be 8e77 f9be 5a15 a4be e0e9 84be
00000320: db28 8abe 4590 96be 5386 d4be 71ed 88be
00000330: f0cc c13b ec11 34be 6540 8dbd a177 05bf
00000340: 4bca 25be 08ff 41bf 1756 ffbd ce6e d63e
00000350: 46fe dfbf ca70 0ebe 0dbc 86bf 2afb 8e3d
00000360: 19bc 17bf 576b 623d ffd7 383d ed0a 28bf
00000370: f733 d2be e17d cfbe 64f7 6abe a17c 88be
00000380: 3dc7 3fbf d486 debd 8116 053f e838 0b3f
00000390: a496 74be eadc 23be ab9c 093e f418 d7bc
000003a0: 4dbc 47be 39aa acbe 7f52 763e 718c fdbf
000003b0: 68bd 6d3e 5763 1ac0 f341 b73f 2e05 99c0
000003c0: ed60 1cbf 2f18 5e3f 9b3d d83f 1bdc e5be
000003d0: 7029 e8be 0f6e 863f a5a6 863e 3215 0f3f
000003e0: 58c2 b7be 22e5 833e 18cd dcbe bfb5 54bd
000003f0: a50f b7bd 7dcc b23f bda6 f6be ce31 d5be

bias f4 [4]
1.4988747 -0.3386878 -0.8527249 -1.4185783
00000000: 20db bf3f 7d68 adbe 2e4c 5abf f993 b5bf
