mutiltask_ann/log/data_cell3_ete_03151128/FMNIST_89750.pt (torch, 633375 bytes, 4 tensors)

weight f4 [200, 784]
000000 0c 3b 37 3f 19 17 3b 3f 19 f3 35 3f e1 1d 26 3f
       0.71574473 0.7308212 0.7107406 0.6488934
000010 fa 37 1d 3f d4 df 10 3f 3f 15 01 3f b1 fe 34 3d
       0.6141354 0.56591535 0.50423044 0.044188205
000020 06 89 90 bf 7e a7 88 c0 4d 33 ef c0 56 d8 3f c0
       -1.1291816 -4.270446 -7.4750123 -2.997579
000030 68 c1 c2 40 3f 0c 71 40 cf 32 2c 40 78 62 c6 40
       6.086109 3.7663724 2.690601 6.19952
000040 ed 24 c2 3f 40 61 7d c0 38 54 a6 c0 d7 52 ef bf
       1.5167519 -3.9590607 -5.1977806 -1.8697156
000050 ec f2 7e 3d 88 08 3c 3f e5 f4 10 3f d5 ce 04 3f
       0.062243387 0.7345052 0.5662368 0.518781
000060 51 a3 2e 3f 9b 24 39 3f 46 35 3b 3f 9a f0 30 3f
       0.6821795 0.7232148 0.73128164 0.6911713
000070 f2 e6 38 3f 91 e2 2b 3f 50 45 36 3f db 9f 20 3f
       0.72227395 0.6714259 0.7119951 0.6274392
000080 d6 04 ff 3e fc 5d c4 3e 5f a6 dc 3e 9d 34 c9 bf
       0.49808377 0.38352954 0.4309568 -1.5719181
000090 96 53 11 c0 19 ac 73 c0 84 33 ad c0 a4 1d 33 bf
       -2.2707267 -3.807379 -5.4125385 -0.69967103
0000a0 88 10 99 3f e5 0d 45 3f 6b 8f 8e 3f 57 bc b8 3f
       1.195817 0.76974326 1.1137518 1.4432477
0000b0 9b b6 44 be 82 ee 63 c0 f7 bf a9 c0 0b 9d 67 c0
       -0.19210283 -3.5614324 -5.304683 -3.6189601
0000c0 59 60 91 bf 55 94 a5 3f 3a a4 8a 3f 7c 2a 69 3f
       -1.1357528 1.2935892 1.0831368 0.9108045
0000d0 38 f1 49 3f 85 e2 2a 3f f0 44 35 3f 34 06 36 3f
       0.78883696 0.6675189 0.70808315 0.71103215
0000e0 76 9f 3c 3f f5 04 2a 3f e5 45 2f 3f 0d 7d 34 3f
       0.7368082 0.66413814 0.68466026 0.7050331
0000f0 ce 18 e5 3c fd 86 aa bf 34 6c 7f c0 00 b6 6d c0
       0.02796593 -1.3322445 -3.9909792 -3.7142334
000100 67 98 97 3f 7e e7 fd 3d 2c 19 fc bf 09 89 67 bd
       1.1843385 0.12397669 -1.9695182 -0.05652717
000110 77 37 13 bf ce c4 3e 40 97 a7 69 40 38 3d 02 40
       -0.5750651 2.980762 3.6508539 2.0349865
000120 10 92 20 3d ae 9c 88 be ca 62 27 3e 3d 07 2b 3f
       0.039201796 -0.26682037 0.16346279 0.6680792
000130 f0 33 81 c0 3a 54 8b c0 2d 95 b7 bf 42 10 35 3f
       -4.03759 -4.3540316 -1.43424 0.7072793
000140 87 d3 6c 3f e1 ac 3f 3f 7e fb 35 3f c4 46 3f 3f
       0.92510265 0.7487317 0.7108687 0.74717355
000150 21 a2 29 3f fd 7b 31 3f 0b 3f 29 3f bf c6 6f 3e
       0.66263014 0.69329816 0.6611182 0.2341566
000160 48 31 a0 bf 11 7b 5b c0 73 37 9e c0 03 13 3d bf
       -1.251504 -3.4293864 -4.9442687 -0.73857135
000170 2b 31 ae 3f 09 a6 d8 be 34 32 34 c0 86 c4 24 bd
       1.3608755 -0.42314175 -2.8155642 -0.04022648
000180 f7 8e 06 bf 94 89 75 40 71 fb 70 40 9a bd 39 40
       -0.525619 3.836522 3.7653468 2.9021974
000190 9d 6d d1 3f 9f 59 9b bf 2e 99 f8 be f1 20 b2 3f
       1.6361576 -1.2136725 -0.48554367 1.3916303
0001a0 dd 45 19 40 e8 be 44 c0 35 67 95 c0 3e f9 bd bf
       2.394889 -3.074152 -4.6688485 -1.4841688
0001b0 4e 46 3d 3f 0c b5 4f 3f 05 83 39 3f b1 af 32 3f
       0.739354 0.8113563 0.72465545 0.69799334
0001c0 76 3b 2d 3f 1a 2b 2d 3f a3 c8 02 3f e8 b6 92 be
       0.67668855 0.6764389 0.510874 -0.2865517
0001d0 66 6c dc bf d9 53 37 c0 f4 94 2b c0 67 d2 10 c0
       -1.722058 -2.8644927 -2.6809664 -2.262842
0001e0 3a d6 24 3f be 28 70 bf 98 40 41 bf 7f 88 c3 3f
       0.64389384 -0.9381217 -0.7548919 1.527603
0001f0 47 85 c3 3f a3 c4 19 40 38 00 87 40 71 43 11 40
       1.5275048 2.4026268 4.2187767 2.2697413
000200 e1 c9 1c 40 8d 42 cf bf b4 57 f5 bf ef a1 ad 3f
       2.4498217 -1.6192185 -1.916739 1.3565043
000210 8e 68 6b bf eb 09 22 c0 a6 e1 d0 bf 8a fc 55 c0
       -0.9195641 -2.5318553 -1.6318862 -3.3435388
000220 80 f1 97 3e 8c 41 43 3f 64 34 2c 3f 1b 21 39 3f
       0.29676437 0.7627189 0.6726744 0.7231614
000230 0b f2 29 3f 1e fc 2f 3f 71 2b be 3e 31 2a 91 be
       0.66384953 0.68744075 0.37142518 -0.28352502
000240 2d f9 f7 bf fe cc 3d c0 df be 1d c0 00 e1 fc bf
       -1.9372917 -2.9656367 -2.4647748 -1.9756165
000250 0f dd f0 3d 5a fb 0a 3f f6 59 08 3e af a3 bd 3f
       0.117609136 0.5428978 0.13315567 1.4815577
000260 43 5b 87 3f 6c 09 1c 40 38 d4 38 40 41 f6 c2 3f
       1.0574726 2.438075 2.8879528 1.5231401
000270 84 1f 00 40 17 cc d9 be f0 2b 4e bf 70 da bc be
       2.0019236 -0.4253852 -0.80535793 -0.36885405
000280 78 85 9d bf a0 69 44 c0 d3 ee a5 bf 41 c7 0e c0
       -1.2306356 -3.0689468 -1.2963508 -2.2309115
000290 3d e2 b5 be 1b c4 1b 3f a9 de 33 3f 88 71 2d 3f
       -0.3552417 0.6084611 0.7026163 0.6775136
0002a0 82 6c 37 3f 4a ea 39 3f cc 83 b5 3e e5 ee ec be
       0.71649945 0.7262312 0.35452116 -0.46276012
0002b0 e8 11 58 bf 46 61 2f c0 3c 1a 55 c0 c3 f4 22 c0
       -0.8440232 -2.740312 -3.3297262 -2.546189
0002c0 70 6c ce 3e 92 91 2b 3f e5 15 4d 3f b2 7e b5 3f
       0.40317106 0.67019 0.80111533 1.4179289
0002d0 53 66 6f 3f f1 2b 9b 3f f7 6a 34 40 87 78 06 be
       0.9351551 1.2122785 2.8190286 -0.13131915
0002e0 b6 c2 b0 3f 25 5a c7 3e 4d 3b aa 3f c0 d1 4a 3f
       1.3809421 0.38935962 1.3299347 0.79226303
0002f0 87 97 d1 bf f5 38 e7 bf 34 3b 15 c0 63 f1 8a bf
       -1.6374367 -1.8064257 -2.3317385 -1.0854915
000300 8b 84 47 bf 5f e2 bb 3e b7 41 3d 3f 49 e2 40 3f
       -0.7793662 0.36696145 0.739284 0.75345284
000310 70 96 30 3f 85 42 2d 3f 25 57 0c 3e 6f 5e 1d bf
       0.6897955 0.67679626 0.13705118 -0.6147222
000320 94 88 14 be 03 e3 eb bf 34 e1 5a c0 a2 f2 09 c0
       -0.14505225 -1.8428653 -3.4199953 -2.1554341
000330 7a ac 5b be c7 75 03 3f 4c 07 70 3f 0b 1a 25 40
       -0.21452513 0.5135159 0.93761134 2.5797145
000340 6c 3c ab 3f 49 d9 61 3f 88 10 11 40 6c 4c b0 be
       1.3377814 0.88222176 2.266634 -0.34433305
000350 3d 4e a0 3f ab 89 8d 3f ec d2 87 3f 26 e3 8a 3f
       1.2523876 1.1057638 1.0611243 1.085057
000360 0e a6 61 bf 36 6e b3 bf e8 5d b3 bf 59 79 a9 be
       -0.88144004 -1.4018009 -1.4013033 -0.33100393
000370 99 a0 ef be 6f 43 1c 3e ce 69 50 3f 14 b3 55 3f
       -0.46802214 0.15260099 0.81411445 0.83476377
000380 9b 10 35 3f 11 8a 1e 3f d1 c4 1f 3e c6 79 cb be
       0.7072846 0.6192942 0.15602423 -0.39741343
000390 02 82 c1 be d5 f8 25 bf 67 1c df bf df 3f e4 bf
       -0.377945 -0.6483281 -1.7430543 -1.7831992
0003a0 39 2d 57 bf d9 ab 56 be 96 45 75 bd 0a 82 85 3f
       -0.8405338 -0.20963992 -0.059880815 1.043031
0003b0 8f 72 70 bc 2d 40 2d 3f c6 45 15 40 72 57 22 bf
       -0.01467575 0.6767605 2.3323836 -0.6341468
0003c0 5e f5 4b bf e8 17 c8 bf 75 19 ac 3f b8 4c 07 be
       -0.79671276 -1.5632296 1.3445269 -0.1321286
0003d0 02 24 9e bf 66 14 e2 bf de 7a 44 bf d6 7d 82 3d
       -1.2354739 -1.7662475 -0.7674998 0.063716576
0003e0 60 7b 91 3e 14 24 42 bd 5b d3 4b 3f 35 76 4b 3f
       0.2841444 -0.047397688 0.7961938 0.79477245
0003f0 f7 0d 3a 3f 20 58 f5 3e 55 4e 8c 3d 06 8a 75 bd
       0.7267756 0.47918797 0.06850878 -0.059946083

bias f4 [200]
000000 7d d6 d0 bf 97 29 8e 3f a9 64 8c be e8 70 57 3f
       -1.6315457 1.1106442 -0.27420548 0.84156656
000010 7f 9f ad bf fc 6a 42 3f 43 3f ce 3f e2 ce b7 be
       -1.3564299 0.75944495 1.6113056 -0.35900027
000020 27 ab 3d 3e 9c b5 5f 3f 4f 69 3d 3f 0b c1 da 3f
       0.1852232 0.8738649 0.73988813 1.7090162
000030 c2 19 e2 bf 61 30 bc 3c 13 70 e0 bf 42 7a d6 be
       -1.7664111 0.022972288 -1.7534202 -0.4189015
000040 25 95 78 bd e8 ef dc 3e f1 b3 a0 3f 3e 8b 45 3f
       -0.06068911 0.43151784 1.2554914 0.7716559
000050 81 2b 17 bd 21 2a 55 bf f4 f6 84 3f b3 68 b8 3f
       -0.036906723 -0.8326741 1.0387864 1.4406952
000060 ea 70 e7 bf 88 dd dc bf 5f 62 fe 3f d1 e9 a3 3f
       -1.8081334 -1.7255106 1.987377 1.280573
000070 fc b2 d9 be 40 ad bc bf 28 13 f8 be 6b 8a 8d be
       -0.42519367 -1.4740372 -0.48452115 -0.27644667
000080 99 ce 21 bf 36 33 c1 3f 23 d4 5c 3f b8 ac 8b 3d
       -0.6320587 1.5093753 0.86261195 0.06820053
000090 0a 3b 38 3f c2 e2 65 3f 53 eb 9e bf 80 e0 d8 be
       0.71965086 0.8979913 -1.2415565 -0.4235878
0000a0 8c 6d a2 bc 90 bd d9 bf d7 80 85 3f 3a a3 37 bf
       -0.019827627 -1.7010975 1.0429944 -0.7173344
0000b0 1f 58 93 3d 52 7b 97 3f 82 a3 85 3f 8f 59 c2 bf
       0.07194542 1.1834509 1.0440524 -1.5183581
0000c0 5f 16 08 bf db b0 ea bf c2 c6 55 bf 6b cc ae 3f
       -0.53159136 -1.8335222 -0.83506405 1.3656133
0000d0 e6 c0 d2 3f 3d b2 40 3f af fe f2 3e 1e cc 10 bf
       1.6465118 0.7527197 0.47459933 -0.5656146
0000e0 4e 94 d6 bf a3 2e 91 bf 58 6a de bf c5 92 01 40
       -1.6764009 -1.1342357 -1.7376204 2.024583
0000f0 e2 04 cd 3f f9 1f 2c bf e0 0b 6e 3f 2d cb c2 bd
       1.6017115 -0.67236286 0.9298687 -0.09511409
000100 d7 ef da be 3e a0 10 3f 78 53 10 3e b8 2d c9 3e
       -0.42761108 0.5649451 0.14094341 0.39292693
000110 0f db db bf 0e 48 8e bf 12 b6 9a bf ac d6 61 3f
       -1.7176226 -1.1115739 -1.2086813 0.8821819
000120 e1 20 3c 3f 40 f4 a7 3f 68 61 47 3f 0e 5b f6 3f
       0.7348767 1.3121414 0.77883005 1.9246538
000130 91 4d 68 3f cf b4 91 3e a4 31 ca bf 03 fc a3 3f
       0.90743357 0.28458259 -1.5796399 1.2811283
000140 00 f8 f1 3f 12 b8 7b 3f 5f 9a d1 bf a8 6f a2 bf
       1.8903809 0.98327744 -1.6375235 -1.2690325
000150 c9 b7 f3 bf cd d1 b8 3f c6 16 cc be 01 23 f1 bf
       -1.9040462 1.4439026 -0.39861125 -1.8838807
000160 91 83 ef 3e 34 7c 4b bf ae ee 1e 3e 24 a6 ce 3f
       0.46780065 -0.79486394 0.15520737 1.6144452
000170 5f 70 91 3f 8d 45 24 bf a2 5d 46 3f 69 b1 cd bf
       1.1362418 -0.64168626 0.7748662 -1.6069766
000180 f0 55 d5 3f 88 5d d6 3f 03 fd 53 bf 0f b5 99 3f
       1.6666851 1.6747293 -0.8280794 1.200838
000190 13 aa 95 3f cd 04 c1 bf 34 be 6c bf e5 44 5a bf
       1.1692528 -1.507959 -0.92477727 -0.85261375
0001a0 cc e6 5a bd cb e3 3c 3f 33 87 bc bf b4 23 09 3f
       -0.05344276 0.73785084 -1.472876 0.53570104
0001b0 ff b7 e7 3f 43 ab e3 bf fa 13 05 bf 6a 51 f0 3f
       1.8103026 -1.778664 -0.51983607 1.8774846
0001c0 a9 e0 d3 be 36 93 37 3f 49 c1 28 be f9 24 cf be
       -0.4138234 0.71709 -0.16479982 -0.40457895
0001d0 8c b1 81 bf 92 b1 ac 3f 48 57 f6 3e 2e e3 c7 bf
       -1.0132308 1.349169 0.48113465 -1.5616205
0001e0 9c 80 d1 bf 93 bb 35 bf 92 70 e7 bf d3 fc e0 3f
       -1.6367373 -0.7098934 -1.8081229 1.7577156
0001f0 21 a6 24 be 22 df ac 3f 2d 68 fe 3f ff 87 81 bf
       -0.16078998 1.3505595 1.9875542 -1.0119628
000200 f2 d3 1b 3f d2 65 fc bf 49 73 a1 bf 05 a9 81 bf
       0.6087028 -1.9718573 -1.2613307 -1.0129706
000210 1f 95 42 bf c3 b6 cf be f0 da f0 bf 67 43 c8 3f
       -0.7600879 -0.40569124 -1.8816814 1.564557
000220 c0 a2 f4 bf 7a 5e 9b 3e 3d 6a 8e bf 50 67 e7 bf
       -1.9112167 0.30345517 -1.1126171 -1.8078403
000230 cd d7 28 3e db fb f3 bf 87 e5 72 3e 66 85 db 3d
       0.16488571 -1.9061235 0.2372037 0.10718803
000240 ef f0 e8 3f 5b 4b 99 3e 00 34 de 3f 80 7a f5 3f
       1.8198527 0.29940304 1.7359619 1.9178009
000250 91 87 19 3f 58 0d ac be 1a fc eb 3f 07 a4 4e 3e
       0.5997248 -0.3360393 1.843631 0.20179759
000260 15 ea b5 be 76 8c 5a 3d 20 44 d6 3f c6 83 ab 3f
       -0.35530153 0.05335661 1.673954 1.3399589
000270 88 4d 2a bf 53 93 41 bf e3 c3 a8 bf 35 d8 b4 3f
       -0.66524553 -0.75615424 -1.318478 1.4128481
000280 66 a5 83 be ac 10 85 bf 76 62 fe 3f 4a 83 d5 3d
       -0.25712126 -1.0395713 1.9873798 0.10425432
000290 e1 44 d3 3f dd 7d dc bf 2c 1c 0e bf 7a 6d 49 3f
       1.6505395 -1.722591 -0.55511737 0.7868267
0002a0 6d eb 25 bf 8d 65 ea 3e f2 62 b3 bf f0 6c d0 bf
       -0.64812356 0.45780602 -1.4014571 -1.6283245
0002b0 75 5e 0a 3e c4 f2 c4 bf 67 dd d3 3f c3 5c 18 bf
       0.13512595 -1.5386586 1.6551942 -0.59516543
0002c0 d5 6c c5 3f 27 33 9f bf 3a fb be 3f c3 2b 0b 3f
       1.5423838 -1.2437485 1.4920418 0.5436365
0002d0 88 69 5c bf ef 96 01 40 f0 d5 e7 3f d0 b2 dc bf
       -0.8609853 2.0248373 1.8112164 -1.7242069
0002e0 e9 45 f0 3e 3e 13 f8 bd 34 00 6f bd a9 36 10 3f
       0.46928337 -0.12113045 -0.058349803 0.56333405
0002f0 e8 98 63 3e 7e 41 d4 3f c6 92 e8 3f 34 44 7a be
       0.22226298 1.6582487 1.8169792 -0.2444008
000300 4a 0a 9e bf 5b ee da 3f 90 ef da 3f 70 a9 bd 3f
       -1.234689 1.710399 1.7104359 1.4817333
000310 99 2d e1 bf 29 e1 c1 bf 60 24 8b 3f 74 99 da bf
       -1.759204 -1.5146838 1.0870476 -1.707808

weight f4 [4, 200]
000000 03 ba 26 bf 0f f9 f2 be 9e 97 ad be 3a 5f d2 be
       -0.6512758 -0.47455642 -0.33904737 -0.41088277
000010 a2 6d 2c be 6c 34 3a bd 46 51 61 be 1f e3 dc be
       -0.16838697 -0.04546015 -0.2200366 -0.4314203
000020 be ff 74 be 8d 42 99 bc aa c8 87 be c8 ad 84 3f
       -0.23925683 -0.018708492 -0.26520282 1.0365534
000030 dd 79 f7 bf 3e 00 55 be d5 8d 5b bf 5a ff 55 bd
       -1.9334065 -0.20800874 -0.85763294 -0.052245475
000040 30 2e 64 be 81 14 d4 bd 62 5b 1c 3b 35 ab 67 be
       -0.22283244 -0.10355473 0.002385818 -0.22623904
000050 f6 e9 ba be 2c f6 8d be 47 02 c9 be 9e cc 9c bc
       -0.36506623 -0.27726877 -0.3925955 -0.019140538
000060 f8 20 0a bf d6 d2 16 bf 47 d6 9b 3f 33 a3 52 3e
       -0.53956556 -0.5891546 1.2174767 0.20570068
000070 c5 47 84 be 11 0c df bd 26 59 1c bf 7e ce c0 bd
       -0.25836006 -0.10890973 -0.6107353 -0.09414385
000080 de 16 b9 bc f1 03 aa be c9 60 6f bd d9 59 1b 3f
       -0.022593912 -0.33206132 -0.05844191 0.6068397
000090 cb eb 6b bc 29 60 87 3f c0 3c d7 bf 89 be 32 3e
       -0.014399479 1.0576221 -1.6815414 0.17455496
0000a0 fa 83 62 be e5 5d 0b c0 4e d2 59 be 6c 4a b0 be
       -0.22120658 -2.1776059 -0.21271631 -0.3443178
0000b0 75 f3 ca be 8d cf 9e 3d 0c 4c 52 bd 2a 12 f8 bf
       -0.39638868 0.07754431 -0.051342055 -1.9380543
0000c0 7c 98 80 be d8 d5 60 c0 40 4d 92 be 28 16 67 be
       -0.25116336 -3.513052 -0.28574562 -0.22567046
0000d0 ba 4f 89 be f6 da 0f bf 6e d4 e4 be 20 33 93 be
       -0.2681864 -0.5619348 -0.4469332 -0.28749943
0000e0 70 77 b3 bf c1 c3 d1 bd 2d 62 45 bf 2d 3e 9c 3f
       -1.4020824 -0.10242415 -0.7710293 1.2206475
0000f0 4a ea c4 be 61 8d 85 be c5 bd c2 be bc 2b 04 3f
       -0.38459998 -0.26084426 -0.38035408 0.51629233
000100 d0 2e 8c bc 8f 77 0c bf e3 0a 72 be 10 d8 a5 be
       -0.017112166 -0.5486993 -0.23636965 -0.32391405
000110 62 01 f8 bf ec 8f e4 bd a6 7c 87 be 56 da 5d be
       -1.9375422 -0.111602634 -0.26462287 -0.2166532
000120 eb e3 f2 bd 5a f4 87 be b5 4e 8f be 96 3f c2 3e
       -0.11859878 -0.26553613 -0.27989736 0.37939137
000130 4a 05 f7 be c6 4e b0 be 59 28 2d bf 1d 4a bc be
       -0.48246223 -0.344351 -0.6763969 -0.36775294
000140 73 87 27 3f 7c cb 61 3f 43 05 37 bf 9e 40 3a be
       0.65441054 0.8820112 -0.71492404 -0.18188712
000150 4b 0e 64 be f0 37 b6 be 41 b6 3e bd 9b 70 d8 bd
       -0.22271077 -0.35589552 -0.04656053 -0.10568353
000160 2d ae 86 be be 75 a7 be 71 30 c9 be 64 13 94 bd
       -0.2630476 -0.32707018 -0.3929477 -0.07230261
000170 56 c6 00 be 8c ec 82 be 4b 22 9a be ac 88 b0 bf
       -0.12575659 -0.25571096 -0.30104288 -1.3791709
000180 17 0a 6b 3e b3 d9 c6 be eb ca 92 be 36 8c a4 be
       0.22953068 -0.38837966 -0.2867044 -0.32138222
000190 90 36 56 be 20 fa 4b be 48 50 57 bf eb 02 1f 3c
       -0.20919251 -0.19919634 -0.84106874 0.009705286
0001a0 87 c4 85 be 6d 0f c1 be c8 65 ac be 3c 4c 85 be
       -0.261265 -0.3770708 -0.33671403 -0.26034725
0001b0 7a 1c 07 40 6c e3 75 bf 05 dc e7 3d f1 d7 20 40
       2.111113 -0.96050143 0.11321262 2.51318
0001c0 20 6c 5e 3c fd d1 a3 be 10 e4 bd bd a5 c5 69 3e
       0.013575584 -0.31996146 -0.09272015 0.22829302
0001d0 ad e1 c7 be c9 9f 88 be 78 a6 c9 bd 8c 17 8d bd
       -0.39039364 -0.26684406 -0.098462045 -0.06889257
0001e0 55 2f a9 bf 80 10 f8 bd 5c 27 0e c0 5a c5 f1 bd
       -1.321757 -0.12112522 -2.2211523 -0.1180522
0001f0 7b e0 59 be 94 2f bc be f0 f7 63 40 89 ec 04 bf
       -0.21277039 -0.3675505 3.562008 -0.51923424
000200 38 eb 6a be 8c 88 80 bd f6 41 30 be fc 62 06 be
       -0.22941291 -0.06276044 -0.17212662 -0.13123697
000210 39 84 ef bd 47 93 87 3e 44 95 95 c0 9b fc 5e 3e
       -0.11695141 0.2647955 -4.674471 0.21776049
000220 87 2b d4 be 3f ea c7 be d6 9a 4b bb 46 83 d0 bf
       -0.4143946 -0.39045903 -0.0031067631 -1.6290061
000230 8f 37 36 3f 0e 0d 87 be bb d9 7d bd 81 cd d2 be
       0.71178526 -0.26377147 -0.061975222 -0.41172412
000240 74 2c 73 3f 87 6d 24 bf 31 88 d1 3f fd 62 f3 3c
       0.94989705 -0.64229625 1.6369687 0.029710287
000250 08 d1 7b be a6 28 0c be e9 26 75 3d 0a f1 c3 be
       -0.24591458 -0.13687381 0.05985156 -0.38269836
000260 26 fe 35 be ee 80 3e be 69 f3 a7 3e a8 64 06 3f
       -0.17772731 -0.1860387 0.32802895 0.5249734
000270 ee 9c 1c bd ac 55 12 be 3e e1 5c be cd 56 7a be
       -0.038235597 -0.14290494 -0.21570298 -0.24447174
000280 82 af 3d be c6 87 51 be b2 d3 37 be 38 e5 be be
       -0.18523982 -0.2046195 -0.17951849 -0.37284255
000290 d5 8f f3 bd a7 19 de bf 76 2b a2 3d ca 30 a5 bd
       -0.11892668 -1.7351578 0.07918446 -0.080659464
0002a0 24 39 57 be 38 55 d9 be 6e fd b6 bc 06 75 7f be
       -0.21017891 -0.4244783 -0.022337642 -0.24946985
0002b0 ed b5 d5 3e 12 c3 fb bf a3 6d f5 bd e7 be 5c 3d
       0.4174036 -1.9668906 -0.11983802 0.053892996
0002c0 a3 22 ca bd e2 1b ab be 7e b0 2f be d7 7e 85 bd
       -0.09869888 -0.3341971 -0.1715717 -0.065183334
0002d0 1b a2 8d 3c 71 b0 ad 40 de b7 fa 3e 28 56 c8 3b
       0.017289212 5.4277883 0.48968405 0.0061137863
0002e0 2a a0 6c be bf 40 9c be 13 12 c1 bd d7 b1 b2 be
       -0.23107973 -0.30518147 -0.094272755 -0.34901306
0002f0 41 40 a8 be 9c 7d e2 be df 63 1e 3f 29 f0 cc be
       -0.32861522 -0.44236457 0.6187114 -0.40026978
000300 a7 9f 3a 3d 69 d6 bd be 4c 5b c7 be cb e3 c3 be
       0.045562413 -0.37077644 -0.3893684 -0.3825973
000310 e2 07 60 be 3b de df be 4d d9 c3 be 45 e6 43 bd
       -0.21878007 -0.43724236 -0.38251725 -0.047827024
000320 6c 84 00 bf 4a 87 20 bf d7 c5 34 bf 4e fe f4 be
       -0.5020206 -0.62706435 -0.7061438 -0.4785027
000330 c1 26 0c be 32 69 fa be c6 7d 8f be df 2d 5d bf
       -0.13686658 -0.48908383 -0.28025645 -0.8639812
000340 f6 2e e6 be e9 65 91 bf f2 36 a6 be d4 74 15 3f
       -0.44957703 -1.1359226 -0.32463795 0.5838139
000350 e3 49 fe bf 26 80 d5 be c8 bf 9f bf a1 c3 a6 bd
       -1.9866298 -0.41699332 -1.2480402 -0.08142782
000360 1e 06 7e bf 32 36 f3 bd 15 c4 25 3d 65 15 92 bf
       -0.99228084 -0.11875571 0.0404702 -1.1412779
000370 5a 9e 39 bf cb 90 36 bf 06 65 cf be f2 11 30 bf
       -0.7250725 -0.71314687 -0.40506762 -0.6877738
000380 02 77 63 bf f1 02 a0 be 25 67 0e 3f 75 18 4b 3f
       -0.88853467 -0.31252244 0.55626136 0.79334193
000390 2e 8d ec be ab 4b c1 be 9f bd 82 be 90 52 80 be
       -0.46201462 -0.37753043 -0.25535294 -0.2506299
0003a0 a9 b1 ca be 8b 3d 36 bf d1 82 be 3e 44 40 02 c0
       -0.3958867 -0.7118766 0.3720918 -2.0351725
0003b0 42 eb 90 3e 1a e4 24 c0 9c dd b9 3f 4c fc ae c0
       0.28304487 -2.5764222 1.4520755 -5.468298
0003c0 c5 5e 7e bf 18 57 64 3f 80 55 f8 3f fe 29 45 bf
       -0.99363357 0.89195395 1.9401093 -0.770172
0003d0 77 02 41 bf fe 8e a0 3f ff 06 cf 3e 05 6c c5 3e
       -0.75394386 1.2543638 0.40435025 0.38558975
0003e0 cc f4 19 bf b4 09 2a 3e df cd 40 bf 17 8b 90 be
       -0.60139155 0.16605264 -0.75314134 -0.28231117
0003f0 0a 14 97 be a2 f6 51 3f f9 e2 5f bf 73 ec 40 bf
       -0.29507476 0.82016957 -0.8745571 -0.7536079

bias f4 [4]
000000 1f 34 eb 3f 86 d3 c2 be f2 64 91 bf 2a fd cd bf
       1.8375281 -0.38052005 -1.1358931 -1.6092885
