mutiltask_ann/log/data_cell3_ete_03151128/FMNIST_88875.pt (torch, 633375 bytes, 4 tensors)

weight f4 [200, 784]
00000000: cbef fc3e 426b 023f df31 fb3e a667 ef3e
00000010: c168 e33e 9137 ce3e b338 c43e ff3a 4a3e
00000020: f0f3 cdbe acda 10c0 a2c8 93c0 f7e3 0ec0
00000030: 965a 5740 9225 0740 bc33 d33f bafe 4c40
00000040: 8803 053d 3b5e 56c0 75bc 2ec0 f1be 6fbf
00000050: 049e 6e3e 9af2 fc3e 5d70 123f 6e71 e83e
00000060: 3881 f63e f843 043f 1ee6 013f 9eeb ef3e
00000070: 32c8 ff3e cdd9 e53e d9bd f63e 8529 e13e
00000080: 6fbd b33e 479b 953e e125 233e 096b 92bf
00000090: a8e7 c8bf b807 46c0 c047 3ac0 e66c c5be
000000a0: aa5c 5e3f 439f 1e3f a0b0 433f 0402 5d3f
000000b0: c3d8 853e 8925 edbf af62 58c0 0637 19c0
000000c0: 4c9d 89bf f3fa e23e e3cc 453f 7d0d 143f
000000d0: f617 013f ff13 ec3e 949d fb3e 2d01 f83e
000000e0: b46e 043f a674 e43e c785 f03e ac5f f13e
000000f0: 3f63 dd3d 886c 02bf 09f3 21c0 299d 41c0
00000100: 6d3c 323f 9b4f f73d e877 99bf 19ee 33bf
00000110: 3397 5ebe a7e4 e43f 1945 d83f 2b9e 533f
00000120: 9620 74be 6693 1bbf 0a5f 583e bb01 0b3f
00000130: 8949 3cc0 699e 53c0 9fdf 52bf 085c fc3e
00000140: a854 153f 6594 003f b44f f93e 1641 063f
00000150: 3e00 e63e 41a0 f53e 0225 e03e d817 433e
00000160: c810 eabe 4d7e dbbf 2f48 2bc0 d6d1 ebbe
00000170: dafd 743f 16bf 2dbf d0dc d7bf 9f30 8cbe
00000180: 943f cfbe e2a8 0740 2ca0 0340 4cc4 ad3f
00000190: d7fd 453f bc8b 33bf 5123 73bf 8e76 763f
000001a0: 908a 7f3f d3a0 10c0 ba77 40c0 bb5f 0dbf
000001b0: 72ae e73e 21a7 053f 6dcd 013f 3aa5 f13e
000001c0: 280f ec3e de90 ed3e f480 b33e 01a4 5fbd
000001d0: eeee 5bbf 3107 c6bf d624 c0bf c740 72bf
000001e0: 28fb b63e 6bbe d1be 0a23 8cbe e483 473f
000001f0: 4bb9 173f be25 ad3f b469 1740 0fc0 ad3f
00000200: 1223 c63f 79cd 9ebe b56d f6be e06a 593f
00000210: 5bf5 01bf 7530 a6bf 7e25 c4bf 61d4 c7bf
00000220: 33d2 523e a6de eb3e ace9 e73e 017d 023f
00000230: 94db e53e 3c22 f23e 8d4b 823e 49eb e13c
00000240: abaf 67bf 57f2 f6bf fa14 a2bf fcd7 73bf
00000250: cda0 b43e 5603 d83e 18fc 1d3e 26e4 623f
00000260: dd72 273f 900c b43f 6fa2 c43f 71a7 533f
00000270: ec69 943f 3258 f5bc 8eae 7fbe 369c a43e
00000280: a164 17bf ca9a cbbf a77c 6cbf d615 aabf
00000290: 6a0d 2fbd 5c14 b03e 55db ee3e 4af4 e93e
000002a0: 3c65 003f ac66 f93e 7ee7 5b3e 6d8c 39bc
000002b0: fdfc 0fbf a80a dfbf 5b44 c9bf d5df 99bf
000002c0: 7377 5a3e b756 513e 059e e33e 3947 753f
000002d0: d6ab f43e 3355 803f 4189 cc3f d7f5 2e3e
000002e0: ef28 1c3f 23eb 913e affc d53e 672a c33e
000002f0: 5db4 4dbf 89ca 7cbf 56fe 84bf 0897 33bf
00000300: e9ac a9be cea4 8b3e a689 ee3e a3d9 003f
00000310: ec4f f43e 7fbd ed3e 25aa 2f3e 2f21 44bd
00000320: b8b8 88be 3523 87bf 24a9 a4bf dc05 9bbf
00000330: 0481 58be e8c9 7e3e aae4 2c3f 1e51 b73f
00000340: 5e77 eb3e 8baa 363f 590e 983f 7a58 d73a
00000350: 19d5 e43e 9cf7 083f 7b40 ec3e 9bda 5d3e
00000360: b84b 23bf 0dc4 20bf d773 15bf 985d d7be
00000370: ca04 90be eb8e 863e f85c f93e c732 073f
00000380: 3f05 ff3e 1125 db3e 9107 4f3e 4d26 86bc
00000390: 048e cfbe b052 46be f140 20bf b459 a2bf
000003a0: 59b5 32bf 287c f03d b06a e93e dcda 253f
000003b0: 8cd2 acbc 8e97 4c3f a419 973f 37ac e8bc
000003c0: 09af 8fbe fe3e 38bf e7a4 493f 5c66 a7be
000003d0: 2187 25bf 834d 15bf 9192 b6be 7c5a 47be
000003e0: 9e60 6fbd 15e8 263e 8767 043f 5d71 073f
000003f0: 13a2 023f e685 aa3e abe5 553e 1128 8bbd
0.49401698 0.5094491 0.49061486 0.46758765 0.44415858 0.4027677 0.38324508 0.19749068
-0.40225172 -2.2633467 -4.6182413 -2.2326639 3.364904 2.111668 1.6500163 3.2030473
0.03247407 -3.3495014 -2.7302525 -0.9365073 0.23302466 0.4940384 0.572027 0.4539904
0.4814546 0.5166621 0.50741756 0.4685945 0.49957424 0.4489273 0.48191717 0.4397699
0.35105464 0.2922003 0.15932418 -1.1438915 -1.5695696 -3.094221 -2.9106293 -0.38559645
0.86860144 0.61961764 0.76441383 0.863312 0.2614194 -1.852708 -3.3810232 -2.3939834
-1.0751128 0.44332084 0.7726576 0.5783308 0.50427186 0.46109006 0.4914366 0.48438397
0.5173142 0.44620246 0.46977064 0.47143304 0.10809945 -0.50946856 -2.5304587 -3.0252173
0.6962345 0.120757304 -1.1989717 -0.70285183 -0.21737365 1.7882279 1.6896087 0.8266322
-0.23840556 -0.6077179 0.21130005 0.54299515 -2.9419882 -3.3065436 -0.8237247 0.49288964
0.583323 0.5022643 0.4869362 0.52443063 0.4492206 0.47973827 0.43778235 0.19052064
-0.45715928 -1.7147919 -2.6762807 -0.4605853 0.95699847 -0.678697 -1.6864262 -0.27380845
-0.40478194 2.1196828 2.056651 1.357553 0.77340454 -0.7013509 -0.94975764 0.9627465
0.99820805 -2.259816 -3.0073075 -0.552242 0.4525028 0.52208143 0.5070408 0.4719637
0.46105313 0.46399587 0.3505932 -0.054599766 -0.8591145 -1.5470945 -1.5011241 -0.9463009
0.35738492 -0.4096559 -0.27370483 0.77935624 0.5926711 1.3527143 2.3658266 1.3574237
1.5479453 -0.31016138 -0.48130575 0.84928703 -0.5076501 -1.2983538 -1.5323942 -1.5611688
0.20587997 0.46068305 0.45295465 0.5097199 0.44894087 0.47291744 0.25448266 0.027578013
-0.90502423 -1.9292706 -1.2662652 -0.9525144 0.3527893 0.42190045 0.15428197 0.88629377
0.6540964 1.4066334 1.5362071 0.8267737 1.1594825 -0.029949281 -0.24968931 0.3215043
-0.5913792 -1.5906613 -0.92377704 -1.3287914 -0.042737402 0.34390533 0.46651712 0.4569419
0.5015447 0.48711145 0.21475026 -0.011324984 -0.56245404 -1.7425127 -1.5723985 -1.2021433
0.21334629 0.20443235 0.44456497 0.958118 0.4778735 1.0026001 1.5979387 0.17085968
0.6099996 0.28499708 0.41794345 0.38118288 -0.8035334 -0.98746544 -1.0390117 -0.7015233
-0.33139732 0.27274173 0.46589392 0.5033209 0.47717226 0.46433637 0.17154749 -0.04788321
-0.2670343 -1.0557619 -1.2864118 -1.2111163 -0.21142966 0.24881709 0.67536414 1.432163
0.45989507 0.7135398 1.1879379 0.0016429566 0.4469383 0.5350282 0.46142945 0.21665423
-0.6378741 -0.6279915 -0.5837988 -0.42063594 -0.28128654 0.26280913 0.48703742 0.52811855
0.4980869 0.42801717 0.2021773 -0.016375685 -0.40538037 -0.1936748 -0.6259909 -1.2683625
-0.69807965 0.11742431 0.4558921 0.6478708 -0.02109649 0.79918754 1.18047 -0.028402431
-0.2806323 -0.7197112 0.78767246 -0.32695282 -0.64659315 -0.583214 -0.35658696 -0.19468111
-0.05844175 0.1629947 0.5172047 0.52907354 0.51028556 0.3330528 0.20888393 -0.067947514

bias f4 [200]
00000000: 5bcf 72bf 6c98 163f 42fc 1ebd d187 f13e
00000010: 21ae 1fbf ea87 d53e 3224 5b3f 127a e7bd
00000020: 0fd4 983e 3e43 bd3e a175 093f 8963 763f
00000030: ae74 82bf ffbe 493e e53c 83bf c604 9ebd
00000040: 43ba 0ebe 3c6d b33e affb 263f 8437 a53e
00000050: 4f44 b03d eca7 b9be a15d 143f 30b9 353f
00000060: f435 87bf e92a 76bf 380e 903f 9d86 323f
00000070: 55ac 19bd c568 1ebf d63b e2be 06e9 453d
00000080: 16a9 7dbe e2ef 473f bdca d83e 3817 163e
00000090: 663b b53e f0ae 063f c4e8 41bf 4b5d 96be
000000a0: 08d5 12be 2f6c 7dbf 21d0 0d3f f095 a3be
000000b0: 41ed 443e 4cb6 223f 53a4 0b3f e179 60bf
000000c0: 2935 93bd 4113 89bf 7eb6 dfbe 00e7 3a3f
000000d0: 69ac 5b3f a61f 933e 7b0e 983e 543e 80be
000000e0: 01dc 76bf 550f d5be 2b4b 77bf 1eb4 923f
000000f0: 279e 5a3f aa1a 2cbe 80f6 fe3e 9c8d a6bd
00000100: 767b 45bd 33d0 813e 51a9 253e 3163 c23e
00000110: d9d7 7bbf dbab 2cbf d886 37bf c7b6 053f
00000120: 05c1 d33e 8f82 2d3f 8efa 0f3f 4511 8a3f
00000130: 8e30 bb3e 5a62 983d 29b1 65bf 66a1 373f
00000140: fb09 893f c3c5 173f 8da7 6fbf 95ea 3abf
00000150: 668b 82bf afc6 493f 6338 52be 4de4 6cbf
00000160: 0668 2b3e 2333 95be 3578 363e 13ef 663f
00000170: e37d 263f 727a bdbd 9ea2 003f 9592 6ebf
00000180: 02a1 593f 8645 683f aa91 8bbe ba5c 1a3f
00000190: adc7 1f3f 4520 2ebf 7446 23bf 0946 e0be
000001a0: cbd2 333e 3712 043f 8bd3 21bf 16a3 a93e
000001b0: be22 823f 80f7 84bf 7ed9 a0be a4a4 853f
000001c0: 4be9 69bd 218f f83e 0868 983d 9894 82be
000001d0: 0042 14bf 5a24 353f a999 a43e a509 59bf
000001e0: 1080 6dbf 6b72 56be d429 89bf f069 813f
000001f0: 03b5 2c3e aa44 333f 3f2b 913f 494b 08bf
00000200: f7d7 f63e d508 85bf 595a 3dbf b63a b5be
00000210: bc76 f6be ca68 6dbe 75e7 8dbf bc2a 643f
00000220: 4ec3 89bf 2321 223e 7955 1ebf e25d 87bf
00000230: 3343 d13d 124c 7dbf 1d07 fc3d d3c4 093e
00000240: 6be9 803f 994f 103e 81d9 733f dc33 883f
00000250: 9dde e33e fcdd 183d d147 803f 874a 263e
00000260: 8ad2 023d 6a6d 353e 24cc 5e3f e9b4 353f
00000270: 71a3 84be a5b0 23be 2c08 39bf 9d66 423f
00000280: 5efa ce3d 2894 1cbf 2448 8b3f edd8 063e
00000290: b9a8 763f b46b 7bbf 922b c7be 6ebb cd3e
000002a0: e124 aabd 34bd 863e 4df6 3dbf 0ac0 3ebf
000002b0: 6d0e 933d ad30 67bf 2b3f 743f b811 c7be
000002c0: 1638 593f 272e 30bf 8f50 533f 8cf3 913e
000002d0: d906 f4be 5e86 963f 98a0 753f 1bd6 71bf
000002e0: 6cc9 903e 3652 d63d 0fe2 143e 02b0 e13e
000002f0: da9e 2e3e 1a6e 703f bf2b 823f e433 eebd
00000300: 3df0 32bf 8977 6b3f 0f93 6a3f f852 4d3f
00000310: d656 82bf 228f 5ebf d402 113f 9e96 36bf
-0.9484765 0.5882633 -0.03881479 0.47173932 -0.62375075 0.41705257 0.85602105 -0.1130258
0.29849288 0.36965364 0.5369511 0.9624563 -1.0191858 0.19701765 -1.0252959 -0.07715754
-0.1393824 0.35044277 0.6522779 0.32268918 0.08606779 -0.36260927 0.57955366 0.709857
-1.056334 -0.96159226 1.1254339 0.69736654 -0.037517864 -0.61878616 -0.44186276 0.04831793
-0.24771532 0.7810041 0.42342177 0.14657295 0.3539688 0.52610683 -0.757458 -0.29368052
-0.14339077 -0.989932 0.55395705 -0.3195033 0.1923113 0.6355941 0.54547614 -0.8768597
-0.07187874 -1.0709001 -0.43693918 0.7300873 0.8580995 0.28735083 0.29698548 -0.25047553
-0.9642945 -0.4161326 -0.9659907 1.1461217 0.8539757 -0.16807047 0.4979744 -0.081324786
-0.048213445 0.25354156 0.1617787 0.37966302 -0.9837623 -0.6744973 -0.7169013 0.5223202
0.413582 0.6777734 0.5624169 1.078652 0.36560482 0.07440634 -0.8972345 0.7173065
1.0706171 0.59286135 -0.9361504 -0.73014194 -1.0198791 0.7881879 -0.20529322 -0.9253586
0.167389 -0.29140577 0.17819293 0.9020855 0.6503584 -0.0925187 0.50248134 -0.93192416
0.85011303 0.90731084 -0.2725957 0.6029774 0.62414056 -0.6801799 -0.6377938 -0.43803433
0.1756088 0.51590294 -0.63213414 0.33132237 1.0166852 -1.0388031 -0.31415933 1.0440869
-0.05710725 0.485467 0.074417174 -0.25503993 -0.5791321 0.70758593 0.32148483 -0.8478034
-0.9277353 -0.20942084 -1.071589 1.0110455 0.16865925 0.7002665 1.1341323 -0.53239876
0.48211643 -1.039332 -0.73965985 -0.35396355 -0.48137462 -0.23184505 -1.108626 0.8912771
-1.0762727 0.15832953 -0.6184917 -1.0575526 0.10217895 -0.989442 0.12306044 0.13453989
1.0071234 0.14092864 0.9525376 1.0640826 0.44505778 0.037321076 1.0021917 0.16239367
0.031939067 0.1771752 0.87030244 0.7097917 -0.25905946 -0.15985353 -0.72278094 0.75937825
0.101063475 -0.6116357 1.088139 0.13168688 0.963512 -0.98211217 -0.3890043 0.4018206
-0.08307815 0.26316226 -0.7420395 -0.7451178 0.07180486 -0.9030865 0.95408887 -0.38880706
0.84851205 -0.6882042 0.825448 0.28506124 -0.47661474 1.1759756 0.9594817 -0.94467324
0.28278673 0.10464899 0.1453936 0.44079596 0.17052785 0.93918 1.01696 -0.11630991
-0.69897825 0.9197927 0.91630644 0.80204725 -1.018275 -0.86937153 0.5664494 -0.71323574

weight f4 [4, 200]
00000000: c59c 28bf 62d8 28be 0d34 38be e5c7 39bd
00000010: c005 2abe b2e8 dbbc 30a8 e83c 0c4e 96be
00000020: e06e cabd fec2 2d3d bbde f2bd acb6 403f
00000030: b2e3 b7bf 32e4 8abd 7eb4 2fbf e85f 55bc
00000040: 9a9e 1bbe 8774 ebbb 2133 323e 0c19 bdbd
00000050: 11dc 36be 7889 5abe 7ce9 65bc 7e81 0a3e
00000060: 3f01 04bf 0839 29bf 2dc6 433f 5755 4c3e
00000070: bb80 56bd 004e eebc 3741 00bf 7667 d5bc
00000080: 16cf babd 549a 7fbd d0bc 123e 585f c23e
00000090: e0b9 103e 098b 2f3f 13a0 90bf 8297 c23d
000000a0: 6f63 13be f232 b6bf c019 4cbe 1b5d 83be
000000b0: 3a88 57be edf1 293d df27 223e 6a9b b2bf
000000c0: 5ab3 0fbe b76c 26c0 255e 5ebe e0fd 0bbd
000000d0: 2e9f d73c 35ad b8be eeab 69be 722b 3fbe
000000e0: 192c 8abf 9642 bcbd 5b22 4bbf 8079 6a3f
000000f0: 1ca4 f8bd 53da d8bd be62 753c d92d 9c3e
00000100: e601 f13b 179c c1be 8fcd 93bc 029d 08be
00000110: 531b b6bf 03bf 1ebe 32c3 85be 2963 bebd
00000120: 516e d8bc 5fff 3cbc 8cf8 afbd eec0 fd3e
00000130: c68a 8fbe 105d 4bbe c8d4 0fbf 521c e6bd
00000140: c6c8 c93e e5d7 1a3f d427 1ebf dafe 0cbe
00000150: a7d5 a4be b797 d8bd d805 883c 077c 01be
00000160: 677e d9bd 8c14 5cbe 5bfa 43be dd65 163e
00000170: 0a5b 6d3d a972 15be 177e 3abd f6f6 8ebf
00000180: 14a4 803e 4327 31bd f086 eebd 9376 b3bd
00000190: 3a0c 9dbd fe87 f4bd 94d1 2dbf 9af6 8ebd
000001a0: a9e9 c4bd 3bdd fdbd 986e 8ebe 0643 26be
000001b0: 2b4e b03f 009a 3fbf e8ac bf3d dd7a bc3f
000001c0: 9ebd bdbc 763d 20be 6990 99bd a3a9 083e
000001d0: 612a b2be 3fe5 3a3d 198e 653d 74a4 f9bd
000001e0: d4df 96bf 6ebb dbbd d294 bcbf 1a0b ac3d
000001f0: 70be f8bd 3221 2bbe 9f64 0940 fc0a b3be
00000200: 8eb3 e5bd 7e02 23be 568b 32be 6cd2 ecbd
00000210: 40a5 cfbd 7e7d 333e c5c4 5ac0 ca3f a33e
00000220: 5064 07bf 4ffc 5abe 0740 7abd 3b13 9cbf
00000230: e4a9 e53e 8df2 94be 4688 953d b8c1 67be
00000240: 5cf8 113f 887a b6be fdb6 893f fb62 a83e
00000250: cfdc 43bd 66b8 a4bd a8b2 953e c20c 38be
00000260: bbf5 c7bd b162 55bd be39 9c3e 1935 0a3f
00000270: f00d f1bd 51b5 dcbd 792b 6bbe cfb6 6c3c
00000280: 1622 a2bd 1466 0ebe 6e87 bc3d f94e 2bbe
00000290: 3037 b23d 602d 9cbf c2c5 443d e04f 953d
000002a0: 444f fabd 5b83 56be b813 0abe 595a 34be
000002b0: 90f0 913e d0ca afbf d00a 133e 67bc a83c
000002c0: 31d1 89bc b6fa 9cbe 7e6a 63bb 5bcb be3d
000002d0: b087 96bb d619 5540 9f6d f83e bfda 0bbe
000002e0: d13a fabd 771c dabd 07e7 60bc 7d08 08be
000002f0: 22e5 a4bd ff7d a3bd 86ab 063f e3ca 79be
00000300: d6e2 41bd 90d6 61bc 5724 50bd 8f99 d9bc
00000310: 22ba a4be c8c4 c1be 82d9 e0bd e5cd 8dbd
00000320: fff7 1fbe 245f 0abe f738 90be 3df7 43be
00000330: a835 903d 4a7f 2fbe e76f 02be 094e c9be
00000340: c8ff acbd ff9b fdbe d8a7 86bd f391 b53e
00000350: 600b 96bf 9e1e 76bd ee10 22bf cd39 dd3d
00000360: ed06 cabe 3979 383d 2a75 9b3c 3092 e5be
00000370: 578a 94be 3a1f 99be 02d7 39be c889 9cbe
00000380: d76f e9be 1528 02bd ee00 cb3e c60a e23e
00000390: 8b8d ebbd 63bb dcbd 08ad 2d3e c172 1e3d
000003a0: a567 26be ca36 79be 22fe 423e ca96 92bf
000003b0: fb44 343e 1aa3 afbf 5df2 773f c606 42c0
000003c0: 0326 d0be f15f 093f c467 9e3f 16cd acbe
000003d0: 0d73 a4be ae3a 4e3f 59dd 4e3e 219d cd3e
000003e0: 694e 7fbe df89 333e 13bf a3be 1700 b9bd
000003f0: fc7c 0fbe 8eb7 493f d55f b3be 5bda 97be
-0.6586421 -0.16488793 -0.17988606 -0.04535665 -0.16603756 -0.026844356 0.02840051 -0.2935642
-0.09884429 0.042422287 -0.11858889 0.75278735 -1.4366362 -0.06781806 -0.68634784 -0.013023354
-0.1519722 -0.007185522 0.17402317 -0.09233293 -0.17857386 -0.21341503 -0.014032718 0.1352596
-0.515644 -0.6610265 0.7647427 0.1995443 -0.05236886 -0.029089928 -0.5009951 -0.02605031
-0.0912153 -0.06240304 0.14329839 0.37963367 0.14133406 0.68571526 -1.1298851 0.09501554
-0.143934 -1.4234297 -0.19931698 -0.2565697 -0.2104806 0.041490484 0.15835522 -1.3953679
-0.14033261 -2.6003854 -0.21715601 -0.03417766 0.02632102 -0.36069646 -0.22819492 -0.18668917
-1.0794708 -0.09192388 -0.793493 0.91591644 -0.121406764 -0.10588517 0.014977155 0.3050373
0.0073549626 -0.378144 -0.018042354 -0.13341144 -1.4227089 -0.15502553 -0.26125485 -0.09296257
-0.02641979 -0.011535495 -0.085923284 0.49561256 -0.28035563 -0.1985972 -0.56184053 -0.112358704
0.3941099 0.6048568 -0.6177952 -0.13769093 -0.32194254 -0.10575812 0.016604349 -0.12644969
-0.106198125 -0.21492213 -0.19138472 0.14687295 0.05794815 -0.1459452 -0.045530405 -1.1169116
0.25125182 -0.043250334 -0.11646831 -0.087628506 -0.07668348 -0.11940001 -0.67897916 -0.06980629
-0.0961488 -0.12395712 -0.2781875 -0.16236505 1.3773855 -0.7484436 0.09359151 1.4724995
-0.023161706 -0.15648445 -0.07498247 0.13345961 -0.34797958 0.045628782 0.056043718 -0.1218957
-1.1787057 -0.10729109 -1.4732916 0.08400555 -0.12145698 -0.16711882 2.1467664 -0.34969318
-0.11215888 -0.1591892 -0.17435965 -0.11563572 -0.10138941 0.1752834 -3.4182599 0.31884605
-0.5288744 -0.2138531 -0.061096217 -1.2193369 0.4485618 -0.29091302 0.07301383 -0.22632492
0.5701959 -0.3564036 1.0758969 0.32888016 -0.047818 -0.08042984 0.29237866 -0.17973617
-0.09763666 -0.052096073 0.30512804 0.5398727 -0.117702365 -0.10776771 -0.22965802 0.014447882
-0.079166576 -0.13906127 0.09205519 -0.16729344 0.087019324 -1.2201347 0.04804016 0.072906256
-0.1222215 -0.20948546 -0.13484085 -0.1761259 0.28503847 -1.3733768 0.14359593 0.02059765
-0.016823383 -0.30660027 -0.0034700925 0.09316131 -0.004593812 3.329702 0.48521134 -0.13657664
-0.122182496 -0.106499605 -0.013726956 -0.13284488 -0.08051516 -0.07983016 0.52605474 -0.24393801
-0.04733547 -0.013784066 -0.050815906 -0.02656248 -0.32173258 -0.37845445 -0.10978986 -0.06924037
-0.15621947 -0.13512856 -0.2816846 -0.19137283 0.07041484 -0.171384 -0.12738 -0.3931735
-0.08447224 -0.49533078 -0.065749824 0.35462913 -1.1722221 -0.060087793 -0.6330708 0.1080204
-0.3945841 0.045037482 0.018976767 -0.44838095 -0.29011795 -0.29906636 -0.18148425 -0.3057387
-0.4559314 -0.031776506 0.39649147 0.44148844 -0.115016066 -0.10777929 0.16960537 0.038683657
-0.16250475 -0.24337307 0.19042256 -1.1452267 0.17604439 -1.372165 0.9685419 -3.0316634
-0.40654 0.5366202 1.2375417 -0.33750218 -0.32119027 0.8055829 0.20201625 0.40158942
-0.24932255 0.17533062 -0.31981716 -0.0903322 -0.14012522 0.7879571 -0.35034052 -0.2965878

bias f4 [4]
00000000: 7352 893f 04b1 50be 0ee7 24bf 3743 5fbf
1.0728287 -0.20380026 -0.6441506 -0.87211937
