mutiltask_ann/log/data_cell3_ete_03151128/MNIST_90760.pt (torch, 638175 bytes, 4 tensors)

weight f4 [200, 784]
00000000: 785e bebd 0f27 46bd fb17 9ebd 3378 7bbd
00000010: 9bdf 43bd 6cf3 81bd 1cdf 82bd adbd 31bd
00000020: e9da 63bd 625d c5bd 4c9c 73bd d8e0 d2bd
00000030: 8691 d3bd a7b8 6cbd 1078 d3bd a30d 22bd
00000040: d11e 4dbd 7e60 b6bd 6c7f c9bd 0371 7fbd
00000050: 7228 d9bd 2a7b 38bd 0fa4 41bd d089 1abd
00000060: e820 d4bd e7e3 62bd 660a 7dbd a106 92bd
00000070: a04e d0bd 9e65 7cbd d5e6 7ebd 4296 77bd
00000080: 7cde c5bd 08d0 a6bd 43bf 93bd f160 01be
00000090: e9a7 ebbd dba8 f4bd 5edd dfbd 5a39 c1bd
000000a0: 85e9 10be b377 77bd cb94 ebbc e769 dfbd
000000b0: 55b4 92bd a348 ddbd b20e 97bd e1f5 e3bd
000000c0: 191c afbd a946 27bd 2323 9cbd 92ec c1bd
000000d0: 64d6 d7bd d99e a2bd ef3b 7cbd e639 b6bd
000000e0: 1c91 bfbd 8f74 7abd 716e 82bd 2862 7ebd
000000f0: 1fdc b7bd f4c4 adbd fab4 bebd 4dde 32bd
00000100: 6e3d 0bbe edd6 2bbe 7928 76be c1f2 d1bc
00000110: 99a1 f6bd fabc 11be 67e7 0fbd b452 e8bd
00000120: b871 28be 59fd 293d 2937 a23c 9b4a 35be
00000130: f5fc bdbd 64fa bbbd a7c5 28bd 8d9b a3bd
00000140: 675e 1fbd 1b1a d5bd a1ee 39bd 6a7b 9abd
00000150: b1a8 a0bd aa31 90bd 7684 b0bd c02c c5bd
00000160: 37b2 b5bd 1517 95bd a728 ffbd 3955 e0bd
00000170: eb27 12be 5161 3cbe 0a43 19be 840c c6bd
00000180: d105 d1bc bf80 053e 3d04 5ebd 92df 12be
00000190: 9d2a 41bd 0184 e8bb bd35 5fbe 5e73 bcbe
000001a0: 3d03 4ebe c7da 83be 28e8 a3be bf2a dabe
000001b0: 9a7d 79be f770 bcbd 41bf 3dbd 7ed9 73bd
000001c0: aa65 c8bd 3cf6 aebd ff80 cebd fb18 1cbd
000001d0: 29d2 73bd 0427 09be 42b3 c0bd 677b 98bc
000001e0: cb04 2a3d 3db8 053e a091 5d3e 975a 223e
000001f0: 3b2c 7f3e 9988 0d3f dac3 b53e 845d 973e
00000200: 114c 543e cf1e bb3d f359 b83d 8d4c f4bd
00000210: 86c8 61be 6611 85be 8958 04bf 8f4c 12bf
00000220: 5018 38be 6318 03bc 9a60 233d fb6b 92bd
00000230: b117 9cbd d7d7 99bd fe07 c5bd ce0a cdbd
00000240: 094f 62bd 46a4 1ebd e801 463d 7118 0b3d
00000250: 14b2 eabb 83bc 293e 5d06 a03d fd91 873e
00000260: 0fa4 a33e 868c bc3e b593 7e3e 3659 8c3e
00000270: 848b a03e aa45 753e f6f1 e03d fba7 4a3c
00000280: 530a 173e 0ccd f6bd e568 93be 0d4b e9be
00000290: ce34 9bbd 5cf2 493e 5721 76bc 433c 9ebd
000002a0: 35dd 23bd 5f9a a6bd 53a1 9ebd 5a97 8dbd
000002b0: ecff 9b3b c825 b73d c421 373e c033 7f3d
000002c0: 25f3 443e d96f 453e e1e4 663e d3d1 a33e
000002d0: 12da b13e 86d5 7e3e 9732 1c3e 1280 773e
000002e0: 6cf8 953e 3193 3e3e 8d01 8d3c fd17 6f3d
000002f0: c215 a83d 95c6 5d3d 4d6f 473d 7d59 21be
00000300: c6a7 2d3d fd16 5e3e e237 bebd 07b3 5cbd
00000310: e08a 24bd 900c d3bd b655 173d c179 e93c
00000320: edcb 703e d26a 923e 7274 d73e 84a9 7b3e
00000330: a8f4 a33e d687 4f3e b16b 713e 4ef9 283e
00000340: c3c2 643e c116 533e 26a8 173e 4ece a93d
00000350: ac0c 0d3d eecf c23c 64b0 093e 181a 373e
00000360: 45c6 103e 00b7 2a3e 98f2 bc3e 06cc 193e
00000370: e18e bbbc d441 01bd ce1c 0cbe 2608 f4bb
00000380: d33c 2cbd fb6f 98bd 987a 003d 8fbe 3c3e
00000390: c2f4 f43e fd21 183f 00b6 013f 2bd9 d83e
000003a0: 2608 083f b7a1 d53e f28c d33e 2c6d a33e
000003b0: 23ae b83e 8dc6 8a3e 3fd9 3b3e 38da 103e
000003c0: 52e5 713b 2c2b 753e 1c9e c23e cd1e c63e
000003d0: ac58 bc3e e190 f33e be3c ec3e ae35 b83e
000003e0: f03d 643d b817 a23d 0811 8eba 7cd0 afbc
000003f0: 6ba1 12bd e770 bebd 0776 a43d 79a5 963e
-0.09295362 -0.048377093 -0.07719418 -0.061393928 -0.04782067 -0.06345257 -0.06390211 -0.04339378
-0.05562869 -0.09636952 -0.05947523 -0.10296792 -0.10330491 -0.057793286 -0.103256345 -0.039563786
-0.050078217 -0.08905123 -0.09838757 -0.062363636 -0.106034175 -0.045039333 -0.0472756 -0.037729084
-0.10357839 -0.055393126 -0.061777495 -0.071301706 -0.101712465 -0.061620347 -0.062231857 -0.06044603
-0.09661576 -0.081451476 -0.07214215 -0.12634636 -0.11506636 -0.11946269 -0.10930894 -0.09434767
-0.1415158 -0.06041689 -0.028757473 -0.10908871 -0.07163302 -0.1080487 -0.0737585 -0.11130882
-0.08550281 -0.04083887 -0.07623889 -0.0946895 -0.10538939 -0.07940454 -0.061580595 -0.08897762
-0.09353849 -0.061146315 -0.06368721 -0.062105328 -0.08977532 -0.084848315 -0.09311862 -0.043669034
-0.13597652 -0.16781206 -0.24038877 -0.02562845 -0.12042541 -0.14232245 -0.03513279 -0.11343899
-0.1644963 0.041501377 0.019801693 -0.17704241 -0.09276763 -0.091786176 -0.04120412 -0.07988653
-0.03890839 -0.1040537 -0.04539359 -0.075430706 -0.07844675 -0.07040723 -0.08619015 -0.09627676
-0.088718824 -0.07279793 -0.12458926 -0.10953755 -0.1427304 -0.18396498 -0.1496698 -0.09670356
-0.025515469 0.13037394 -0.05420326 -0.14343098 -0.04715978 -0.007095814 -0.21797843 -0.36806768
-0.20118423 -0.2575285 -0.3201306 -0.42610738 -0.2436432 -0.09201234 -0.046324972 -0.05953359
-0.09785016 -0.08543059 -0.10083198 -0.03810976 -0.059526596 -0.1339379 -0.09409191 -0.01861353
0.041508477 0.13058563 0.21637583 0.1585487 0.24919216 0.55286556 0.35500985 0.29563534
0.20732142 0.09136736 0.090015315 -0.119286634 -0.2204915 -0.25989836 -0.51697594 -0.5714807
-0.17978024 -0.00800142 0.03988705 -0.07149502 -0.07621706 -0.07511871 -0.09620665 -0.100118265
-0.055251155 -0.038730882 0.04834166 0.033958856 -0.007162342 0.16575818 0.07813714 0.26478568
0.31961104 0.3682596 0.24861033 0.27411813 0.31356442 0.23952356 0.109836504 0.012369151
0.14750032 -0.12050828 -0.28790966 -0.45565072 -0.07578431 0.19721359 -0.015022597 -0.07726338
-0.04000588 -0.08134913 -0.07745614 -0.06913634 0.004760733 0.08942753 0.17883974 0.062305212
0.19233377 0.19280948 0.22548248 0.3199602 0.34736687 0.2488614 0.15253673 0.24169949
0.29291093 0.18610837 0.017212654 0.058372486 0.08207275 0.05414446 0.04869013 -0.15756793
0.04239633 0.21688457 -0.092880026 -0.05388167 -0.040171504 -0.103051305 0.036946975 0.02850044
0.23515292 0.28597122 0.42081028 0.24576384 0.32022595 0.20266661 0.23576237 0.16501352
0.2233992 0.20614149 0.14810237 0.082913026 0.034435913 0.02378079 0.13446194 0.17881048
0.14138134 0.16671371 0.36903834 0.15019235 -0.022895278 -0.03155692 -0.13682863 -0.0074472604
-0.042050194 -0.074432336 0.031366915 0.18432067 0.47842985 0.5942686 0.50668335 0.42353186
0.53137434 0.4172494 0.4131847 0.3191923 0.36070356 0.27104607 0.18344592 0.14145744
0.0036910367 0.2394225 0.38011253 0.38695374 0.367864 0.4757147 0.46140093 0.35978454
0.05572313 0.0791468 -0.0010838816 -0.021461718 -0.03579847 -0.09298878 0.080303244 0.2942312

bias f4 [200]
00000000: 78d0 0d3d ccd7 2fbd 86b9 9b3c 9e82 d93c
00000010: 1154 0bbd 35da 8bbc aa47 1bbd 00c2 38bc
00000020: eef7 7d3c 18a0 c93c f660 893d d603 31bb
00000030: 48f5 97bc 3cc3 3f3c 3e59 c73c 1a33 e13b
00000040: 72c6 fabd f303 3abd 047c ab3c f90f 713d
00000050: a12e 9e3d 1181 07bd db6e fc3c 8cbe b4bd
00000060: fa2f 7fbd 5656 99bd 6b06 03bd 9987 1ebd
00000070: 6148 6a3d 0e8c ba3d b2f1 8e3d 1335 2a3d
00000080: d6d3 8a3a 4052 8fbd 4e9c 4e3c 7a93 e9bd
00000090: 5a40 943d 9d6c 83bd 507f 963b 203b a43c
000000a0: 07b9 a7bd 684d 59bd d085 a83d 5e53 9f3c
000000b0: ac4f b2bb 2693 f53d 1e1d a43d 1e05 2e3d
000000c0: 166a c3bc 1a34 8abd 3d18 bfbc 79bc b9bc
000000d0: 0e60 793d c4b0 463d 2d2f 713d bf8f 9cbc
000000e0: 9c14 36bd 09c8 bc3d bfe5 21bd f33f 90bd
000000f0: 1107 20bd 78a4 c4bd a277 9fbd 8b35 dc3c
00000100: 89da 013d b5e2 62bb 422b 003d 954c 90bd
00000110: 6b05 963c 1468 1abd 9b32 b4bc 5f04 003d
00000120: fb0f 603d 5e9f 15bd 885b a8bd e139 0ebd
00000130: 86bf b53d 66cf cf3b 7285 d93d ff38 bebd
00000140: e48f 8ebc af2f 10bd 2b61 b6bd 5811 91bc
00000150: 113e 193c b325 8b3d 3473 943a 5934 383b
00000160: 9fd2 46bc 9e45 0d3c 51a3 49bd 4a1c ba3d
00000170: a7ec 913d 342e 72bc 7ee9 123d ee49 d2bd
00000180: d24b d9bc 2f8a 8fbc 51d0 003d df32 d3bd
00000190: 7f58 28bd 4c6a 063d cd06 4f3c 5696 143c
000001a0: b0fa fab9 ab21 b13d ad7e d53c 4e90 a63d
000001b0: 26cd 243d 7cc3 bebd 247a 963d 846e dcbc
000001c0: dae4 2abc 3ce4 c53d 33bb 163e 25d8 90bb
000001d0: 66fb d8bc 5a7b e93a 4ce0 dfbc ba70 febb
000001e0: 382e 503d 5a3d 38bd 504c b13c 90fe 26bc
000001f0: 49d6 2a3d 0ad4 c23c ca35 893c d5c6 263d
00000200: 3c0a e3bc 1045 3c3b 6d9c 01bc ce5f 53bd
00000210: b23a be3c f390 15bc f8c3 2cbc 9fcd 86bd
00000220: 8a0e 46bd 03c2 d7bc f008 1fbc 7b3a a23d
00000230: fd7d dc3c f4c1 80bd 43c7 d13d 4bf3 243d
00000240: f5a5 babd e73e 893d edea bc3d 3757 b53d
00000250: ff44 dfbd f007 f93d cbf3 2b3d d24a e13b
00000260: dce7 ae3d 762d 01bd 516f ecbc 2868 6abd
00000270: c262 6fbd 4f89 35bd d0cc 563c b293 14bd
00000280: dd21 6bbc 0116 773c 8e7a 8dbd 61b5 97bc
00000290: cd1f cbbd 7c01 443d 33ff 7c3d 6104 ec3d
000002a0: c3b1 533d 74a2 6bbc ec6b 86bc b0e1 bb3c
000002b0: c064 f03d af33 733d 8399 70bd 9a08 e7bc
000002c0: d450 9abd f6d5 693a d19c 713d 1b35 87bc
000002d0: d6dc 64bd 7de1 d6bd 0297 673c bbcb d3bd
000002e0: 33bc 82bc 6cf4 81bc 205a c03c 3815 9a3d
000002f0: 5713 d33c 07fa d93a 5223 28bd d460 44bd
00000300: dc56 8bbd a3ec 22bd c968 8dbd 1f2d d2bd
00000310: 7cbb 1d3d 2760 4dbd eeef 173d 30af 863c
0.03462264 -0.04293041 0.019009363 0.026551541 -0.03401572 -0.017071823 -0.03791014 -0.011276722
0.015501006 0.024612471 0.06707947 -0.0027010343 -0.018549576 0.011704262 0.024334546 0.006872547
-0.12244882 -0.045413923 0.020933159 0.058853123 0.077237375 -0.03308207 0.030814579 -0.088254064
-0.062301613 -0.074871704 -0.031988543 -0.038703535 0.057197932 0.091087446 0.069796935 0.04155452
0.0010591696 -0.0699811 0.012610508 -0.11405082 0.072388366 -0.06417201 0.0045928136 0.020047724
-0.08189588 -0.053052336 0.08228648 0.019448932 -0.0054416265 0.11990957 0.08013366 0.04248535
-0.023854297 -0.06748219 -0.023326987 -0.022672879 0.06088262 0.04850842 0.05888288 -0.019111512
-0.04445325 0.09217841 -0.039525744 -0.07043447 -0.03906924 -0.096016824 -0.0778649 0.026881
0.031702552 -0.0034619991 0.031291254 -0.07045857 0.01831313 -0.037696913 -0.021996787 0.03125417
0.05470274 -0.036528938 -0.08220583 -0.034723166 0.08874421 0.0063418625 0.10621156 -0.09288215
-0.017402597 -0.035201725 -0.08905252 -0.017708465 0.009353177 0.067943 0.0011325837 0.0028107374
-0.012135177 0.008622555 -0.049228016 0.09087427 0.07125216 -0.0147815235 0.035867207 -0.10268007
-0.026525412 -0.017521946 0.031448666 -0.10312437 -0.04110002 0.032816216 0.012635899 0.009069046
-0.00047870493 0.08649 0.02606138 0.08132993 0.040234707 -0.093146294 0.07347515 -0.026908167
-0.010430539 0.09662673 0.14719848 -0.0044202977 -0.026487064 0.0017813251 -0.027328633 -0.007764903
0.050825328 -0.044980384 0.021642834 -0.010192528 0.041708264 0.023782749 0.016749281 0.040716965
-0.027714841 0.0028727688 -0.00791083 -0.05160504 0.023221347 -0.009128797 -0.0105447695 -0.06582188
-0.04835371 -0.02633763 -0.009706721 0.079213105 0.026915545 -0.062869936 0.10243084 0.040271085
-0.09113685 0.06701451 0.09224496 0.088545255 -0.10901832 0.12159717 0.041980546 0.0068753744
0.085403174 -0.031537496 -0.028861674 -0.057228237 -0.058443792 -0.0443204 0.013110355 -0.036273666
-0.014351335 0.01508093 -0.06908141 -0.018519105 -0.09918175 0.047852978 0.061766814 0.11524273
0.0516832 -0.014381994 -0.016408883 0.022934765 0.117379665 0.05937546 -0.05874015 -0.028202344
-0.07534948 0.00089201273 0.058987442 -0.016504815 -0.055874668 -0.10492227 0.014135124 -0.10341593
-0.015958881 -0.01586362 0.023480475 0.075235784 0.025766058 0.00166303 -0.04104931 -0.047943905
-0.068036765 -0.039776456 -0.06904752 -0.102625124 0.038508877 -0.050140526 0.03709405 0.016440958

weight f4 [10, 200]
00000000: a764 49bb 9f35 fc3e 0a26 ed3e 34b4 a13e
00000010: 194a 0abf d1a6 a63e 3e9d 93be 66cb 3cbe
00000020: c450 033f 7747 01bd 478b 033f f2b0 97be
00000030: 6389 a3bd c421 f13e 64d8 1c3d 3acf 4f3d
00000040: 3916 963e 638c 5f3d e243 113d a02c ddbe
00000050: 630c 353e 31bd 8dbe 41a8 d23e 6d03 c8be
00000060: 87e7 1cbd 1a60 943e dc5d 97be d79f 95be
00000070: c09f adbe 5d5c 063f 4e9a ec3e 3656 59be
00000080: b1e5 bebe d72c 4bbe ff58 ef3e ca85 003d
00000090: 6fdd bdbd 81d5 b5bd a08d 99bd b03e a13c
000000a0: 7dc6 b8be de48 febe 1458 083f 556a 18be
000000b0: ea26 043e 75ff b03e e7c3 783e e8b0 f53e
000000c0: cdec b53d 8130 ccbd 8ad6 11be 1dd4 2cbf
000000d0: 3261 31bd 7f42 b93e dc2f bbbe 131d 863e
000000e0: d5c6 0d3f 0d94 063f e9a0 2f3e 6cfe a2be
000000f0: 846e b7bd 4862 52bd f251 4b3e 51e6 853e
00000100: 9f8c 5c3e 7761 b0be 5149 57be 9d32 c5be
00000110: 16d1 693d 7587 9cbe 96ca bf3e bc65 dfbb
00000120: 4a2c fd3e 7518 133f 55b4 053f 8c3e 003e
00000130: 61cb ee3e e4fe 713e 795e a23e 5d38 8e3e
00000140: 9edf 5ebe c2fc 1ebf 2638 8f3e 4afa 833d
00000150: 6e42 c9bd 02ab 04bf 0e94 38be 859d b53e
00000160: 9b6b a13e b0b1 c03e b0dd 86bd dcc6 66be
00000170: 29ab 15be 5d0d dc3e 1179 b2be acad 13be
00000180: b4c1 62be 5de4 89be 8fb3 a8be 08a8 633e
00000190: a629 a2bd 8e02 0bbf 5706 43bf 6828 243f
000001a0: 7a92 063d 9c84 21be 8c2e 933d c393 ffbd
000001b0: 2304 ff3e 9b5e fdbe 7541 c6be 9e25 adbe
000001c0: 568a 9bbe 1d16 bd3e ee36 00bd 92e0 843e
000001d0: 9fdb 283f 70dd 60be c5d9 9c3e 6e9b 2fbe
000001e0: 3673 f43e f6b0 4fbe a933 b93e 8450 babd
000001f0: 6b37 743e 566f 903d 44d8 9fbe 1413 dd3c
00000200: c2c4 f33e 6031 26bd 126c 233f b608 ad3e
00000210: e0bc 663d fead bebe 19c2 9a3d c635 fcbe
00000220: 2939 84bd 919e 8cbd 92c9 75be d8bc acbe
00000230: 7156 01bd 27e0 63be 0adc cdbe 8a4c b3bd
00000240: bffb ccbe 346b aabe f32e 74be 1f98 03bf
00000250: 123a b73e 9403 35be e9eb 1fbf 57ef 743e
00000260: 664e 39be 76c1 14be 49ae 033f 9eee 93bb
00000270: 8f29 ad3d 7e54 d1be 0fed 07bf f528 cebe
00000280: da76 27bf 3fea b53e eaeb a53e 999b 3f3e
00000290: 6879 fcbd acca e03e feaa e83e d86e 313e
000002a0: a1f2 533e 42b0 8c3e ea94 153e b214 c9be
000002b0: 7e94 343d 2a0a 91be ba7e df3c d831 c8bc
000002c0: 5007 763e c6c4 883e 17c8 323e 31c2 b63e
000002d0: 29d0 07bf 6acf 383e 19f1 a4bc ede0 cabd
000002e0: 6046 c6bd 8b43 9bbe 16ed 91be 47e5 833e
000002f0: 9142 603e 899a b33e d3ad 6f3e bb70 bdbd
00000300: d61a 55be 1fbd 023f 2c81 1b3f c1f3 6bbd
00000310: d00d c7be 7b7a 10bd 5ee7 3ebe 8e18 bdbe
00000320: a53d b9bd beef d1be cb09 9a3d 9f88 bcbd
00000330: 6f20 a63e a0ea bdbe bbbd 24be f160 833e
00000340: 548f 87be 3371 f23e 75d6 a2be b12e 293e
00000350: 7fd1 55bc 6d9b 55be af50 093e 7789 833c
00000360: 7504 1cbe cbd2 813e e27b 943d 441c c23e
00000370: a64f 98bd 6fe0 f2be dab2 d7be 3f48 d03e
00000380: d534 71be 4018 0f3e 0f50 753e 374b 8fbd
00000390: adc1 3ebe a6cb cebe 4e24 52be 6c67 4e3e
000003a0: c634 02bf 1bb2 3f3e 4760 22be ff28 613e
000003b0: ea9f 30be 11a7 52bd 4722 f1be 4a52 2d3f
000003c0: 3bc6 163e 52a4 b33e 4b71 b1bd 87ee 81be
000003d0: 93b0 903e cbeb c4be 71b2 1bbe f8fd 40be
000003e0: 9808 f1be 6dd8 de3b b893 11be a196 7d3e
000003f0: a64b 3abe cb7f dcbe a8ee df3e 12a5 05be
-0.003073016 0.4925966 0.46318084 0.31582797 -0.54019314 0.32549146 -0.28830904 -0.18436965
0.51295114 -0.031562295 0.51384395 -0.29627186 -0.07985189 0.47096074 0.038292304 0.050734736
0.2931383 0.054577243 0.03546513 -0.4319811 0.17680506 -0.27683404 0.41143993 -0.39065114
-0.03830674 0.2897957 -0.29563797 -0.2922351 -0.33910942 0.52484685 0.46211475 -0.21224293
-0.37284616 -0.19841324 0.46747586 0.03137759 -0.09270751 -0.08878613 -0.07497716 0.019683212
-0.36088935 -0.49664968 0.53259397 -0.14884312 0.1290547 0.34569898 0.24293481 0.4798653
0.08883057 -0.09970189 -0.14241996 -0.6751116 -0.043305583 0.36183545 -0.3655995 0.26194057
0.5538152 0.5256966 0.17151226 -0.31834733 -0.08956626 -0.05136326 0.19855478 0.2615228
0.21538018 -0.3444936 -0.21024062 -0.38515177 0.057084166 -0.30572096 0.37459248 -0.0068175476
0.49447852 0.57459193 0.5222829 0.1252386 0.4663954 0.2363239 0.31712702 0.27777377
-0.2176499 -0.6210443 0.27972525 0.06444223 -0.098271236 -0.5182344 -0.18025228 0.3547174
0.3152741 0.37635565 -0.06585252 -0.22536796 -0.14616074 0.42978945 -0.3485799 -0.1442172
-0.22144204 -0.2693204 -0.32949492 0.22232068 -0.079181 -0.54300773 -0.7618155 0.64124155
0.032854535 -0.15773243 0.071866125 -0.12479355 0.49807844 -0.4948624 -0.38721815 -0.33817762
-0.3037898 0.36930934 -0.031302385 0.25952584 0.65960115 -0.21959472 0.30634895 -0.17149135
0.4774415 -0.20282349 0.36172226 -0.090973884 0.23849265 0.07052486 -0.31219685 0.026986636
0.47611052 -0.04057443 0.6383678 0.33795708 0.05633247 -0.3724212 0.075565524 -0.49259776
-0.06456215 -0.06866182 -0.24002674 -0.33737826 -0.031576578 -0.22253476 -0.4020694 -0.08754833
-0.40035817 -0.33284914 -0.23846035 -0.51403993 0.35786492 -0.17677146 -0.62469345 0.23919426
-0.18096313 -0.14526924 0.51437813 -0.0045145294 0.08455192 -0.40884775 -0.530961 -0.40265623
-0.6541573 0.35530278 0.3240655 0.187117 -0.12327844 0.43904626 0.45442957 0.1732744
0.20698024 0.27478224 0.14607587 -0.39273602 0.044086926 -0.28328067 0.027282108 -0.02443783
0.24026227 0.26712626 0.1745914 0.3569503 -0.53052 0.18047872 -0.020134496 -0.099061824
-0.09681392 -0.3032497 -0.28501195 0.25760862 0.21900393 0.35078838 0.23406152 -0.09250017
-0.20811018 0.51069826 0.60743976 -0.05760551 -0.38877726 -0.035273056 -0.18642947 -0.36932796
-0.09044961 -0.4100322 0.07521399 -0.09205746 0.3244662 -0.37093067 -0.16088001 0.25659898
-0.26476538 0.4735199 -0.31804243 0.16521718 -0.013050436 -0.20860071 0.13409685 0.01605676
-0.15236075 0.25356135 0.07250191 0.3791219 -0.07437067 -0.47436854 -0.4212864 0.4068012
-0.2355531 0.13974094 0.23956321 -0.06996768 -0.18628569 -0.40389746 -0.20521662 0.2015664
-0.50861776 0.18720286 -0.1585704 0.21988295 -0.17248502 -0.05142886 -0.47096464 0.6770369
0.14724056 0.35086304 -0.08664187 -0.25377294 0.28259715 -0.38461146 -0.15204789 -0.18846881
-0.4707687 0.0068007023 -0.14216506 0.24764492 -0.1819292 -0.43066248 0.43736768 -0.1305125

bias f4 [10]
00000000: 31b1 8fbe 8475 5fbe 6db0 f23c 6f92 363d
00000010: 10a9 92bd 9f47 483e 3554 d63c f2d1 4abc
00000020: c53b 633e 096e db3d
-0.28064874 -0.21822172 0.029625142 0.044573244 -0.07161152 0.19558571 0.0261632 -0.012379156
0.22190769 0.10714347
