mutiltask_ann/log/data_cell3_ete_03151128/MNIST_92710.pt (torch, 638175 bytes, 4 tensors)

weight f4 [200, 784]
00000000: e98c 68bf 9523 5dbf 2984 64bf ad78 60bf
00000010: 23ff 5cbf 97ff 60bf 0b1d 61bf 07dd 5bbf
00000020: cffe 5ebf af6c 69bf ebfa 5fbf 0f1d 6bbf
00000030: 6c16 6bbf 1bcd 5ebf 9ba0 6abf 0ddc 5abf
00000040: 2393 5dbf 238d 67bf f1f0 69bf 3bb8 60bf
00000050: 09e6 6bbf dd48 5cbf 6bdb 5cbf d969 5abf
00000060: 1745 6bbf 61ef 5ebf d191 60bf 0102 63bf
00000070: d1ca 6abf 8187 60bf 99af 60bf 8f3a 60bf
00000080: cf78 69bf e395 65bf 96a3 7bbf 6229 92bf
00000090: de50 d3bf a52a b1bf 8927 bebf 1aa7 b1bf
000000a0: f0f9 fcbf c54b acbf 5ec2 aebf 4f7a afbf
000000b0: 764a 5abf d454 a3bf 2ddb 7bbf b2cb b8bf
000000c0: 1731 b1bf f106 8cbf 39b2 bcbf e7d6 b1bf
000000d0: c3bb 6bbf fb14 65bf e784 60bf 5988 67bf
000000e0: 43b3 68bf 6f68 60bf 3957 61bf 378f 56bf
000000f0: 6865 64bf 6c8e 66bf 29ee 95bf 212a c1bf
00000100: e258 efbf 0b02 91bf 2c7d 0dc0 aa7e 19c0
00000110: afe3 ccbf e293 31c0 3c97 fcbf 9f6f 51bf
00000120: ae7a 0cbe 8dca 2fbf 50e6 8ebf 4fa7 1cc0
00000130: 4f49 a6bf 9b57 b5bf 6831 f6bf 1dfe ebbf
00000140: 3281 8fbe 5f20 40be 1360 5cbf 9710 64bf
00000150: 3bd6 64bf 5fc7 62bf 91bc 54bf 8f25 4abf
00000160: 7c9e 65bf c846 55bf 0de5 abbf 7972 aebf
00000170: 1308 9dbf a14f 2dbc 7303 87be ba2e 18bf
00000180: 1dec 483f 9209 1240 b304 f13f e300 e43e
00000190: 8f57 fa3f f4f6 fd3e febe 8fbe def5 babe
000001a0: ab9f e9bf 761b 8ac0 d04d 7ac0 d346 7bc0
000001b0: 2688 f3bf 9fbd 03bf e7a5 58bf c1fe 5fbf
000001c0: b3cd 69bf aba0 66bf 5d9b 2ebf 7d4d 44bf
000001d0: da17 50bf 0fa1 49bf 6b1d 85bf ebff 65bf
000001e0: e715 ee3f 0aa1 0940 9e3a e03f 3b27 2040
000001f0: 5fc8 f43f 3264 7b40 ce85 5640 8e17 5440
00000200: ee8f 0540 2f3e 0cbe c17c 1d40 ad15 bfbe
00000210: d007 cbbf 5c37 3ec0 fd3e b2c0 d4a7 90c0
00000220: a45c 2e3f 5c9c 5c3f d0a7 eebd be7e 41bf
00000230: 1d44 64bf 25fc 63bf 1e7d 60bf ecd5 f1be
00000240: 0e9f 103f 6757 c43f b1fa 9abd 3d87 843f
00000250: 5f56 cb3f 37e5 de3f e7c8 043f 8d29 7940
00000260: 8ff5 1340 aeb7 0940 bb0f 203e 4ce8 cd3f
00000270: 8ca8 a13f 0638 bf3e 258c 70bf 6216 5dc0
00000280: f68f a5bf d873 00be 17db 07c0 7f0a 4fc0
00000290: a022 9abf 2c21 3d40 cead 43be b22a 56bf
000002a0: 03ff 5abf e304 65bf 9054 6abf 8eb1 043f
000002b0: 3063 fe3f 4335 5340 3d94 d73f 0e85 3b40
000002c0: ab12 9d40 8aaa 5740 ac43 5040 5aec 0c40
000002d0: 8408 fc3f 2eb6 3440 711e 263f d4a9 c73f
000002e0: 184e 2140 a7dc b63f edaa 9abe 8aa7 5ebf
000002f0: dea0 2240 5a9b 0640 be33 213e 04a0 353e
00000300: 8ddd 0b40 39e9 5040 2ee0 20be 86b3 c1be
00000310: cf12 5bbf 0fc1 63bf 3782 fcbe 7cd8 5a3f
00000320: f925 9840 0925 9640 584b 9640 8ab6 0740
00000330: f320 9840 940e 3d40 6a37 a73f 5de5 d83f
00000340: c6e3 853f 6bdd a13f efe8 2f3f 5c42 053f
00000350: 00bf 4a40 f48a 873e 6739 ee3f c146 0740
00000360: 05e1 3240 c26b 423f 93ad 3740 3d7f fa3f
00000370: d379 3540 09ec b63f 4426 3ebf 55a0 85be
00000380: ef47 5cbf eff9 2cbf e6c5 25bf 74f1 183f
00000390: ab3f c140 186c be40 c487 9240 55f9 3440
000003a0: 5355 4240 960b 6640 d1b6 3440 91a9 5a40
000003b0: c841 6e40 37f1 3c40 36fb a23f 4133 833f
000003c0: 9e89 1740 4f11 1140 9a13 6b40 75d3 7440
000003d0: 8150 9f40 de96 7640 e357 c840 5e0e b440
000003e0: a54e cc40 01a4 4a40 d9cc 993f 52d9 f83d
000003f0: e14a 5abf 4570 54bf 4f93 9bbe 7b25 0b40
-0.9084001 -0.8638242 -0.8926416 -0.87684137 -0.8632681 -0.8789 -0.8793494 -0.85884136
-0.8710756 -0.91181463 -0.87492245 -0.91841215 -0.9183109 -0.87031716 -0.91651314 -0.8549202
-0.8655264 -0.9044973 -0.9138327 -0.87781113 -0.9214788 -0.8604868 -0.86272305 -0.8531776
-0.919023 -0.87084013 -0.877225 -0.8867493 -0.91715723 -0.8770676 -0.8776794 -0.87589353
-0.91199964 -0.89681834 -0.9829649 -1.1418879 -1.6509054 -1.3841139 -1.4855815 -1.387912
-1.9763775 -1.3460623 -1.3653066 -1.3709201 -0.8526987 -1.2760262 -0.9838131 -1.4437163
-1.3843106 -1.0939618 -1.4741889 -1.3893708 -0.92083377 -0.8948514 -0.8770279 -0.90442425
-0.9089853 -0.87659353 -0.88023716 -0.8381228 -0.89217234 -0.9006107 -1.1713306 -1.5090982
-1.8699 -1.1328748 -2.210765 -2.398356 -1.6006984 -2.774651 -1.9733653 -0.81810945
-0.13718674 -0.6866844 -1.1164036 -2.4477117 -1.2991122 -1.416736 -1.9233828 -1.8436924
-0.28028256 -0.18762349 -0.860841 -0.89087814 -0.8938939 -0.88585466 -0.8310023 -0.7896356
-0.8969495 -0.8331113 -1.3429276 -1.3628684 -1.2268089 -0.010578067 -0.2636982 -0.594463
0.7848528 2.2818341 1.8829559 0.44531927 1.9557971 0.49602473 -0.28075403 -0.36515707
-1.8251852 -4.315852 -3.9109993 -3.9261978 -1.9025924 -0.51461214 -0.84628147 -0.874981
-0.913295 -0.9008891 -0.68205816 -0.7668074 -0.81286395 -0.7876138 -1.0399603 -0.89843625
1.8600434 2.150454 1.7517889 2.5023944 1.9123648 3.9279904 3.3519168 3.3139377
2.0869098 -0.13695596 2.4607394 -0.37321225 -1.5861759 -2.9721289 -5.570189 -4.520487
0.6811011 0.86176085 -0.116531014 -0.7558402 -0.8916643 -0.8905662 -0.87690914 -0.47233522
0.564927 1.5339173 -0.07567347 1.0353771 1.5885733 1.7413701 0.5186905 3.893161
2.3118627 2.151836 0.15631 1.6086516 1.2629561 0.3734743 -0.93963844 -3.4544911
-1.2934558 -0.12544191 -2.1227472 -3.2350156 -1.2041817 2.9551497 -0.1910927 -0.836589
-0.85545367 -0.8946058 -0.9153528 0.51833427 1.987402 3.3001258 1.6842114 2.929996
4.908529 3.3697839 3.2541304 2.2019258 1.9690099 2.8236194 0.648902 1.5598702
2.5203915 1.4286088 -0.3020853 -0.86974394 2.5410686 2.103232 0.15742394 0.17736822
2.1853974 3.2642348 -0.15710518 -0.37832278 -0.85575575 -0.8896646 -0.49318096 0.8548658
4.7546353 4.692021 4.696697 2.1205163 4.754022 2.9540148 1.3063786 1.6944996
1.0460136 1.2645696 0.68714803 0.5205438 3.1679077 0.264732 1.8611268 2.1136935
2.794984 0.75945675 2.8699691 1.957008 2.8355606 1.4290782 -0.7427714 -0.26098886
-0.8604726 -0.6756887 -0.64755094 0.5974343 6.039022 5.950695 4.579073 2.827718
3.0364578 3.5944571 2.8236582 3.4165995 3.722765 2.9522226 1.2732913 1.0250016
2.3677745 2.2666814 3.6730714 3.8254063 4.978577 3.8529582 6.2607284 5.626754
6.3846 3.16626 1.201564 0.121508256 -0.85270506 -0.8298381 -0.30385825 2.1741626

bias f4 [200]
00000000: 91a2 173f 6540 04bf 1ff5 c03e 005d 273e
00000010: 0f56 04bf 47b8 20be eab6 8bbf c45d b43e
00000020: 776c bcbe ec2d 473f c55a 7a3f e902 123d
00000030: fdc3 0abf 9223 cabd e769 143e 8aba 2cbe
00000040: b5fd 11c0 3e53 82be 1b21 a53f 4aa2 7c3f
00000050: 69f7 9c3f 9502 adbe 6ec4 9d3f d2dc 6fbf
00000060: 41d0 cebf e519 bbbe ff89 cebe e98f 9fbf
00000070: 39c0 373f 4931 883f 52d1 fc3e 4960 ed3e
00000080: 7f12 f1be 0d58 1ebf 26ef e4bd fcdb 85bf
00000090: b27a 913f a9d9 2fbf c644 bbbd c6cc 61be
000000a0: 8f7f 98bf ab20 dfbe 6de7 a23f 53e0 21bc
000000b0: 09b7 edbe 48eb 973f b9fe 4e3f 7172 703f
000000c0: bda8 12bf 7874 67be efa4 b2bd 246b 343f
000000d0: da8e 463f 891e 8b3f 0617 103f 68e7 8cbe
000000e0: 5929 2ebe ab63 893f d7d7 36bf d00b d5bf
000000f0: e4a2 b73e 5da5 25bf 9cb1 f0bf 9966 843e
00000100: a1a3 483f fe0b 743e 9da0 763f 9a44 d2bf
00000110: 8eb5 5c3f 4d7f 11bf 555d 35bf 32e5 253f
00000120: 9435 143e 159b bdbe 5a4f 02bf 572b 5fbf
00000130: 2e89 b43f 59c1 71be 6ef3 d43f 2978 d9bf
00000140: beab 1e3e 1487 1fbf 9c5d a6bf f7df c83d
00000150: f520 963d 48c6 823f 915b 8dbe 9536 293f
00000160: 0af1 1cbf f10a 0a3f a5d8 01bf c806 443f
00000170: db6d 7f3f 45e2 7bbe 5629 133e b9f5 04c0
00000180: ce0b d23d 990b d4bd 7d59 1abe 5804 e1bf
00000190: 1526 03bf 8c97 0d3f f600 573f 222d 1a3f
000001a0: d407 e4bd 7d6a 3f3f f691 ee3e 6649 b03f
000001b0: f410 2c3f dccf b2bf 0179 eb3f 397d 523e
000001c0: 33d9 113e 96eb b53f 11ce 1440 cee6 aabe
000001d0: fb52 373e 5547 a33d 2237 76bd 682b 7f3e
000001e0: 73a0 013f 9da6 0f3b 076d eb3d e8dc 0dbf
000001f0: b878 523e 5ca0 e1be c61c fa3e 428a c73e
00000200: d792 c3bd 8f54 0e3e 70fd c1be e4f2 49bf
00000210: 0e57 8c3e fd58 37be f71f dcbe 40bb 8cbf
00000220: df8e 91be 8baf cabe 0edf 3bbf 2b2c 3c3f
00000230: 895f a0bc f22e 67bf 4b07 a93f c55a 843f
00000240: 39a9 67bf ff45 813f 327c 1b3f 2c4b c93f
00000250: be00 fbbf f2cc c03f 5286 fb3e a197 373f
00000260: 3aa6 7d3f 073f 03be 3a78 b1be 3923 cfbe
00000270: f370 b5bf 75ed 82bf 978f 3abe af74 5fbf
00000280: 0e6e 3fbf e8a4 973f 1a26 ccbf abd2 85bf
00000290: 11f1 aebf 266a 3e3f 2ed6 313e da25 ef3f
000002a0: e803 733e 286d d8bd 2b8a 9cbe e8e4 57be
000002b0: 5a4c cb3f b2e3 b33f 113b adbe 59a7 36bf
000002c0: c535 bfbf 77d6 36bf 6a6a 863f 901c 62be
000002d0: 0f0f 1abf c8d0 41bf cf35 5a3d ad3d abbf
000002e0: e54a 273d 472a 23be b902 933c 2a04 6b3f
000002f0: c965 ce3d 2129 30be 0f31 4cbf ec23 9abf
00000300: 5912 c2bf 5d67 78bf 63ea 41bf ea93 9cbf
00000310: 4b48 833f a07e 8abf 0c4c 053f 309f 1ebe
0.5923243 -0.5166076 0.37687013 0.1634407 -0.51693815 -0.15695296 -1.0915196 0.35227787
-0.36801502 0.77804446 0.97794753 0.035647307 -0.54205304 -0.09870066 0.14493524 -0.16868034
-2.28111 -0.25454134 1.2900728 0.98685133 1.2263004 -0.33791032 1.232557 -0.9369632
-1.6157304 -0.36543193 -0.40339658 -1.2465793 0.71777683 1.0640041 0.4937845 0.46362522
-0.47084424 -0.61853105 -0.111784264 -1.0457759 1.1365569 -0.686915 -0.09143977 -0.22050771
-1.1913928 -0.4357961 1.2726876 -0.009880143 -0.46428707 1.1868677 0.80857426 0.93924624
-0.57288724 -0.22603023 -0.08722865 0.70475984 0.77561724 1.0868694 0.5628513 -0.275203
-0.1700796 1.0733541 -0.71423095 -1.664423 0.35866463 -0.6470545 -1.8804202 0.25859526
0.7837468 0.238327 0.96338826 -1.6427186 0.8621453 -0.5683487 -0.7084554 0.6480285
0.14473563 -0.3703238 -0.5090233 -0.87175506 1.4104364 -0.23608913 1.6636789 -1.6989795
0.15495202 -0.6231549 -1.2997317 0.09808343 0.07330505 1.0216761 -0.27608922 0.6609891
-0.61305296 0.53922945 -0.507212 0.7657285 0.99777 -0.24598034 0.14371237 -2.0774977
0.10256158 -0.103537746 -0.150732 -1.7579451 -0.51229984 0.5530937 0.8398584 0.6022512
-0.111343056 0.74771863 0.46595734 1.37724 0.6721337 -1.3969684 1.8396302 0.20555581
0.14243011 1.421252 2.3250773 -0.33379215 0.17902748 0.0797259 -0.060111172 0.24918902
0.5063545 0.0021919378 0.11495405 -0.554152 0.20553863 -0.44067657 0.48850077 0.3897267
-0.09549492 0.13899444 -0.3788867 -0.78886247 0.27410167 -0.1790504 -0.42993137 -1.0994644
-0.28429314 -0.39587054 -0.7338723 0.73504895 -0.019576805 -0.9030601 1.3205351 1.0340201
-0.9049259 1.0099486 0.6073638 1.5726066 -1.9609601 1.5062544 0.49125916 0.7171574
0.99081767 -0.12817012 -0.34662038 -0.4045656 -1.4175094 -1.0228716 -0.18218838 -0.8728742
-0.74777305 1.18472 -1.5949128 -1.0454916 -1.3667318 0.7438072 0.1736686 1.8683426
0.23731959 -0.10567695 -0.30574164 -0.21083415 1.5882676 1.4053862 -0.33834127 -0.713491
-1.4938284 -0.71421 1.0501225 -0.22081208 -0.6017923 -0.757092 0.053273972 -1.3378197
0.04084291 -0.15934096 0.017945634 0.9180323 0.10078008 -0.1720319 -0.7976236 -1.2042212
-1.5161849 -0.9703272 -0.7574827 -1.223264 1.0256437 -1.0819893 0.52069163 -0.15490413

weight f4 [10, 200]
00000000: d877 2bbf dd74 3c40 254b 4a40 b0bc dc3f
00000010: bf6e 2ac0 d7c4 8c3f 1f27 fdbd f4e8 82bf
00000020: c4e8 5740 af34 31be d255 3c40 240f f4bf
00000030: 034e 05bf 9ff9 4740 551e ce3e 2d6b ba3e
00000040: 5243 3e40 4ae9 0bbf 3653 19bf 200c 2ac0
00000050: 6d40 673f 910c 04c0 7499 c33f 864f 0ec0
00000060: 2b31 4f3e cbd1 0040 270c acbf f52a e0bf
00000070: de71 30c0 72f5 6340 6142 1f40 5e45 cbbf
00000080: 0234 19c0 63f5 d2bf 8047 9f40 6a67 31bd
00000090: e349 a2be 0b64 2fbe c7c5 41be 00ac 103f
000000a0: 7ddb bebf bb74 1dc0 e971 8940 9a85 a5bf
000000b0: e8d8 893f c2ca ce3f 990d b23f 84cc 1940
000000c0: 9776 083f 02e4 a9bf 7cbf 8bbf c0fc 17c1
000000d0: 988c 9dbf a228 6c3f 9d9c 40c0 d763 5440
000000e0: 4208 2e40 9948 5540 17bc de3f 97ca f3bf
000000f0: 5a1d a1bf 214d 2e3f f141 fd3f c887 bf3f
00000100: 90a7 633f e987 81bf dab9 49c0 2424 00c0
00000110: 0560 38bf 49ad c0bf b80b 5640 a8e3 70bc
00000120: d5c5 7740 8901 2f40 b7a6 2d40 4593 963f
00000130: 0d27 1e40 4b84 1440 8222 d23f b206 4440
00000140: 66d0 13c0 ecf2 62c0 c271 0c40 67b6 4ebe
00000150: b425 c2bf b0c4 4bc0 017d 34bf 2239 6040
00000160: 4e0e 4d40 7e90 1d40 bb7b 29be e60e eabf
00000170: 36e6 5bbf ea40 6740 b048 79c0 1bfa ac3e
00000180: 914d 4cbf 063e 70bf 584b b0bf 9427 0740
00000190: 6d1d 4b3e 90aa c5c0 9282 5ac1 b4aa b240
000001a0: e2d6 603b 3597 92bf 98a2 023f 5b83 b9bf
000001b0: 049f 1140 716c 68c0 829e 5ac0 a53d 31c0
000001c0: 2602 27c0 e940 2340 0e77 35bf e66b 5140
000001d0: 9cd5 4740 c3d3 dcbf d65e c23f 6bda 57be
000001e0: 02d0 9140 909a 74bf 8bf6 4440 9feb 9abf
000001f0: 1521 863f dfbc c83f 2bd6 68c0 fd3a 19bf
00000200: cb08 4840 4bc2 8abf 03b7 a140 0c93 6140
00000210: d15e 473f 0e92 3bc0 1500 933f b16c 34c0
00000220: 3774 3fbe 2a0c 0abe 9aac 33bf 3cf7 23c0
00000230: 2919 ab3e a76d 6fbf 2c01 8dc0 f5b9 33c0
00000240: 9ff0 17c0 f88b 48bf ceb2 0ec0 2e3d 9fc0
00000250: 9446 8440 f2c9 26c0 d6cf bac0 e5ec 0440
00000260: ef0f f0bf 3377 aebe b228 b940 f271 5a3f
00000270: a42e fc3f 7fa9 3ec0 9b6a 81c0 05a8 d9bf
00000280: 9605 8cc0 3881 1040 4263 2940 54f2 a03f
00000290: b07c e83d 68fc 0340 0f8d 3240 741a 493d
000002a0: 4162 c03f a5e9 e23f cd11 35be 5d9a 1fc0
000002b0: b185 3cbf 54fd 69c0 6e22 0ebe c03b 903f
000002c0: 045f c03f 12d7 f03f ca0c a33f 6a13 3640
000002d0: 6a3f 32c0 6409 f33f b760 f8be aa80 8a3b
000002e0: 77c7 ef3d 956f 4bc0 95eb 80bf c358 373f
000002f0: 7481 923f e8b6 9840 cf0f 2140 64eb 053f
00000300: 90a5 a2be 0a90 8440 3190 cd40 5186 433f
00000310: 06cb 43c0 24fd 94bc 480a cbbf 41c3 0ac0
00000320: fa66 4ebf 7074 58c0 364d c43a e251 2b3e
00000330: 3f23 8c40 5536 e3bf 0f15 e73e 8f44 ea3f
00000340: 184a c4bf 6a65 8e40 6a01 23c0 d56a d23f
00000350: b256 babe 6f58 e3bf 1d9e dd3f c125 d73e
00000360: f12c 34bd abba 023f 59b0 4e3d 615f 0c40
00000370: b882 eebf 08ea a4c0 3290 1cc0 e343 3d40
00000380: e609 92bf b0a9 e73f cad2 a13f e45d 0a3f
00000390: d198 c1bf 79eb 14c0 d01c 5abf 417f bf3e
000003a0: 1421 59c0 9078 1440 2a8d a1bf 7fab fb3f
000003b0: f74f b5bf e05c 3ebe 36c9 6cc0 e6a0 3341
000003c0: 4838 2b40 37ff 3140 895e cebe b2a1 dabf
000003d0: 1b9f 3740 8d69 93c0 9077 9ebf 38b4 c5bf
000003e0: 23a0 82c0 21b5 a8bf cf45 05c0 4aa2 a83f
000003f0: 0b94 45c0 9233 40c0 d7ab 1a40 04a5 1dbf
-0.6697974 2.9446328 3.1608365 1.7245083 -2.6630094 1.0997571 -0.123609774 -1.0227342
3.373582 -0.17305253 2.942738 -1.906712 -0.5207216 3.1246107 0.40257517 0.36409894
2.972859 -0.54652846 -0.59892595 -2.65699 0.9033268 -2.063267 1.5281205 -2.2236037
0.202336 2.0128047 -1.3441209 -1.751311 -2.75695 3.5618558 2.4884264 -1.5880544
-2.3937993 -1.6481136 4.977478 -0.043311514 -0.31696996 -0.17128007 -0.18923102 0.5651245
-1.4910733 -2.4602497 4.295155 -1.2931397 1.076932 1.6155627 1.39104 2.4031076
0.53305954 -1.3272707 -1.0917811 -9.499207 -1.2308531 0.922495 -3.009559 3.3185937
2.719254 3.332556 1.740115 -1.90462 -1.2587082 0.6808644 1.9785749 1.4963312
0.88927555 -1.0119601 -3.1519685 -2.0022058 -0.72021514 -1.5052882 3.3444653 -0.014702715
3.8714497 2.7344687 2.7133005 1.1763693 2.4711335 2.3205745 1.6416781 3.0629086
-2.3095946 -3.5460768 2.1944432 -0.20186768 -1.5167756 -3.1838799 -0.7050324 3.503487
3.203998 2.461944 -0.16551106 -1.8285797 -0.8589815 3.613337 -3.8950615 0.33784565
-0.79805857 -0.9384464 -1.3772993 2.1117907 0.19835444 -6.1770706 -13.6568775 5.583338
0.0034307768 -1.1452395 0.5102935 -1.4493212 2.2753305 -3.6316187 -3.4159245 -2.7693875
-2.6095061 2.5508368 -0.7088479 3.2722106 3.1224127 -1.7252125 1.5185192 -0.21079414
4.5566416 -0.95548344 3.0775478 -1.2103156 1.0478846 1.5682639 -3.6380718 -0.59855634
3.1255367 -1.0840544 5.0535903 3.5246 0.77879053 -2.9307895 1.14844 -2.819134
-0.18696676 -0.13481203 -0.70185244 -2.561965 0.33417633 -0.9352669 -4.406393 -2.808225
-2.3740613 -0.78338575 -2.2296634 -4.976218 4.1336155 -2.6060758 -5.8378706 2.076959
-1.8754863 -0.34075317 5.7862177 0.85330117 1.9701734 -2.9790952 -4.0442634 -1.70044
-4.375682 2.257887 2.6466832 1.2573953 0.11351907 2.0622807 2.7898595 0.049097493
1.5029985 1.7727553 -0.17682572 -2.4937966 -0.73641497 -3.656087 -0.13880321 1.1268234
1.5028996 1.8815634 1.2738278 2.844935 -2.7851205 1.8987241 -0.48511288 0.0042267637
0.11707967 -3.1786854 -1.0071894 0.71619815 1.1445756 4.7723274 2.5165899 0.523123
-0.3176694 4.142583 6.4238515 0.76376826 -3.0592666 -0.018187113 -1.5862513 -2.1681674
-0.8062588 -3.3821068 0.0014976624 0.16730455 4.3793025 -1.7750956 0.45133254 1.8302172
-1.5335112 4.4498796 -2.5469613 1.6438853 -0.36394268 -1.7761363 1.7313877 0.4202099
-0.043988172 0.5106608 0.050461147 2.1933215 -1.8633642 -5.1535683 -2.446301 2.9572685
-1.1409271 1.809866 1.2642453 0.54049516 -1.5124761 -2.326872 -0.85200214 0.37401775
-3.392644 2.3198586 -1.2621205 1.9661711 -1.4165028 -0.18590117 -3.699781 11.226782
2.6753101 2.781202 -0.403065 -1.7080595 2.869086 -4.6066346 -1.2380238 -1.5445623
-4.082048 -1.3180276 -2.0823858 1.3174527 -3.0871608 -3.0031476 2.4167383 -0.6157992

bias f4 [10]
00000000: dca8 74c0 05e3 25c0 2ef8 fb3e 48c8 173e
00000010: e074 a6bf 3d6e ec3f f297 c3be 9a7c b53e
00000020: a4ef 4140 d8ff 3b3f
-3.8228064 -2.5919812 0.49212784 0.14822495 -1.3004417 1.8471142 -0.38201863 0.35446626
3.0302515 0.7343726
