mutiltask_ann/log/data_cell3_ete_03151128/MNIST_92670.pt (torch, 638175 bytes, 4 tensors)

weight f4 [200, 784]
00000000: cc62 5dbf 78f9 51bf 0a5a 59bf 904e 55bf
00000010: 06d5 51bf 7ad5 55bf eef2 55bf eab2 50bf
00000020: b2d4 53bf 9042 5ebf ced0 54bf f6f2 5fbf
00000030: ca12 60bf c418 54bf ba9b 5fbf 78b3 4fbf
00000040: 0669 52bf 0463 5cbf d0c6 5ebf 1e8e 55bf
00000050: ecbb 60bf c01e 51bf 4eb1 51bf bc3f 4fbf
00000060: 001b 60bf 44c5 53bf b467 55bf dcd7 57bf
00000070: b4a0 5fbf 645d 55bf 7c85 55bf 7210 55bf
00000080: a84e 5ebf a868 5abf 1b52 70bf d474 8cbf
00000090: 40a6 cdbf 3162 abbf 54cb adbf a7b5 9dbf
000000a0: 170e f4bf c3a4 a0bf fa00 a5bf 3775 a9bf
000000b0: 9f60 56bf 40c9 9fbf 5a93 72bf 2e82 b2bf
000000c0: 225c a5bf 250a 86bf fbff adbf fc8e a0bf
000000d0: a691 60bf daea 59bf ca5a 55bf 385e 5cbf
000000e0: 2489 5dbf 523e 55bf b606 56bf 587b 4bbf
000000f0: d570 59bf c450 5bbf 1d78 90bf 4055 bbbf
00000100: 96dd ebbf d513 8ebf ef8e 0ac0 0650 18c0
00000110: 26a9 9cbf cd88 0ec0 aae6 f0bf f60a 63bf
00000120: d9d2 bcbe 2c39 41bf 5732 aabf 8949 12c0
00000130: 4b24 86bf 0231 6dbf 8be9 abbf eb27 b1bf
00000140: 86e2 25be 73ae 14be f635 51bf 78e6 58bf
00000150: 1aac 59bf 3e9d 57bf 274d 49bf d7d2 3ebf
00000160: b506 5abf d1a1 48bf cbbb b0bf a08e c5bf
00000170: 087a afbf 209c 983d 8be9 58be b1fc e4be
00000180: 3a19 2b3f 2e2d fa3f 6aa2 cd3f b272 803e
00000190: c79f d13f 650e cf3e 84d7 ff3d 9bd4 2dbd
000001a0: 6c1d 94bf 1ede 65c0 51e1 4ec0 92f5 63c0
000001b0: cd00 01c0 5638 16bf 1ccd 51bf a4d4 54bf
000001c0: 92a3 5ebf 0e70 5bbf 0ab1 23bf 50ab 38bf
000001d0: da84 45bf 8efb 0bbf 8a71 8ebf b4af 91bf
000001e0: bf6e e73f ef13 1a40 dc06 ee3f 7f70 fb3f
000001f0: a7b7 aa3f cbfa 5840 01c4 3e40 a322 5d40
00000200: 1c48 2540 b4d8 853e b769 1940 1a67 72be
00000210: c90a 5dbf be11 1ec0 fb2d bac0 78c6 a0c0
00000220: 7532 123d 87f6 293f 1473 b5bd 12a2 36bf
00000230: fe19 59bf 06d2 58bf 8e2f 55bf ce1a f3be
00000240: d943 1a3f 7c0a d73f e549 78be d441 593f
00000250: c3e7 ec3f 7d9b fc3f 32bf 833f 5de7 6840
00000260: 8aaa f83f 4e9e f73f 310c 9d3e a1bf f93f
00000270: 5ae3 e83f 31d3 5e3f bb34 02bf 94e4 2bc0
00000280: 054e a9bf 3f2d 1dbf 4f11 54c0 1050 8ec0
00000290: ee57 dbbf 6633 3240 d7b6 09be 61fc 4abf
000002a0: e6d4 4fbf c6da 59bf 8d29 5bbf 216f ee3e
000002b0: ba1a 0240 4699 5c40 c148 d53f f601 3640
000002c0: d98b 9a40 6edb 7540 d8ee 5840 f6cc 1540
000002d0: ca04 ff3f 031e 4640 4a58 6c3f 6d03 e43f
000002e0: 5077 0540 f55b a63f d451 3c3d b171 45bf
000002f0: 23f5 f43f 2b36 fb3f 9659 91be d752 17bf
00000300: d0f0 dc3f 6066 3440 66c7 0abe c2e7 aabe
00000310: 22ec 4fbf c31f 57bf e317 c8be 13e8 523f
00000320: 3fed 9340 4f2c 9840 7681 9440 a172 2c40
00000330: 7add a940 ea1e 6a40 474a a33f 3420 bc3f
00000340: 51a0 643f 0fb7 b33f d6c6 503f df7d ac3e
00000350: 7cf8 0d40 a64e 89be 7cdf be3f 35d8 d53f
00000360: ac93 3b40 93e4 a83f 7cbf 3a40 8a86 b93f
00000370: a189 0540 b9c8 843f 0fe4 2ebf 6e7c 8cbe
00000380: 0c42 50bf 1041 2bbf 7b00 12bf 9fd5 0a3f
00000390: 44b2 b340 cbbf a940 7db8 8840 1400 5540
000003a0: cd9a 5f40 14ea 5540 868d 2140 8e00 3940
000003b0: cbcf 3140 06b8 1640 53da c93f 0b6c 883f
000003c0: 82bc e43f 8ab2 f53f 44a2 5640 21d2 5c40
000003d0: 87ff 9f40 5907 8740 7a6b bd40 c455 a040
000003e0: d546 a940 2703 1840 25ee 853f 6d0e 823d
000003f0: 8dce 4ebf 8c73 48bf 4274 8abe 19a4 fd3f
-0.8647888 -0.82021284 -0.84903014 -0.83323 -0.8196567 -0.83528864 -0.83573806 -0.81523
-0.8274642 -0.86820316 -0.8313111 -0.87480104 -0.8752867 -0.8285029 -0.87346995 -0.8113322
-0.82191503 -0.86088586 -0.87022114 -0.8341998 -0.87786746 -0.81687546 -0.8191117 -0.80956626
-0.875412 -0.8272288 -0.83361363 -0.8431375 -0.8735459 -0.8334563 -0.83406806 -0.8322822
-0.8683877 -0.8531594 -0.93875283 -1.0973153 -1.606636 -1.3389341 -1.3577676 -1.2321061
-1.90668 -1.2550281 -1.2890923 -1.3238896 -0.8374118 -1.2483292 -0.9475609 -1.3945978
-1.2918742 -1.0471846 -1.3593744 -1.2543635 -0.8772224 -0.8512398 -0.8334166 -0.86081266
-0.86537385 -0.8329822 -0.8360399 -0.7948508 -0.84937793 -0.85670114 -1.1286656 -1.4635391
-1.8426998 -1.1099802 -2.164974 -2.3798842 -1.223912 -2.2270997 -1.8820393 -0.886886
-0.36879614 -0.7547786 -1.3296613 -2.2857382 -1.0479826 -0.92652905 -1.3430647 -1.3840307
-0.16199693 -0.14519672 -0.8172296 -0.8472667 -0.8502823 -0.8422431 -0.7863335 -0.74540466
-0.85166484 -0.7837191 -1.380731 -1.5434151 -1.3709116 0.074516535 -0.2118284 -0.44724038
0.6683537 1.9545038 1.606519 0.25087506 1.6376885 0.4044067 0.12492278 -0.042439085
-1.1571479 -3.591682 -3.2325022 -3.5618634 -2.0156739 -0.5867971 -0.819536 -0.83136964
-0.8696834 -0.85717857 -0.63942015 -0.721364 -0.7715584 -0.54680717 -1.1128399 -1.1381745
1.8080672 2.4074667 1.8595843 1.9643706 1.3337296 3.3903072 2.9807131 3.455239
2.5825262 0.26141894 2.3970773 -0.23672143 -0.8634458 -2.469833 -5.818113 -5.024227
0.03569265 0.66391796 -0.0885984 -0.7134105 -0.84805286 -0.8469547 -0.8327569 -0.47481388
0.6025978 1.6800075 -0.24246939 0.8486607 1.8508228 1.9734951 1.0292723 3.6391213
1.9427044 1.9345186 0.30673364 1.9511606 1.8194382 0.87041 -0.5086171 -2.6858263
-1.3226935 -0.61397165 -3.3135564 -4.4472733 -1.7136209 2.784387 -0.13448654 -0.7929135
-0.8118423 -0.85099447 -0.85610276 0.4656916 2.0328813 3.446855 1.6662828 2.8438697
4.8295712 3.841518 3.3895779 2.3406348 1.9923337 3.0955818 0.9232222 1.7813545
2.0854073 1.2996813 0.045976475 -0.77126604 1.913731 1.9625906 -0.2838866 -0.5911078
1.726099 2.8187485 -0.13552627 -0.33379942 -0.81219685 -0.8403284 -0.39080724 0.8238537
4.6227107 4.755409 4.6408033 2.6944964 5.3082857 3.6581368 1.2757043 1.4697328
0.89307123 1.404024 0.815534 0.33689782 2.2182913 -0.26817816 1.4911952 1.6706606
2.9308882 1.3194755 2.9179373 1.4494183 2.0865252 1.0373756 -0.6831674 -0.27438682
-0.8135078 -0.6689615 -0.57031983 0.5423221 5.615511 5.304662 4.2725205 3.3281298
3.4938233 3.342412 2.524263 2.8906589 2.7783077 2.354982 1.5769752 1.0657972
1.7870028 1.9195111 3.353654 3.4503253 4.9999423 4.219647 5.9193697 5.0104694
5.2898965 2.3751924 1.0463301 0.06350408 -0.8078392 -0.7830131 -0.27041823 1.9815704

bias f4 [200]
00000000: d880 083f 3dd3 08bf 8b82 9c3e 3955 a33d
00000010: 7041 eebe c5e6 a3bd 974b 63bf 1e16 3d3e
00000020: e84a aebe 82ef 1b3f 95e2 533f 4505 b23d
00000030: 9a6c c1be 5f60 1cbe 6826 093d 182a 2abe
00000040: 7bca 09c0 d524 39be f2a0 8a3f 0fda 653f
00000050: 5a86 983f 7d2f abbe 8045 993f bb3a 81bf
00000060: 53e0 c6bf a6b3 d7be c8dd 57be 4b85 8fbf
00000070: e55f 243f 4fd4 7e3f d8ed 9e3e 607d 1f3f
00000080: 36ae e4be e6f1 09bf 295c 46bd 2e71 7fbf
00000090: c5bc a03f c161 11bf eca2 1cbe 6e4b 24be
000000a0: bc02 90bf 960e a7be 6568 933f 6c4e 0e3e
000000b0: 3479 1bbf cdbf 953f fd95 2b3f a1e7 713f
000000c0: cd17 f9be 4a16 72be 8a2c 2c3d 844d 1e3f
000000d0: 2bc2 343f 52c6 673f c1bf 113f b53c d6be
000000e0: 3307 80be b9c6 7f3f d776 2abf 5c54 c5bf
000000f0: c8e1 8e3e a0c8 2ebf 50b7 e4bf 9c0f 3c3e
00000100: f737 293f 9d3d 833e 8a9d 863f 7de5 c6bf
00000110: 0425 383f 1641 12bf 9575 23bf 97fa 383f
00000120: d94b 333e ef4f a0be c316 febe 2233 71bf
00000130: c650 b83f 4d98 05be 21e7 c23f c37f c7bf
00000140: 132a e13d 8e7c 13bf bf28 aebf a2ab 9f3c
00000150: 300f 15bd e000 7f3f 7308 76be d5fc 123f
00000160: 4083 f3be 9329 083f 1bd4 d5be 4767 673f
00000170: a033 7c3f 6d5b 67be 2cd3 f43d 96d3 f2bf
00000180: b64f b13d 0195 3ebd 9f8e acbd dc3d cdbf
00000190: 87db 22bf f0f2 043f 3d91 423f afcc 163f
000001a0: 50f4 92bc 68d2 6b3f 289e c03e d51f aa3f
000001b0: 2e02 1b3f 4b18 a4bf 1918 eb3f 14ea 023e
000001c0: 5fb4 abbb ff9e b63f 86a2 0e40 5956 aebe
000001d0: 05e6 e23d 781a d13d 1919 00be ce3c 6f3e
000001e0: 8862 023f 9b07 42be cf4b fc3d bd95 eebe
000001f0: 208a bc3d f330 c2be d725 023f b48d d93e
00000200: a742 cbbc aadd 033e 03d3 a9be 3c5d 77bf
00000210: f0af bf3e 565d 45be c40f e6be b8bb 80bf
00000220: 9ce4 cdbe bcce d5be 208f 49bf 1f52 543f
00000230: 5f35 533e 0246 59bf 3497 9a3f c90d 6c3f
00000240: 17aa 4abf 2de7 803f 1c0d 203f 5646 be3f
00000250: 7d84 ecbf b9e9 c43f e87e fc3e 87f1 253f
00000260: 22e8 6b3f d014 b0bd 2b8b 90be ed87 fbbe
00000270: 4174 b1bf 094f 75bf 9837 8abd 0986 27bf
00000280: bdaa 24bf 770b 8a3f db11 cfbf b870 8fbf
00000290: 66cc 9abf bde3 3b3f d592 413c 831d d83f
000002a0: 9f74 8d3e a1b5 98be 8af7 40be 4dcb 9abe
000002b0: 984d b93f 74d9 ab3f 89fb c1be 7860 30bf
000002c0: ad1a bebf 32bb 2ebf e57f 573f 56a2 acbe
000002d0: 5082 11bf bc4b 2dbf 4063 b439 d9a2 97bf
000002e0: a6ec 25bc d8fa ccbd e553 753d f49f 6b3f
000002f0: a189 2e3e c3a2 6bbe a93e 1abf 883b 99bf
00000300: d78d a8bf 42e6 7abf 807c 56bf 1b51 95bf
00000310: 134a 6e3f f664 88bf 312b f43e e65e 97bd
0.533216 -0.53447324 0.30568346 0.07975239 -0.465343 -0.08003 -0.88787216 0.18465468
-0.34041524 0.60912335 0.8276761 0.08692411 -0.3777817 -0.15271138 0.033483893 -0.1661762
-2.1529834 -0.18080457 1.0830367 0.89785856 1.1916001 -0.33434668 1.1974335 -1.0096048
-1.5537208 -0.42129248 -0.21080697 -1.1212553 0.64208823 0.9954271 0.31040835 0.6230068
-0.44664162 -0.5388473 -0.048427735 -0.99782073 1.2557608 -0.56789786 -0.15296525 -0.16044399
-1.1250834 -0.32628316 1.1516234 0.13897103 -0.60731816 1.1699158 0.6702574 0.9449406
-0.4865097 -0.23641315 0.042034663 0.6183703 0.70608777 0.9053699 0.5693322 -0.4184319
-0.25005493 0.999126 -0.66587585 -1.541637 0.27906632 -0.6827488 -1.7868443 0.1836533
0.6610102 0.25632945 1.0516827 -1.5538784 0.7193148 -0.57130563 -0.6385129 0.7225737
0.17509402 -0.31310984 -0.4962674 -0.9421865 1.439965 -0.1304638 1.5226785 -1.5585865
0.10994353 -0.5761193 -1.3606185 0.01949102 -0.036391437 0.9961071 -0.2402666 0.5741704
-0.47561073 0.5318844 -0.41763386 0.90391964 0.98516273 -0.2259347 0.1195434 -1.8970821
0.08657782 -0.04652882 -0.0842564 -1.6034503 -0.6361622 0.51933193 0.76002866 0.5890607
-0.017938763 0.9211793 0.37620664 1.3290964 0.605502 -1.2819914 1.8366729 0.12784606
-0.005240008 1.4267272 2.2286696 -0.34050253 0.11079029 0.10210127 -0.12509574 0.23363039
0.50931597 -0.18948214 0.12319147 -0.46598616 0.09206033 -0.3792797 0.5083899 0.42490923
-0.024812056 0.12877527 -0.33168802 -0.9662664 0.37438917 -0.19273886 -0.44933903 -1.0057287
-0.40213478 -0.41759288 -0.78734016 0.82937807 0.20625828 -0.8487245 1.2077394 0.92208534
-0.79165787 1.0070549 0.62520003 1.4865215 -1.8477932 1.5383826 0.49315572 0.64821666
0.9215108 -0.0859772 -0.28231177 -0.4912714 -1.3863603 -0.95823723 -0.06748885 -0.65438896
-0.64323026 1.0784749 -1.6177324 -1.1206274 -1.2093627 0.73394376 0.011814793 1.6884006
0.27628037 -0.29826072 -0.18844429 -0.3023323 1.4476805 1.3425736 -0.3788722 -0.688972
-1.4851891 -0.6825439 0.84179527 -0.33717602 -0.56839466 -0.67693686 0.00034406222 -1.1846572
-0.010127222 -0.10008782 0.05989446 0.92040944 0.17044689 -0.23011307 -0.6025186 -1.1971292
-1.3168286 -0.98007596 -0.8378372 -1.1665376 0.9308178 -1.0655811 0.47689202 -0.07391147

weight f4 [10, 200]
00000000: 4d87 c4be c6b4 2d40 834c 3040 231e f13f
00000010: 28af 29c0 28f8 a13f 38d3 18bd 33c5 33bf
00000020: 42f4 4640 1d73 8dbd 45ec 4040 ac29 f5bf
00000030: 7cac cebe 631c 3c40 ae0e 243f c903 2d3f
00000040: 355a 3840 7aca d3be ff82 9e3d 5a8b 0ec0
00000050: 4e64 273f daed 15c0 5a5b e73f bed7 07c0
00000060: 402b df3d 44ce 0240 12fe 92bf ff6b 01c0
00000070: bfd2 25c0 be83 5640 c0ab 2340 f1a1 a6bf
00000080: f41c 22c0 3d9e d7bf 62ea 8d40 1f26 23be
00000090: 5008 80be 0d3a 23be b2e6 2cbf 46ee 293f
000000a0: deb8 bdbf 2139 1bc0 3e3b 7a40 6672 a8bf
000000b0: 29ac 5f3f f129 d23f 3095 a93f c46d 2640
000000c0: d4ab 1d3f 4e41 a5bf 21da 94bf 58fd 05c1
000000d0: 1967 8ebf 6945 ae3f efc8 2bc0 0969 3840
000000e0: 4400 2740 1e0c 5940 2c88 c83f d0b6 dabf
000000f0: b417 64bf 81e6 3e3f 9046 0840 5663 b23f
00000100: 6db0 8e3f 002f 8abf 4792 23c0 8270 0ac0
00000110: ee1a f9be a95e 9dbf 269e 5140 a070 debe
00000120: efe7 6940 7810 3240 2542 3840 bba4 6d3f
00000130: 523f 3440 c3f6 1d40 6a65 e73f a489 3740
00000140: 3a6a 10c0 12f2 58c0 5351 f13f c64a fb3d
00000150: b29f c8bf 89bb 50c0 f6db 44bf cccd 4540
00000160: 2344 4340 4f68 0340 b306 8cbe 0bf9 ccbf
00000170: 5057 09bf 6455 6440 62f7 5ac0 069a 873e
00000180: d89c 33bf e73c 84bf 4976 aabf d2d4 df3f
00000190: fc31 6b3e e5fb bfc0 1159 47c1 6b01 b040
000001a0: 4799 1d3e 4b2d 74bf fcbc e53e 0873 b5bf
000001b0: 7a93 1d40 d933 72c0 c312 46c0 c4d6 2dc0
000001c0: 3f2e 20c0 82b7 1b40 8957 0ebf 99c6 2f40
000001d0: 6759 4c40 3ba2 f0bf e6cb cb3f d4aa 9dbd
000001e0: 9709 9040 098f 73bf b9f2 2c40 c4c0 7ebf
000001f0: 8120 953f df66 ab3f 51e8 64c0 d1df 1fbf
00000200: f603 4c40 b094 87bf 831f 9940 adc0 4640
00000210: 1e70 613f 814c 3bc0 ddeb 703f 2dab 39c0
00000220: c7ff 4fbe d0a3 9cbe 9f36 39bf e0e3 1bc0
00000230: d921 6d3e 3f04 a9bf a702 79c0 7bfc 00c0
00000240: a89d 0cc0 4adb 73bf 9eb9 18c0 92a9 8fc0
00000250: d4e8 7040 14bb 05c0 d0a7 adc0 9cd1 e73f
00000260: e362 f5bf 3086 e03c a3c1 a340 0c94 033f
00000270: 802a ca3f eada 2cc0 2ac5 77c0 defb e6bf
00000280: 000f 93c0 98b6 1e40 0e64 1140 e9e2 a13f
00000290: 5013 ad3d 74dd 1240 3c3a 2740 3a1e a73e
000002a0: c324 d93f 9bd7 b83f 9734 dbbe e65f 0dc0
000002b0: bad5 01bf 4ed5 54c0 e80e ccbe 90cb 363f
000002c0: aff2 ab3f 2071 b53f d603 c93f d388 3040
000002d0: 2219 32c0 bc05 0d40 47bf 0dbf f77c fd3d
000002e0: 9a10 19bf 8df5 3fc0 5c50 76bf ef20 843f
000002f0: f6d0 b23f b1dc 8740 e0ce 0d40 f97a 803e
00000300: f871 50bf 9304 7240 06fb ba40 1971 883f
00000310: 4c0d 32c0 379b 90be 0af4 00c0 0988 09c0
00000320: 0175 69bf 00f5 5fc0 846b 90be 071f b8be
00000330: 76ff 8340 d8ef c9bf 4115 13bf b456 0040
00000340: 036b f3bf 3103 8b40 4f41 03c0 e904 0740
00000350: 0f2b 48be 1146 0cc0 5a5a df3f bdab 27be
00000360: 2e71 a4be 0993 443f 8beb 1d3f b847 1340
00000370: 1942 ecbf 87b3 a0c0 3c97 13c0 b3f7 3b40
00000380: 33af 85bf 0146 ee3f f563 c43f 4931 533e
00000390: 297d a2bf 0021 11c0 7506 92bf fc86 463f
000003a0: 043f 49c0 f5e6 0940 1458 9fbf 5f3b 0040
000003b0: 0ff3 c0bf 338b 02bf 5783 5ec0 ebac 2941
000003c0: cb4b 1340 ab8e 3e40 cf3d 01bf eb32 02c0
000003d0: b4f8 2e40 e082 8bc0 b20e 9abf 1718 7ebf
000003e0: 1c5a 72c0 87a9 85bf 80ea d1bf 5e67 bb3f
000003f0: 21c6 34c0 b09f 27c0 7abf 1b40 4a3b 61bf
-0.38384476 2.7141585 2.75467 1.8837322 -2.6513157 1.2653856 -0.03731081 -0.7022278
3.1086583 -0.06906722 3.0144207 -1.9153342 -0.4036597 2.9392326 0.640849 0.675839
2.8805058 -0.41365415 0.07739829 -2.2272553 0.6538743 -2.3426423 1.8074753 -2.1225429
0.10896921 2.0438395 -1.1483786 -2.0222166 -2.590988 3.351791 2.5573578 -1.301817
-2.5330172 -1.6845165 4.434861 -0.15932511 -0.25006342 -0.15940113 -0.67539513 0.663792
-1.4822042 -2.4253619 3.9098659 -1.3159912 0.8737207 1.641905 1.3248653 2.6004496
0.61590314 -1.2910554 -1.1629068 -8.3743515 -1.1125213 1.3614932 -2.684139 2.8814108
2.6093912 3.3913646 1.5666556 -1.708704 -0.8909867 0.7457047 2.1293068 1.3936565
1.1147591 -1.0795593 -2.555803 -2.163117 -0.48653358 -1.2294513 3.2752776 -0.434453
3.654781 2.7822552 2.8790371 0.92829484 2.8163648 2.4681861 1.8077824 2.867776
-2.2564836 -3.3897748 1.8852943 0.12270121 -1.5673735 -3.2614462 -0.76898134 3.0906858
3.0510337 2.0532415 -0.2734886 -1.6013502 -0.53648853 3.5677118 -3.421349 0.26484698
-0.701612 -1.0331086 -1.3317348 1.7486823 0.22968286 -5.999499 -12.459245 5.500173
0.15390502 -0.9538161 0.44870746 -1.417573 2.4621263 -3.7844145 -3.0948951 -2.7162333
-2.5028226 2.4330754 -0.5560232 2.7464964 3.1929567 -1.8799509 1.59216 -0.076985985
4.5011706 -0.9514013 2.7023146 -0.99512887 1.1650544 1.3390769 -3.5766795 -0.6245089
3.1877418 -1.0592251 4.7850966 3.10551 0.880617 -2.9265444 0.941099 -2.9010727
-0.20312415 -0.3059373 -0.7234897 -2.4357834 0.23157443 -1.3204421 -3.890787 -2.0154102
-2.1971226 -0.95256484 -2.3863292 -4.4894495 3.7642107 -2.0895433 -5.426735 1.8110843
-1.9170803 0.027407736 5.1173873 0.51397777 1.579422 -2.7008615 -3.871409 -1.8045614
-4.595581 2.4798946 2.2717319 1.2647372 0.08450949 2.2947664 2.6129293 0.3264025
1.6964344 1.4440798 -0.4281356 -2.2089782 -0.50716746 -3.325519 -0.39855123 0.7140436
1.3433436 1.4175148 1.5704296 2.758351 -2.782784 2.203475 -0.5536999 0.12377351
-0.59790957 -2.9993622 -0.9621637 1.032255 1.397002 4.24569 2.2157516 0.2509382
-0.814239 3.7815292 5.8431425 1.0659515 -2.7820616 -0.2824342 -2.014895 -2.148928
-0.9119416 -3.4993286 -0.28207028 -0.35961172 4.124934 -1.577632 -0.57454306 2.005292
-1.9017032 4.3441396 -2.0508611 2.1096747 -0.19547676 -2.1917765 1.7449448 -0.16374107
-0.321176 0.7678686 0.61687535 2.3012524 -1.8457671 -5.021915 -2.3061056 2.9369934
-1.0444092 1.8615113 1.5343004 0.2062427 -1.2694446 -2.2676392 -1.140822 0.7754972
-3.1444712 2.1547215 -1.2448754 2.0036237 -1.5074176 -0.5099365 -3.4767663 10.604716
2.301501 2.9774578 -0.5048494 -2.0343578 2.7339296 -4.359726 -1.2035735 -0.9925551
-3.7867498 -1.0442361 -1.6399689 1.464092 -2.8245928 -2.6191216 2.4335618 -0.8798109

bias f4 [10]
00000000: fc88 65c0 dac6 17c0 d689 e43e a788 a83e
00000010: daf0 a7bf 1540 da3f a71a c4be 93da b13e
00000020: 7b75 2740 bafe 4e3f
-3.5864859 -2.371512 0.4463641 0.32916757 -1.3120377 1.7050806 -0.38301584 0.3473707
2.6165454 0.8085743
