mutiltask_ann/log/data_cell3_ete_03151128/MNIST_92420.pt (torch, 638175 bytes, 4 tensors)

weight f4 [200, 784]
0	0xbf20a2cd	-0.62748414
1	0xbf153979	-0.5829082
2	0xbf1c9a0b	-0.6117255
3	0xbf188e8f	-0.5959253
4	0xbf151507	-0.5823521
5	0xbf19157b	-0.597984
6	0xbf1932ef	-0.59843343
7	0xbf13f2e7	-0.57792515
8	0xbf1714b3	-0.5901596
9	0xbf218291	-0.63089854
10	0xbf1810d1	-0.5940066
11	0xbf2332f7	-0.6374964
12	0xbf235217	-0.63797134
13	0xbf178c05	-0.5919803
14	0xbf23166f	-0.63706106
15	0xbf12f5e7	-0.5740647
16	0xbf15a903	-0.58461016
17	0xbf1fa303	-0.6235811
18	0xbf2206d1	-0.6329165
19	0xbf18ce1d	-0.59689504
20	0xbf23fbed	-0.64056283
21	0xbf145ebf	-0.5795707
22	0xbf14f14b	-0.58180684
23	0xbf127fbd	-0.57226163
24	0xbf235b01	-0.63810736
25	0xbf170543	-0.58992404
26	0xbf18a7b3	-0.5963089
27	0xbf1b17db	-0.60583276
28	0xbf22e0b5	-0.63624126
29	0xbf189d63	-0.59615153
30	0xbf18c57b	-0.5967633
31	0xbf185071	-0.59497744
32	0xbf218e74	-0.6310799
33	0xbf1da6d4	-0.61582685
34	0xbf339164	-0.70143723
35	0xbf5b33b0	-0.85625744
36	0xbf732d5d	-0.94991094
37	0xbf560801	-0.83605963
38	0xbf6ecd12	-0.9328166
39	0xbf4bf066	-0.79663694
40	0xbfa4a30f	-1.2862262
41	0xbf4b4cc6	-0.7941402
42	0xbf73df43	-0.95262545
43	0xbf8a0b74	-1.0784745
44	0xbf3581eb	-0.70901364
45	0xbf5e904b	-0.86938924
46	0xbf3267ac	-0.6968944
47	0xbf7d37ae	-0.98913085
48	0xbf5fcff5	-0.8742669
49	0xbf262226	-0.64895856
50	0xbf4d22b2	-0.80131066
51	0xbf5298c9	-0.8226438
52	0xbf23d1a7	-0.6399178
53	0xbf1d2ad9	-0.61393505
54	0xbf189ac9	-0.59611183
55	0xbf1f9e37	-0.6235079
56	0xbf20c923	-0.6280691
57	0xbf187e51	-0.59567744
58	0xbf1934e3	-0.59846324
59	0xbf0f123f	-0.55887216
60	0xbf1cc35e	-0.61235607
61	0xbf1eb7c5	-0.6199916
62	0xbf4aa5ba	-0.7915913
63	0xbf8b7538	-1.0895147
64	0xbf9a9976	-1.2078083
65	0xbf777c1f	-0.9667377
66	0xbfd0e1c0	-1.6318893
67	0xbffa9bbf	-1.957878
68	0xbfd2a89e	-1.6457708
69	0xbf9b7289	-1.2144328
70	0xbf327e4d	-0.6972397
71	0xbf24c2fe	-0.64360034
72	0xbe88492d	-0.2661833
73	0xbedd78ed	-0.43256322
74	0xbf6b01ba	-0.9179951
75	0xbfd1b82e	-1.6384332
76	0xbf0f043e	-0.5586585
77	0xbebb233a	-0.36550313
78	0xbf207d38	-0.6269107
79	0xbf5b72e7	-0.857222
80	0xbe7fe8b8	-0.24991119
81	0xbe8c8029	-0.27441528
82	0xbf1475f5	-0.5799249
83	0xbf1c2675	-0.6099618
84	0xbf1cec1b	-0.6129777
85	0xbf1add3f	-0.60493845
86	0xbf1909b9	-0.5978046
87	0xbf054135	-0.52052623
88	0xbf1dcca7	-0.616404
89	0xbf078162	-0.529318
90	0xbf5be5d6	-0.85897577
91	0xbf516bb6	-0.8180498
92	0xbeee665e	-0.46562475
93	0x3ead2d6c	0.33823717
94	0x3f162a4c	0.5865829
95	0x3f91c910	1.1389484
96	0x3fb3bb2e	1.4041498
97	0x3fa62e4d	1.298288
98	0xbd450d21	-0.048108224
99	0xbf83d3c5	-1.0299002
100	0x3ebd4e05	0.36973587
101	0x3f0ff8b6	0.5623888
102	0xbee8cd5b	-0.45469174
103	0xbf29d4d2	-0.66340363
104	0xbf9e5ec5	-1.2372671
105	0xc00c99a0	-2.1968765
106	0xc00dd275	-2.2159703
107	0xc015b9a8	-2.3394566
108	0xbf9730fc	-1.1811824
109	0xbeba0910	-0.3633504
110	0xbf14b0e7	-0.5808243
111	0xbf1814a5	-0.594065
112	0xbf21e393	-0.63237876
113	0xbf1eb301	-0.6199189
114	0xbf0ead34	-0.55733037
115	0xbf078466	-0.529364
116	0xbf1376d1	-0.57603174
117	0xbe9d82ec	-0.30763948
118	0xbf1ffd54	-0.62495923
119	0xbf317231	-0.6931487
120	0x3fce05d5	1.609553
121	0x3fc69e18	1.5516996
122	0x4008340a	2.1281762
123	0x404a4e65	3.1610348
124	0x4003453e	2.0511012
125	0x4016efb6	2.3583808
126	0x3fc06633	1.5031189
127	0x3fe9cd7f	1.8265837
128	0x3ff9f4bb	1.9527811
129	0x3ebae4b7	0.3650262
130	0x3fae5148	1.3618555
131	0xbebd1948	-0.3693335
132	0xbe8b40f5	-0.27197996
133	0xbffcbb40	-1.9744644
134	0xc0821cf2	-4.0660334
135	0xc05da49e	-3.4631724
136	0x3ead6753	0.33867893
137	0x3f67555d	0.9036463
138	0xbc96774c	-0.018367432
139	0xbf05004a	-0.51953566
140	0xbf1c59ff	-0.61074823
141	0xbf1c1203	-0.60964984
142	0xbf1ebd8e	-0.6200799
143	0xbef4928e	-0.47768062
144	0x3e130a07	0.14359294
145	0x3f9ae53e	1.2101209
146	0x3b0aa396	0.0021154634
147	0x3f06cf3c	0.52659965
148	0x3f0fd92d	0.5619076
149	0x3f13053c	0.5742986
150	0x3fb215f8	1.3912954
151	0x402b4ad3	2.676442
152	0x3fa29a83	1.2703403
153	0x3f50ef12	0.8161479
154	0x3f1e1ef2	0.6176597
155	0x3fdb560b	1.7135633
156	0x3fd463c6	1.6592948
157	0x3ef923e3	0.48660192
158	0xbeee4063	-0.46533498
159	0xbfba0339	-1.4532233
160	0xbf3dd64a	-0.74155104
161	0xbe65e372	-0.22450045
162	0xbfd0f5db	-1.6325029
163	0xc042aa55	-3.0416462
164	0xbf47dd72	-0.78072274
165	0x40044790	2.0668678
166	0xbdcfd64d	-0.101482965
167	0xbf15a20f	-0.58450407
168	0xbf1314e5	-0.5745376
169	0xbf1d2115	-0.61378604
170	0xbf191411	-0.59796244
171	0xbcbb247b	-0.022844544
172	0x3f8ad94a	1.0847561
173	0x4002784a	2.0385919
174	0x3fb2ff1b	1.3984102
175	0x40046d41	2.0691683
176	0x40456a2e	3.0846057
177	0x40367eb9	2.8514845
178	0x40460af3	3.0944183
179	0x4000bd96	2.0115714
180	0x3f471a5c	0.77774596
181	0x40065dcb	2.0994747
182	0x3ef3546f	0.47525355
183	0x3f7dfe16	0.9921583
184	0x3fb0a9c1	1.3801805
185	0x3f595492	0.8489467
186	0x3e38bec7	0.18041526
187	0xbebf450d	-0.3735737
188	0x3f5c3b1b	0.8602769
189	0x3feef371	1.8668042
190	0x3f12f75b	0.57408684
191	0xbf8050b0	-1.0024624
192	0x3f8ab7b6	1.0837314
193	0x3ffa7eea	1.9569981
194	0xbdd5267f	-0.10407733
195	0xbe9f3de0	-0.31101894
196	0xbf132f5b	-0.57494134
197	0xbf1ad5dc	-0.60482574
198	0xbee7394e	-0.45160908
199	0x3eaf186d	0.34198323
200	0x403ce197	2.951269
201	0x4050cb7d	3.26242
202	0x40579df8	3.3690166
203	0x40074975	2.1138585
204	0x403d3d74	2.9568758
205	0x404062e5	3.006036
206	0x3fbe7e78	1.4882345
207	0x3f0e7ebb	0.55662125
208	0x3ed55170	0.41663694
209	0x3eac52d9	0.33656958
210	0xbe7ff79c	-0.24996799
211	0xbeb26a62	-0.3484679
212	0x3f7e508d	0.9934166
213	0x3e9ac888	0.30231118
214	0x40086c56	2.1316123
215	0x3fde1339	1.7349616
216	0x3fc3f351	1.5308629
217	0x3f89849c	1.0743594
218	0x3fa1dc40	1.264534
219	0x3e81e3dd	0.25369158
220	0x3fb3130f	1.3990191
221	0x3eaa0bd6	0.33212155
222	0xbf1eb6e1	-0.619978
223	0xbe896421	-0.26834205
224	0xbf13b196	-0.5769285
225	0xbf055fc5	-0.5209926
226	0xbf0ac4ea	-0.54206717
227	0x3e9cea4a	0.30647498
228	0x4067efe4	3.6240168
229	0x405db094	3.4639025
230	0x40487718	3.132269
231	0x401c881b	2.4458072
232	0x402762eb	2.6154125
233	0x400d51ca	2.208117
234	0x3fbef1d5	1.4917551
235	0x3fde3fba	1.7363198
236	0x4004e435	2.0764287
237	0x3f9e80d2	1.2383063
238	0x3f38a3af	0.7212476
239	0x3ed0fdec	0.40818727
240	0x3f6e819c	0.9316652
241	0x3fc64471	1.5489637
242	0x402f71cf	2.7413213
243	0x4011f287	2.2804277
244	0x40252192	2.580174
245	0x402c57f8	2.6928692
246	0x407a0c24	3.906991
247	0x4036f54c	2.8587217
248	0x40420d9b	3.0320804
249	0x3fb6ffb9	1.429679
250	0x3f25d316	0.64775217
251	0xbdbe6176	-0.09295933
252	0xbf121e11	-0.5707713
253	0xbf19a6f7	-0.60020393
254	0xbde31b39	-0.11089177
255	0x3fab837f	1.3399504

bias f4 [200]
0	0x3e9f03ff	0.31057736
1	0xbea44512	-0.32083946
2	0x3e366258	0.17810953
3	0x3dd5d93f	0.10441827
4	0xbe9f9389	-0.31167248
5	0xbce34415	-0.027742425
6	0xbf01f618	-0.50766134
7	0x3e2c75f0	0.16841865
8	0xbe66a6ef	-0.22524618
9	0x3eebf143	0.46082506
10	0x3f1c5e4e	0.610814
11	0x3dca8fb1	0.09890688
12	0xbe343ceb	-0.17601363
13	0xbd954edf	-0.07290434
14	0x3e2a6405	0.16639717
15	0xbc3edab6	-0.011648824
16	0xbfb16733	-1.3859619
17	0xbea2520d	-0.31703225
18	0x3f351105	0.70729095
19	0x3f214717	0.629991
20	0x3f3e349e	0.7429904
21	0xbe473b7f	-0.1945629
22	0x3f474352	0.778371
23	0xbf273246	-0.65311086
24	0xbf776fc6	-0.9665493
25	0xbe320f6a	-0.17388692
26	0xbe5a7d7f	-0.21336935
27	0xbf2cb779	-0.6746746
28	0x3edd73bd	0.43252364
29	0x3f24af07	0.6432957
30	0x3ea86bf8	0.32894874
31	0x3eabc21f	0.3354654
32	0xbe3f5ede	-0.18688533
33	0xbed9e6fe	-0.42559046
34	0xbd910de6	-0.07082729
35	0xbf5548d1	-0.83314234
36	0x3f534d73	0.82540053
37	0xbf2b8f28	-0.67015314
38	0xbd56a117	-0.05239972
39	0xbe00f1e7	-0.12592278
40	0xbf2c2afc	-0.6725309
41	0xbeb59ef5	-0.35472837
42	0x3f3acba3	0.72966975
43	0x3d9175aa	0.07102521
44	0xbec96e5d	-0.39342013
45	0x3f5138b7	0.81727165
46	0x3ea47260	0.3211851
47	0x3f30f3a5	0.6912177
48	0xbe975c9b	-0.2956284
49	0xbeb6b106	-0.35681933
50	0xbdb05695	-0.08610264
51	0x3ed9d2a7	0.42543527
52	0x3ecc483b	0.39898857
53	0x3f337cb6	0.7011217
54	0x3eaab4dd	0.33341113
55	0xbe93ed69	-0.28892067
56	0xbe57f47d	-0.21089359
57	0x3f249c05	0.64300567
58	0xbed81d5c	-0.422099
59	0xbf7fca16	-0.99917734
60	0x3e27e793	0.16396932
61	0xbecae018	-0.39624095
62	0xbf905233	-1.1275085
63	0x3d971f60	0.07379031
64	0x3edb7036	0.42859048
65	0x3d76fdd6	0.06030067
66	0x3f1d2ba1	0.613947
67	0xbf89d4fd	-1.0768124
68	0x3ea8b97c	0.32954013
69	0xbeb1ab46	-0.34700984
70	0xbee22b40	-0.44173622
71	0x3ee4d04b	0.44690165
72	0x3e33f5ee	0.17574283
73	0xbdf7cb85	-0.12099365
74	0xbebce837	-0.36895916
75	0xbf060640	-0.52353287
76	0x3f7295b1	0.9475966
77	0xbc5e01a9	-0.0135502005
78	0x3f87d7bf	1.0612715
79	0xbf84bc42	-1.0369952
80	0x3c4e87c2	0.012605609
81	0xbed87a2e	-0.42280716
82	0xbf6194e9	-0.88117844
83	0x3da0c269	0.07849581
84	0xbe2fb6d8	-0.17159593
85	0x3f18e120	0.59718513
86	0xbe51e8a3	-0.204989
87	0x3ee5742b	0.44815192
88	0xbe6f178a	-0.23348823
89	0x3ec24a3a	0.37947255
90	0xbe8f8b45	-0.28035942
91	0x3f16c9c9	0.5890165
92	0x3f3c1c6d	0.73480874
93	0xbdceb5b3	-0.1009325
94	0x3e62ccf0	0.2214849
95	0xbf99ad51	-1.2006017
96	0x3ca401f4	0.020020463
97	0xbba0061b	-0.0048835403
98	0xbd1c6cd2	-0.038189717
99	0xbf865332	-1.0494139
100	0xbeb12489	-0.34598187
101	0x3ed10453	0.40823612
102	0x3f06f465	0.52716666
103	0x3eb5c632	0.35502774
104	0x3d28f16a	0.041245855
105	0x3f0d77a6	0.55260694
106	0x3eac9485	0.3370706
107	0x3f72a073	0.94776076
108	0x3ee28758	0.44243884
109	0xbf6cfbdf	-0.92571825
110	0x3f94f3d0	1.1636906
111	0x3db7def4	0.08978072
112	0xbd059dc7	-0.03262117
113	0x3f68c47a	0.909248
114	0x3fc14c1d	1.5101353
115	0xbe9ab78d	-0.30218163
116	0x3e0d26ee	0.13784382
117	0x3df952fa	0.1217403
118	0x3ca31d17	0.019911332
119	0x3e516132	0.20447233
120	0x3ec06a96	0.3758132
121	0xbd0bb962	-0.03411234
122	0x3e294748	0.16531098
123	0xbec86ba2	-0.39144617
124	0x3e769cf3	0.24083309
125	0xbe6e5dcb	-0.23277967
126	0x3e9ab90f	0.30219314
127	0x3e20f4e3	0.15718417
128	0xbc2c3ab9	-0.010512047
129	0xbd61f587	-0.055165794
130	0xbe6b74df	-0.22993802
131	0xbf2196f0	-0.6312094
132	0x3e9910d2	0.29895645
133	0xbd2fc464	-0.042911902
134	0xbe96582f	-0.29364154
135	0xbf1e545e	-0.61847484
136	0xbe843a37	-0.25825664
137	0xbe2d56aa	-0.16927591
138	0xbee0360c	-0.43791234
139	0x3f3051f2	0.6887504
140	0x3df8e1c5	0.12152437
141	0xbf377ca4	-0.7167456
142	0x3f4496cd	0.76792604
143	0x3f05d9ab	0.5228526
144	0xbf08635c	-0.5327661
145	0x3f15acf7	0.5846705
146	0x3ee301bd	0.44337264
147	0x3f8692f8	1.0513601
148	0xbf986fc0	-1.1909103
149	0x3f8eaf54	1.1147256
150	0x3eaf07c3	0.3418561
151	0x3eeb128d	0.4591259
152	0x3f1f1743	0.6214487
153	0xbe0129bd	-0.12613578
154	0xbe60a84a	-0.21939197
155	0xbea28b13	-0.3174673
156	0xbf605391	-0.8762751
157	0xbf2c2556	-0.6724447
158	0xbe0ada45	-0.13559826
159	0xbee4bd00	-0.44675446
160	0xbeb17cce	-0.3466553
161	0x3f21292c	0.6295345
162	0xbf873155	-1.056193
163	0xbf3c2c6f	-0.735053
164	0xbf623766	-0.8836578
165	0x3f21923d	0.63113767
166	0x3dc80a3a	0.097675756
167	0x3f8e9962	1.1140559
168	0x3ea83786	0.3285486
169	0xbe687092	-0.22699192
170	0xbea01ddb	-0.31272778
171	0xbe12de61	-0.14342643
172	0x3f878671	1.0587903
173	0x3f53c4b7	0.8272204
174	0xbee7709b	-0.452031
175	0xbea6934d	-0.32534257
176	0xbf79e061	-0.97608
177	0xbeb99ef4	-0.36254084
178	0x3f0b0c8b	0.54316014
179	0xbe71aebf	-0.23601817
180	0xbee08b70	-0.43856382
181	0xbf101f86	-0.562981
182	0xbcbb6d52	-0.022879276
183	0xbf6963bc	-0.9116781
184	0x3c9e91c9	0.019356625
185	0xbdd07732	-0.10178985
186	0xbda443ce	-0.08020745
187	0x3f09d8c6	0.53846395
188	0x3e4fd0c6	0.20294484
189	0xbe6a72d3	-0.22895364
190	0xbf011655	-0.504247
191	0xbf39a914	-0.7252362
192	0xbf7cc014	-0.9873059
193	0xbf2faf1b	-0.68626565
194	0xbf0d319c	-0.5515382
195	0xbf3752e8	-0.7161088
196	0x3f111081	0.5666581
197	0xbf462bac	-0.7741039
198	0x3e9d8f43	0.30773363
199	0xbbf556b6	-0.0074871434

weight f4 [10, 200]
0	0xbe96c394	-0.2944609
1	0x4019272d	2.393016
2	0x402aaf5c	2.666953
3	0x3fd3e84b	1.6555265
4	0xc0041550	-2.0638008
5	0x3f9d4149	1.2285548
6	0xbe99c2aa	-0.3003133
7	0xbfa83ba8	-1.3143206
8	0x401b21a4	2.4239283
9	0xbed13e26	-0.40867728
10	0x400e3d23	2.2224815
11	0xbfd143cc	-1.6348815
12	0x3bb6364c	0.005560672
13	0x40130d3e	2.2976832
14	0x3e2d0b29	0.16898789
15	0x3f093a51	0.5360461
16	0x40054922	2.0825887
17	0x3c667edd	0.0140683325
18	0xbe46d2a5	-0.19416292
19	0xc007027b	-2.1095264
20	0x3f0d0c01	0.5509644
21	0xc00107be	-2.0160975
22	0x3fe248b2	1.7678435
23	0xc0001501	-2.001282
24	0x3e16f609	0.14742292
25	0x3f9ecc1d	1.240604
26	0xbf897926	-1.0740097
27	0xbfae5f1a	-1.3622773
28	0xbff5c3ac	-1.9200339
29	0x403aeccf	2.9207036
30	0x3febd999	1.842578
31	0xbf46569d	-0.7747591
32	0xbff54e8e	-1.9164598
33	0xbfcde5f5	-1.6085802
34	0x4053bfb2	3.3085752
35	0xbe628864	-0.22122341
36	0xbe069c21	-0.13145496
37	0x3dc885a3	0.09791114
38	0xbf4a3bc7	-0.78997463
39	0x3ed0cb14	0.40779936
40	0xbfae9b6a	-1.3641179
41	0xbfe4c622	-1.7872965
42	0x4052094c	3.2818174
43	0xbf02ca9f	-0.51090425
44	0x3f076a4a	0.5289656
45	0x3fa4bf25	1.2870833
46	0x3f90358e	1.1266344
47	0x4001e384	2.0295115
48	0x3ea8cc2f	0.3296828
49	0xbf32835e	-0.697317
50	0xbf474c66	-0.7785095
51	0xc0c09260	-6.017868
52	0xbf440985	-0.76577026
53	0x3f8a0256	1.0781963
54	0xc0173a87	-2.3629472
55	0x3fcdb61d	1.6071202
56	0x40066359	2.0998137
57	0x401f8f08	2.493105
58	0x3fb3a339	1.4034187
59	0xbfba7440	-1.4566727
60	0xbf1aa957	-0.6041464
61	0x3e150cc1	0.14555646
62	0x3f9fc2c3	1.2481312
63	0x3f8b70a0	1.0893745
64	0x3f6f5d86	0.9350208
65	0xbf9e0bc6	-1.2347343
66	0xbfaf22f8	-1.3682547
67	0xbfd96472	-1.6983778
68	0xbe704b93	-0.2346633
69	0xbf8d14db	-1.102199
70	0x4018dbd2	2.3884168
71	0x3cd04e1a	0.025427867
72	0x401c7a2a	2.4449563
73	0x4011a9c8	2.2759876
74	0x400b294b	2.1743953
75	0x3f1e1684	0.61753106
76	0x401301ac	2.296977
77	0x3ff1a215	1.8877589
78	0x3fbb0db3	1.4613556
79	0x40089abb	2.134444
80	0xbfc6bfac	-1.5527244
81	0xc02646e7	-2.5980775
82	0x3fabc2fc	1.341888
83	0xbb94082d	-0.004517576
84	0xbf9e836e	-1.2383859
85	0xc01e4936	-2.4732184
86	0xbef4490c	-0.4771198
87	0x3fe8b3fc	1.8179927
88	0x40179eb5	2.3690617
89	0x3fe7263c	1.8058543
90	0xbef9896c	-0.48737657
91	0xbf9c0715	-1.2189661
92	0xbf0dea17	-0.5543532
93	0x40366379	2.8498213
94	0xc02e8ad7	-2.727224
95	0xbddd4d5e	-0.10805772
96	0xbf17aad2	-0.59245026
97	0xbf8b3bad	-1.0877587
98	0xbf93d8da	-1.1550553
99	0x3fd6a5bb	1.6769327
100	0xbec44344	-0.3833257
101	0xc0964073	-4.6953673
102	0xc10a9e57	-8.663657
103	0x408bb18a	4.3654222
104	0x3e9201c7	0.2851698
105	0xbf3283b7	-0.6973223
106	0xbe416c2f	-0.18888925
107	0xbf82d90a	-1.0222485
108	0x400df681	2.2181704
109	0xc034af79	-2.82321
110	0xc01abb6e	-2.4176898
111	0xc0172b71	-2.3620265
112	0xc0067d75	-2.1014073
113	0x400b1319	2.1730406
114	0xbf1bbd61	-0.60835844
115	0x3fee3d90	1.8612537
116	0x40266739	2.6000502
117	0xbfc3ace1	-1.5287133
118	0x3f8e3061	1.1108514
119	0xbdf3fefa	-0.11913867
120	0x40569626	3.3529143
121	0xbf81d0fa	-1.01419
122	0x3fe93be8	1.8221407
123	0xbee4651a	-0.44608384
124	0x3f484cf4	0.7824242
125	0x3f849434	1.0357728
126	0xc02abcbb	-2.6677692
127	0xbea66e83	-0.3250619
128	0x4020fddd	2.5154946
129	0xbf3547b0	-0.7081251
130	0x407136f0	3.768978
131	0x3fd11146	1.6333396
132	0x3f1f48e4	0.622206
133	0xc00ac440	-2.1682281
134	0x3f596611	0.84921366
135	0xc00b132d	-2.1730454
136	0xbf0fcc91	-0.5617152
137	0xbebe0744	-0.37114918
138	0xbf7e21e6	-0.99270475
139	0xbffe74c7	-1.9879388
140	0x3e87e7cc	0.26544034
141	0xbf8d5dc6	-1.1044242
142	0xc041bcf4	-3.0271578
143	0xbfa0e9cf	-1.2571353
144	0xbfd3b0e3	-1.6538357
145	0xbf5ec11e	-0.87013423
146	0xbfd135e3	-1.634457
147	0xc06c1469	-3.6887457
148	0x4037d527	2.8723848
149	0xbfae1094	-1.3598809
150	0xc0888724	-4.2664967
151	0x3fb51419	1.4146758
152	0xbf801839	-1.0007392
153	0xbeade984	-0.3396722
154	0x40741465	3.8137448
155	0xbd21c391	-0.039493147
156	0x3f522060	0.8208065
157	0xc01052de	-2.2550578
158	0xc02a87ff	-2.6645505
159	0xbfe2232a	-1.7666981
160	0xc06383f4	-3.5549288
161	0x3fe20697	1.7658261
162	0x3fe4f598	1.7887449
163	0x3f4eac94	0.80732083
164	0x3dddefb2	0.10836734
165	0x3ff53a34	1.9158387
166	0x3fe75543	1.8072895
167	0x3f1b337c	0.60625434
168	0x3fb32f0f	1.3998736
169	0x3f9444df	1.1583518
170	0x3e987ec1	0.29784206
171	0xbff09ca5	-1.8797804
172	0xbf028561	-0.5098477
173	0xc014aee7	-2.3231752
174	0xbe9d5195	-0.30726305
175	0xbe1eaf9f	-0.15496682
176	0x3f911509	1.1334544
177	0x3fa8654d	1.3155915
178	0x3f3397a7	0.7015328
179	0x4004d99a	2.0757813
180	0xc00d39da	-2.206656
181	0x3fe04203	1.7520145
182	0xbe9dc290	-0.30812502
183	0x3e234ff5	0.1594847
184	0xbf5ecb36	-0.87028825
185	0xc01e6bcc	-2.4753294
186	0xbf5664b7	-0.8374743
187	0x3fa9835d	1.3243214
188	0x3f9c23c0	1.219841
189	0x403c2abf	2.940109
190	0x3feba97c	1.8411098
191	0x3dacca64	0.084370404
192	0xbf031ca8	-0.512156
193	0x403bc2e2	2.9337697
194	0x40781c19	3.876715
195	0x3f131f2b	0.57469434
196	0xc0122e5a	-2.284079
197	0xbda6e501	-0.08149148
198	0xbfd46bd8	-1.6595411
199	0xbfba7a87	-1.4568642
200	0xbf413c1f	-0.7548236
201	0xc0143bec	-2.3161573
202	0x3e6e1030	0.23248363
203	0xbe2e9548	-0.17049134
204	0x402d38b8	2.7065868
205	0xbfb6e0d6	-1.4287364
206	0xbeaddb2d	-0.3395628
207	0x3fbfff26	1.499974
208	0xbf98d9d7	-1.194148
209	0x4044145f	3.0637434
210	0xbfc50e6d	-1.5395027
211	0x3f90d962	1.131634
212	0xbebdbfe3	-0.3706046
213	0xbfaf3d17	-1.3690518
214	0x3f8b489b	1.0881532
215	0xbe8162ba	-0.25270635
216	0xbe4c0272	-0.19922808
217	0x3f89e54b	1.07731
218	0x3f07e7b5	0.5308793
219	0x3fd668b0	1.6750698
220	0xbfa17424	-1.2613568
221	0xc05df677	-3.468168
222	0xbfe63fa3	-1.798817
223	0x4002f832	2.0463986
224	0xbf55e8af	-0.8355817
225	0x3f912293	1.1338676
226	0x3f6f0e98	0.93381643
227	0xbe2a8fbd	-0.16656394
228	0xbf5f68b3	-0.87269133
229	0xbfc0682d	-1.5031792
230	0xbf30afea	-0.69018424
231	0x3efb0d20	0.4903345
232	0xc025c8ae	-2.5903735
233	0x3fa2b1eb	1.2710546
234	0xbf2cf848	-0.6756635
235	0x3fd83cd3	1.6893562
236	0xbfa1b26c	-1.2632575
237	0xbdb73d11	-0.08947194
238	0xc02427f4	-2.5649385
239	0x40d734e6	6.7252073
240	0x3fa90a9d	1.3206364
241	0x4009a82b	2.1508892
242	0xbda40624	-0.08008984
243	0xbfbccb0a	-1.4749463
244	0x4007a724	2.1195765
245	0xc04714a5	-3.110635
246	0xbf1ac439	-0.6045566
247	0xbf8f8e75	-1.121535
248	0xc0397410	-2.897709
249	0xbe77bd1c	-0.24193233
250	0xbf6a8100	-0.9160309
251	0x3f80d961	1.0066339
252	0xbfc987b6	-1.5744541
253	0xc00123f1	-2.0178187
254	0x3fd9fe68	1.7030764
255	0xbeb3b81f	-0.3510141

bias f4 [10]
0	0xc01da358	-2.4630947
1	0xbfd86f49	-1.6908962
2	0x3e8bb435	0.27285925
3	0x3e1d85c4	0.15383059
4	0xbf6b49b5	-0.91909343
5	0x3f9f7ed8	1.2460585
6	0xbe8b9d0b	-0.27268252
7	0xbdad59a3	-0.084643625
8	0x3fe9fe60	1.8280754
9	0x3f2c684a	0.6734663
