mutiltask_ann/log/data_cell3_ete_03151128/MNIST_93030.pt (torch, 638175 bytes, 4 tensors)

weight f4 [200, 784]
-1.1872268 -1.142648 -1.171469 -1.1556666 -1.1420913 -1.1577251 -1.158176 -1.1376629
-1.1499019 -1.1906412 -1.153749 -1.1972353 -1.1977108 -1.1490855 -1.1938727 -1.1336854
-1.144352 -1.1833224 -1.1926601 -1.1566377 -1.2003021 -1.1393075 -1.141546 -1.1320007
-1.1978455 -1.149667 -1.1560504 -1.1655772 -1.1959822 -1.1558924 -1.1565053 -1.1547177
-1.1907902 -1.1755587 -1.2766476 -1.4612292 -2.3094983 -1.7874811 -1.7706758 -1.6678205
-2.38699 -1.6056874 -1.7652898 -1.9724653 -0.76761514 -1.4487169 -1.2431419 -1.8621088
-1.8833609 -1.4543769 -1.9359269 -1.8006427 -1.1996577 -1.1736782 -1.1558526 -1.1832492
-1.1878107 -1.1554198 -1.1591835 -1.1166389 -1.167246 -1.17869 -1.5935006 -2.0390387
-2.1856678 -1.0402993 -2.6530118 -3.1422899 -1.806485 -2.672 -2.5160577 -1.4639049
-0.70546126 -1.2790592 -1.54635 -3.2496774 -1.8137925 -1.6497952 -2.3417003 -2.5887046
-0.7286995 -0.4692091 -1.1396611 -1.1697049 -1.1727216 -1.1646826 -1.1103934 -1.0732795
-1.17733 -1.0834666 -1.7599192 -2.0654082 -2.4656618 -0.7433617 0.10426329 -0.7739375
0.9777219 2.4339406 0.57738626 -0.9041399 1.50751 1.5653044 -0.02853721 0.13210955
-1.0589954 -4.520248 -5.122132 -5.5484943 -2.4889703 -0.774675 -1.1246601 -1.1538069
-1.1921222 -1.1800134 -0.96237314 -1.0616435 -1.1255816 -1.2299751 -1.5706096 -2.0818255
1.5046823 1.9681427 2.178015 3.7009056 2.1136844 3.8173318 3.8771122 3.5702682
3.03067 0.74610484 2.6856244 -0.61566335 -2.7368083 -4.0891027 -6.839682 -6.1467466
0.051852047 0.2575628 -0.20133467 -0.97751474 -1.1704919 -1.1693919 -1.153486 -0.7279198
0.75788045 1.995456 0.23596554 1.5946612 2.2106798 1.5462207 -0.14503859 4.7281475
2.5281503 3.7405255 1.726316 2.350805 1.4489858 1.1212301 0.525838 -3.0433352
-0.9842525 -0.048216738 -2.8684964 -4.180232 -2.7543259 2.3724616 -0.37136108 -1.1151844
-1.1342762 -1.1734364 -1.0961877 0.49058506 2.5111933 4.855595 3.2146025 4.8531833
6.031995 4.0746455 5.1782656 2.993101 2.2994268 4.623271 1.4914097 1.9219954
1.965772 1.0994356 -0.26457873 -0.24865139 3.1071444 3.1505969 0.26381677 0.7113005
2.2916036 2.4675198 -0.5920876 -0.65683925 -1.1346142 -1.1696087 -0.4496178 0.8765117
6.4920382 5.907863 5.2541933 2.5832987 5.6388893 3.3015006 1.516844 0.72578144
0.37806514 1.8622752 0.60401934 0.15187743 3.7037804 0.32730836 2.3706868 2.6552377
3.257232 1.8844808 4.6491814 3.5025144 3.9000614 1.4169506 -1.329677 -0.62069666
-1.1332576 -0.78371334 -0.6943926 0.4302676 8.186416 6.8830814 4.587722 2.8200853
3.8093684 3.2720058 2.8568974 4.258004 4.8273573 4.3895774 0.5886622 0.73853487
2.6877682 3.465714 4.4728456 4.017462 5.9988265 5.518921 9.106227 8.027137
7.6175303 3.9647703 1.0472645 -0.18142334 -1.1319923 -1.051846 -0.5077576 2.1849198
00000000: 0cf7 97bf 4a42 92bf b2f2 95bf e2ec 93bf
00000010: 0c30 92bf 5630 94bf 1c3f 94bf f09e 91bf
00000020: fc2f 93bf ee66 98bf 0cae 93bf 023f 99bf
00000030: 964e 99bf 3c15 93bf d2d0 98bf 9a1c 91bf
00000040: 207a 92bf 1c77 97bf 16a9 98bf b40c 94bf
00000050: 80a3 99bf d4d4 91bf 2e1e 92bf 66e5 90bf
00000060: 0053 99bf 4a28 93bf 76f9 93bf a231 95bf
00000070: f215 99bf 48f4 93bf 5e08 94bf cacd 93bf
00000080: d06b 98bf b578 96bf 3069 a3bf 8f09 bbbf
00000090: d2ce 13c0 2ecc e4bf 81a5 e2bf 247b d5bf
000000a0: 72c4 18c0 2a87 cdbf 04f5 e1bf be79 fcbf
000000b0: 6d82 44bf 8e6f b9bf 461f 9fbf 9559 eebf
000000c0: f811 f1bf 0629 babf 74cc f7bf 767b e6bf
000000d0: 628e 99bf 163b 96bf faf2 93bf b674 97bf
000000e0: 2e0a 98bf cce4 93bf 2060 94bf 06ee 8ebf
000000f0: 5168 95bf 50df 96bf d4f7 cbbf 9c7f 02c0
00000100: fbe1 0bc0 8728 85bf f2ca 29c0 471b 49c0
00000110: e73a e7bf 0c02 2bc0 1707 21c0 3c61 bbbf
00000120: 1c99 34bf 36b8 a3bf ccee c5bf b7fa 4fc0
00000130: 5a2a e8bf 7d2c d3bf 6bde 15c0 56ad 25c0
00000140: 0d8c 3abf 2d3c f0be 6ae0 91bf e4b8 95bf
00000150: be1b 96bf 5214 95bf 5f21 8ebf 3961 89bf
00000160: c0b2 96bf 09af 8abf 0845 e1bf a62f 04c0
00000170: 67cd 1dc0 f44c 3ebf fe87 d53d c520 46bf
00000180: fc4b 7a3f afc5 1b40 96cf 133f b675 67bf
00000190: 16f6 c03f e55b c83f dec6 e9bc ba47 073e
000001a0: 298d 87bf dfa5 90c0 81e8 a3c0 448d b1c0
000001b0: 4a4b 1fc0 1a51 46bf ddf4 8fbf f2af 93bf
000001c0: 7697 98bf ae0a 97bf 165e 76bf efe3 87bf
000001d0: 0f13 90bf d36f 9dbf bc09 c9bf a13c 05c0
000001e0: 6e99 c03f 1aec fb3f 9964 0b40 a3db 6c40
000001f0: 9b46 0740 2a4f 7440 9b22 7840 467f 6440
00000200: 7ff6 4140 ba00 3f3f 45e1 2b40 1d9c 1dbf
00000210: de27 2fc0 eed9 82c0 adde dac0 26b2 c4c0
00000220: d062 543d 45df 833e ad2a 4ebe 683e 7abf
00000230: aed2 95bf a2ae 95bf 6ea5 93bf f458 3abf
00000240: 7404 423f 1a6b ff3f f3a0 713e dc1d cc3f
00000250: c77b 0d40 8fea c53f ff84 14be fc4c 9740
00000260: 37cd 2140 c564 6f40 ecf7 dc3f 9773 1640
00000270: 5e78 b93f 7884 8f3f 529d 063f 01c6 42c0
00000280: f9f7 7bbf ea7e 45bd 7295 37c0 76c4 85c0
00000290: e046 30c0 69d6 1740 0a23 bebe 5dbe 8ebf
000002a0: f62f 91bf 2a33 96bf e14f 8cbf f72d fb3e
000002b0: 64b7 2040 0961 9b40 0cbc 4d40 474d 9b40
000002c0: 1a06 c140 7f63 8240 5ab4 a540 f78e 3f40
000002d0: cf29 1340 d6f1 9340 83e6 be3f f203 f63f
000002e0: 6b9e fb3f 4eba 8c3f dd76 87be 789e 7ebe
000002f0: 74db 4640 61a3 4940 fe12 873e ca17 363f
00000300: a2a9 1240 d8eb 1d40 0e93 17bf 9e26 28bf
00000310: 0a3b 91bf bdb5 95bf 4e34 e6be 1263 603f
00000320: c7be cf40 370d bd40 5a22 a840 c454 2540
00000330: c871 b440 c94b 5340 f227 c23f d0cc 393f
00000340: c191 c13e 095f ee3f 03a1 1a3f c285 1b3e
00000350: bd0a 6d40 f694 a73e 55b9 1740 6aef 2940
00000360: 7d76 5040 ab36 f13f 18c6 9440 3229 6040
00000370: 9b9a 7940 a35e b53f db32 aabf fae5 1ebf
00000380: 960e 91bf 70a1 48bf b7c3 31bf 094c dc3e
00000390: 8ffb 0241 3442 dc40 9ece 9240 477c 3440
000003a0: b1cc 7340 8b68 5140 68d7 3640 9241 8840
000003b0: b679 9a40 6b77 8c40 91b2 163f 9f10 3d3f
000003c0: 6504 2c40 42ce 5d40 8d21 8f40 0c8f 8040
000003d0: 63f6 bf40 009b b040 1bb3 1141 276f 0041
000003e0: cfc2 f340 ccbe 7d40 c30c 863f 0ac7 39be
000003f0: 20e5 90bf e4a2 86bf 67fc 01bf bad5 0b40

bias f4 [200]
0.7056686 -0.7721712 0.6321816 0.18620896 -0.6236399 -0.3357969 -1.2360529 0.33371118
-0.31166422 0.98448986 1.2502844 0.073893145 -0.6552443 -0.105703644 0.036740046 -0.38723627
-3.042202 -0.19878319 1.5248756 1.2706764 1.7255855 -0.4676534 1.5123898 -1.2121468
-2.0924907 -0.6066847 -0.50454694 -1.6246296 0.9635168 1.4827754 0.61684054 0.6418705
-0.7595657 -0.69884354 0.0030055104 -1.2432925 1.6072623 -1.2518927 -0.13951844 -0.11257391
-1.5400139 -0.45184273 1.8542196 0.22124538 -0.76568407 1.5229139 1.2090733 1.1978222
-0.8246349 -0.133091 -0.09383988 0.79793596 0.9544108 1.2829458 0.7499833 -0.27202362
-0.31341338 1.4162021 -0.9441906 -2.222948 0.41279927 -0.99797803 -2.5667648 0.43334517
0.9475786 0.24314384 1.2589039 -2.1914182 1.2356682 -0.7594906 -0.7257946 0.9527724
0.27444795 -0.5587907 -0.68578154 -1.2025673 1.8886588 -0.40195 2.12729 -2.1681752
0.21183597 -0.841006 -1.8540562 0.016189171 0.14224267 1.4554958 -0.38542205 0.8949964
-0.8652894 0.76947135 -0.64912176 1.0674127 1.2261075 -0.23676258 0.005310921 -2.7691243
0.18003546 -0.034277346 -0.13168234 -2.2168815 -0.6829846 0.5329756 0.9960393 0.98440367
-0.2235047 1.0647308 0.548732 1.8754897 0.70998555 -1.9000163 2.421512 0.17894235
0.15166466 1.9252789 3.091229 -0.2344272 0.17402217 -0.025409922 -0.35309055 -0.10769886
0.8265336 -0.17989491 0.22120386 -0.76497674 0.07104516 -0.6224066 0.7325371 0.5400353
-0.17612834 0.262828 -0.42258206 -1.0728126 0.36280942 -0.28414646 -0.61386627 -1.4313179
-0.45139843 -0.71151227 -0.9545448 1.017861 0.062180527 -1.0538379 1.6367244 1.3933395
-1.1668532 1.3881786 0.91349846 2.0555768 -2.493946 1.9089328 0.4805618 0.9855754
1.2251812 -0.22015509 -0.27206907 -0.4784463 -1.8735133 -1.3881819 -0.23378925 -1.0849288
-0.96070886 1.5125389 -2.1929688 -1.3347043 -1.8821751 0.82480454 0.26144645 2.3448327
0.19995387 -0.24266158 -0.8120204 -0.29771787 2.1414797 1.9674639 -0.2558018 -0.9954514
-2.0613363 -0.8587327 1.2504597 -0.3205917 -0.8213481 -0.9710131 0.14558944 -1.745973
0.028859569 -0.20219886 0.33764923 1.251642 -0.0038222412 -0.14408822 -1.0152929 -1.6019313
-1.9202112 -1.1765413 -0.9127559 -1.7509345 1.4219233 -1.361528 0.766513 -0.17704341
00000000: b3a6 343f 03ad 45bf a7d6 213f 90ad 3e3e
00000010: dda6 1fbf 92ed abbe fb36 9ebf 31dc aa3e
00000020: 7492 9fbe 8707 7c3f 5209 a03f 4a55 973d
00000030: 17be 27bf 277b d8bd bb7c 163d d543 c6be
00000040: 70b3 42c0 d28d 4bbe 202f c33f 86a5 a23f
00000050: fcdf dc3f 4470 efbe fd95 c13f a027 9bbf
00000060: 5eeb 05c0 b04f 1bbf fd29 01bf ddf3 cfbf
00000070: 09a9 763f 96cb bd3f 43e9 1d3f a051 243f
00000080: e672 42bf 69e7 32bf 19f8 443b 3524 9fbf
00000090: c5ba cd3f 053e a0bf ecdd 0ebe 268d e6bd
000000a0: 2d1f c5bf ee57 e7be 1157 ed3f 268e 623e
000000b0: df03 44bf d8ee c23f eac2 9a3f 3d52 993f
000000c0: 461b 53bf 0249 08be 1f2f c0bd 8845 4c3f
000000d0: 4454 743f 9137 a43f e8fe 3f3f ae46 8bbe
000000e0: b877 a0be 1c46 b53f 7ab6 71bf c844 0ec0
000000f0: 6d5a d33e 7d7b 7fbf e045 24c0 6bdf dd3e
00000100: 8394 723f b3fa 783e c323 a13f 3240 0cc0
00000110: 602a 9e3f fa6d 42bf adcd 39bf e4e8 733f
00000120: 7184 8c3e e80c 0fbf 618f 2fbf baed 99bf
00000130: 92bf f13f 64cc cdbe 8525 0840 62c3 0ac0
00000140: 87eb 583e 2b4c 57bf b751 edbf 279f 843c
00000150: 10a8 113e b04d ba3f 0a56 c5be 7c1e 653f
00000160: 9b83 5dbf 13fc 443f d82c 26bf fba0 883f
00000170: 17f1 9c3f e471 72be 3c07 ae3b 5539 31c0
00000180: 375b 383e 6766 0cbd bcd7 06be 63e1 0dc0
00000190: 14d8 2ebf 1771 083f 6efc 7e3f e101 7c3f
000001a0: 6bde 64be 1949 883f b379 0c3f 0c10 f03f
000001b0: 9dc1 353f bc33 f3bf 0dfa 1a40 aa3c 373e
000001c0: fb4d 1b3e 8a6f f63f b2d6 4540 af0d 70be
000001d0: de32 323e 7828 d0bc 49c8 b4be 3891 dcbd
000001e0: b597 533f 5f36 38be 4483 623e 84d5 43bf
000001f0: 2080 913d 0a56 1fbf 8d87 3b3f c13f 0a3f
00000200: fd5a 34be 6491 863e ad5c d8be ec51 89bf
00000210: 28c2 b93e a57b 91be 5726 1dbf 6d35 b7bf
00000220: b21d e7be ab25 36bf 0c5d 74bf 4549 823f
00000230: 02b1 7e3d 29e4 86bf 2f80 d13f f358 b23f
00000240: 725b 95bf d6af b13f 09db 693f 928e 0340
00000250: d09c 1fc0 e957 f43f 320c f63e ab4e 7c3f
00000260: bdd2 9c3f 5670 61be a34c 8bbe eaf6 f4be
00000270: 49cf efbf f2af b1bf 7366 6fbe f2de 8abf
00000280: 04f1 75bf e09a c13f 9a59 0cc0 97d7 aabf
00000290: 1deb f0bf 6426 533f 4fdc 853e bd11 1640
000002a0: b5c0 4c3e 477c 78be 92e0 4fbf 7a6e 98be
000002b0: 010e 0940 dbd5 fb3f 74f8 82be e7d5 7ebf
000002c0: efec 03c0 e8d5 5bbf 100f a03f 9824 a4be
000002d0: de43 52bf 5194 78bf 6615 153e 0b7c dfbf
000002e0: e76a ec3c 380d 4fbe 5ce0 ac3e ce35 a03f
000002f0: 917e 7abb dd8b 13be 1ef5 81bf 160c cdbf
00000300: 7bc9 f5bf e898 96bf 5faa 69bf 9f1e e0bf
00000310: 9501 b63f 8d46 aebf 323a 443f de4a 35be

weight f4 [10, 200]
-0.08726567 3.4345872 3.4634566 2.0145562 -3.141271 1.3951632 -0.20382388 -0.79568535
3.2903886 -0.8067166 3.3882265 -2.784949 -0.4186622 3.4258974 0.80815434 0.2889311
3.8476791 -0.5872603 -0.095431454 -3.2959232 0.59465104 -2.983826 2.0816987 -3.2675772
-0.43610445 2.5140493 -1.1120998 -3.3005962 -3.2574778 4.1036696 2.4626055 -1.0750054
-3.7583039 -2.1714714 5.4055676 -0.776696 -0.46318868 0.2702443 -1.0539129 0.8210828
-2.8057113 -2.5298934 4.498974 -2.436404 1.1766357 1.4929435 1.1243217 3.1419427
0.6418951 -1.8905885 -1.2776091 -12.4581585 -1.4403892 0.94841665 -3.3333983 3.0615172
3.4240494 3.8748796 2.2486613 -1.8753002 -1.0528727 1.3856963 2.5297196 1.6348792
1.8037887 -0.661983 -2.9542773 -2.4791698 -0.8447936 -1.8799922 4.0600877 -0.8733677
4.190366 3.3378582 3.4722636 0.92666614 3.6358972 3.4944763 1.989542 3.534147
-2.9865701 -3.6990013 2.6837802 0.2502501 -2.483407 -4.0223346 -0.997734 3.5859394
4.2688856 2.5777636 0.17710179 -2.3986113 -0.7905425 4.4626765 -4.6057496 0.9656875
-0.7320435 -2.126995 -2.3170867 2.835628 -0.24197261 -7.60898 -17.314793 6.576519
0.8472029 -1.376099 0.67163914 -2.3547826 3.1999154 -4.5752964 -3.782352 -3.9406953
-4.1011233 3.4358177 -0.99930525 3.2440686 3.4198844 -1.3989311 1.9229594 -0.5423138
5.6527452 -1.105416 2.8863478 -0.7454304 0.9549026 1.8728287 -5.13374 -0.9360136
4.190196 -1.9978806 5.7314577 3.6561964 1.6174618 -3.9138649 1.1477121 -4.101339
-0.16654494 -0.11777122 -1.6923218 -3.75362 0.18611254 -1.6071867 -5.127752 -3.6786625
-2.7874277 -1.164173 -3.3136184 -6.636111 4.6725683 -2.6378484 -6.630799 2.1234415
-2.2321553 -0.19273797 6.1798015 -0.17450394 1.789745 -3.2800252 -4.649899 -1.3426293
-6.141821 3.761699 3.199961 1.6754403 1.0670931 2.4606 2.7652068 1.05453
2.2394316 2.1516206 0.0416605 -2.9854727 -1.4321274 -5.0133877 -0.87096786 0.44952196
1.7198069 1.0174342 2.1527674 3.1717744 -3.1936107 2.89283 -1.2551566 0.64163953
-1.2449765 -3.907699 -1.2780663 2.0294795 1.543678 5.456183 3.2373126 0.05238445
-0.6027468 4.652117 7.1266627 1.797445 -4.312603 -0.5311943 -3.3466823 -3.105029
-1.6784917 -4.3573313 -0.18637666 0.22442909 5.721534 -1.3875493 -0.019985316 2.2642257
-2.5087817 5.8193107 -2.4804316 2.5931263 -0.13889375 -2.589242 2.070957 0.05074596
0.31635287 1.0920026 0.0812209 2.3775494 -3.161128 -7.3787103 -2.5619733 3.5525398
-1.5508099 2.2100759 1.6698672 0.40043426 -1.757557 -2.6877742 -1.2816501 0.48298666
-4.2366943 2.9849 -1.8064146 2.7421322 -1.968242 -0.23848473 -5.1681457 14.52677
2.9020712 3.9065511 -0.7304239 -2.2911952 3.679653 -6.3835807 -1.752676 -1.5072875
-4.4791737 -1.7729937 -2.2010283 1.5570598 -4.3082304 -3.5575838 2.6147058 -1.3436717
00000000: 58b8 b2bd 47d0 5b40 46a9 5d40 7dee 0040
00000010: 960a 49c0 b594 b23f 35b7 50be 09b2 4bbf
00000020: ba95 5240 fb84 4ebf b4d8 5840 9b3c 32c0
00000030: e45a d6be e741 5b40 34e3 4e3f c7ee 933e
00000040: 6040 7640 b156 16bf 9171 c3bd 68f0 52c0
00000050: 0d3b 183f 01f7 3ec0 8d3a 0540 fc1f 51c0
00000060: 1549 dfbe 2fe6 2040 4959 8ebf f83c 53c0
00000070: 847a 50c0 4351 8340 549b 1d40 c799 89bf
00000080: 0d88 70c0 63f9 0ac0 69fa ac40 8dd5 46bf
00000090: 1127 edbe 765d 8a3e 9ee6 86bf 7b32 523f
000000a0: c690 33c0 c6e9 21c0 98f7 8f40 0bee 1bc0
000000b0: 009c 963f c618 bf3f c6e9 8f3f 9715 4940
000000c0: 3d53 243f cefe f1bf b288 a3bf 9e54 47c1
000000d0: ac5e b8bf 6fcb 723f 6656 55c0 e6ef 4340
000000e0: a023 5b40 07fe 7740 11ea 0f40 d609 f0bf
000000f0: 88c4 86bf 7f5e b13f ede6 2140 b943 d13f
00000100: 8ce2 e63f b877 29bf e112 3dc0 b8aa 1ec0
00000110: 6544 58bf 96a3 f0bf 3dec 8140 0795 5fbf
00000120: 7a17 8640 789f 5540 9139 5e40 fe39 6d3f
00000130: 8ab2 6840 80a5 5f40 50a9 fe3f 772f 6240
00000140: f723 3fc0 70bc 6cc0 0ec3 2b40 c820 803e
00000150: 24f0 1ec0 f7b6 80c0 7f6b 7fbf 0880 6540
00000160: b69a 8840 14fa 2440 2c5a 353e d982 19c0
00000170: fe60 4abf 3fce 8e40 4d62 93c0 4c37 773f
00000180: 3467 3bbf b020 08c0 264b 14c0 ee7a 3540
00000190: abc7 77be c47c f3c0 b284 8ac1 d872 d240
000001a0: 4ae2 583f 0324 b0bf 8bf0 2b3f c2b4 16c0
000001b0: 6acb 4c40 d468 92c0 0e12 72c0 5a34 7cc0
000001c0: 673c 83c0 70e4 5b40 78d2 7fbf d29e 4f40
000001d0: 63df 5a40 2d10 b3bf 8923 f63f 14d5 0abf
000001e0: 4ae3 b440 467e 8dbf ecb9 3840 87d4 3ebf
000001f0: 7f74 743f dab8 ef3f 9947 a4c0 969e 6fbf
00000200: 1616 8640 8dba ffbf 1a68 b740 1fff 6940
00000210: fd08 cf3f c37c 7ac0 3be8 923f 2b3e 83c0
00000220: c28a 2abe 0a32 f1bd 009e d8bf 4f3b 70c0
00000230: 4994 3e3e 4bb8 cdbf 8b16 a4c0 356f 6bc0
00000240: 3765 32c0 9f03 95bf 5312 54c0 055b d4c0
00000250: ae85 9540 82d2 28c0 812f d4c0 77e6 0740
00000260: a2db 0ec0 1a5d 45be efc0 c540 29b1 32be
00000270: 5d16 e53f efeb 51c0 f9cb 94c0 47db abbf
00000280: cc89 c4c0 adbf 7040 29cc 4c40 d474 d63f
00000290: 8296 883f 787a 1d40 26f9 3040 d7fa 863f
000002a0: d952 0f40 27b4 0940 33a4 2a3d fc11 3fc0
000002b0: f34f b7bf ac6d a0c0 c0f7 5ebf be27 e63e
000002c0: a222 dc3f 493b 823f f1c6 0940 5afe 4a40
000002d0: 1e64 4cc0 2024 3940 f9a8 a0bf 7d42 243f
000002e0: 645b 9fbf be17 7ac0 ad97 a3bf fee2 0140
000002f0: 3e97 c53f 0d99 ae40 2130 4f40 1491 563d
00000300: 9d4d 1abf 24de 9440 9f0d e440 ae12 e63f
00000310: d800 8ac0 5afc 07bf 0b30 56c0 ccb8 46c0
00000320: d1d8 d6bf 426f 8bc0 86d9 3ebe bdd0 653e
00000330: ce16 b740 379b b1bf 3fb8 a3bc 13e9 1040
00000340: e18f 20c0 cb37 ba40 64bf 1ec0 c8f5 2540
00000350: 2a3a 0ebe 24b6 25c0 8f8a 0440 ffda 4f3d
00000360: 01f9 a13e bec6 8b3f 2557 a63d c529 1840
00000370: ec4f 4ac0 651e ecc0 5ff7 23c0 d05c 6340
00000380: f080 c6bf e271 0d40 35be d53f b805 cd3e
00000390: a1f7 e0bf 7e04 2cc0 1c0d a4bf 074a f73e
000003a0: 0093 87c0 9a08 3f40 9838 e7bf 187f 2f40
000003b0: 5bef fbbf 5735 74be 7361 a5c0 a66d 6841
000003c0: 89bb 3940 ef04 7a40 10fd 3abf f1a2 12c0
000003d0: 6f7f 6b40 4b46 ccc0 b057 e0bf ccee c0bf
000003e0: 6455 8fc0 75f1 e2bf a6dd 0cc0 bc4d c73f
000003f0: 06dd 89c0 74af 63c0 5757 2740 6ffd abbf

bias f4 [10]
-4.6877375 -2.9225764 0.69932806 0.4367571 -1.4920303 2.4156554 -0.79100037 0.29336807
3.6364617 0.9575405
00000000: f201 96c0 7e0b 3bc0 2a07 333f a09e df3e
00000010: d9fa bebf 199a 1a40 007f 4abf 5734 963e
00000020: cabb 6840 6021 753f
