mutiltask_ann/log/data_cell3_ete_03151128/MNIST_91280.pt (torch, 638175 bytes, 4 tensors)

weight f4 [200, 784]
0	0xbe51835e	-0.20460269
1	0xbe23dde1	-0.16002609
2	0xbe416020	-0.18884325
3	0xbe313226	-0.17304286
4	0xbe234c04	-0.15946966
5	0xbe334dd2	-0.17510155
6	0xbe33c3a4	-0.175551
7	0xbe1ec386	-0.15504274
8	0xbe2b4aef	-0.16727804
9	0xbe5502d2	-0.20801857
10	0xbe2f3b41	-0.17112447
11	0xbe5bc484	-0.21461684
12	0xbe5c3399	-0.21504058
13	0xbe2e0640	-0.16994572
14	0xbe5c6b82	-0.21525386
15	0xbe1adb58	-0.15122736
16	0xbe259bd3	-0.16172723
17	0xbe4d8468	-0.2007004
18	0xbe5713ce	-0.21003649
19	0xbe32305a	-0.17401257
20	0xbe5ee85c	-0.21768326
21	0xbe2072e2	-0.15668824
22	0xbe22bd1b	-0.1589245
23	0xbe18f6a5	-0.14937837
24	0xbe5c6490	-0.21522737
25	0xbe2b0d2b	-0.16704242
26	0xbe3196b4	-0.17342645
27	0xbe3b576e	-0.1829507
28	0xbe5a7b66	-0.21336135
29	0xbe316d82	-0.1732693
30	0xbe320dd0	-0.17388082
31	0xbe3039b8	-0.17209518
32	0xbe554595	-0.20827325
33	0xbe45b97c	-0.19309038
34	0xbe4768aa	-0.1947352
35	0xbe830c85	-0.2559549
36	0xbe897153	-0.26844272
37	0xbe97f229	-0.2967694
38	0xbe91b1bb	-0.2845591
39	0xbe779d60	-0.24181128
40	0xbed744c2	-0.42044646
41	0xbe7c42cb	-0.24634854
42	0xbe468e47	-0.19390212
43	0xbe03b4fb	-0.12862007
44	0x3dda770a	0.10667236
45	0xbe3c6081	-0.18396188
46	0xbe471c1a	-0.19444314
47	0xbe7597c2	-0.23983672
48	0xbe62389d	-0.22091909
49	0xbe232436	-0.15931782
50	0xbe40b101	-0.18817522
51	0xbe534706	-0.20632562
52	0xbe5e3f5c	-0.21703857
53	0xbe43a386	-0.19105348
54	0xbe316316	-0.17322955
55	0xbe4d711a	-0.20062676
56	0xbe521cb2	-0.20518759
57	0xbe30f144	-0.17279536
58	0xbe33a4e2	-0.17543367
59	0xbe2b2a52	-0.16715363
60	0xbe4d200c	-0.20031756
61	0xbe499d1c	-0.19688839
62	0xbe728ca3	-0.23686461
63	0xbea41de5	-0.32054058
64	0xbeb095d8	-0.34489322
65	0xbe7e860b	-0.24855821
66	0xbe97d9a9	-0.2965825
67	0xbe10a8e7	-0.14126931
68	0xbf07b2f4	-0.53007436
69	0xbf24ae5b	-0.64328545
70	0xbe0573e0	-0.13032484
71	0x3af2bf96	0.0018520232
72	0x3d5886c1	0.052862886
73	0xbc8e6922	-0.017384116
74	0xbeb354d5	-0.3502566
75	0xbf11f629	-0.57016236
76	0xbeb9a9a9	-0.36262253
77	0xbec23d4f	-0.379374
78	0xbea1796a	-0.31537944
79	0xbeb0d7ca	-0.34539634
80	0xbe09e85d	-0.13467546
81	0xbe04a657	-0.12954079
82	0xbe20cfc0	-0.1570425
83	0xbe3f91d2	-0.1870797
84	0xbe42a874	-0.19009572
85	0xbe3a6cf8	-0.18205631
86	0xbe498d1d	-0.19682737
87	0xbe41678b	-0.18887155
88	0xbe485258	-0.19562662
89	0xbddfb5d0	-0.1092335
90	0xbe6a484e	-0.22879145
91	0xbe8f28e3	-0.27960882
92	0xbe92b14d	-0.28650895
93	0xbd22540e	-0.039630942
94	0xbd12dcde	-0.035855167
95	0x3df55845	0.11979727
96	0x3e7ff540	0.24995899
97	0x3d443d57	0.04791006
98	0xbe8fcf70	-0.2808795
99	0xbe1000a5	-0.14062746
100	0x3dfd9ab3	0.12383022
101	0xbd185708	-0.037192374
102	0xbebf1cd9	-0.37326697
103	0xbf3f89fd	-0.7481993
104	0xbf5dd663	-0.86655253
105	0xbf3eb186	-0.7448963
106	0xbf35e157	-0.71046966
107	0xbf55fe1b	-0.8359086
108	0xbef2f4bb	-0.4745234
109	0xbe1c96b6	-0.15291867
110	0xbe220a85	-0.15824325
111	0xbe2f4a89	-0.17118277
112	0xbe5686ea	-0.20949903
113	0xbe49fc70	-0.19725204
114	0xbe550abb	-0.20804875
115	0xbe18dc4a	-0.14927784
116	0xbe0fff86	-0.14062318
117	0xbd8284ca	-0.06372984
118	0xbcfe2c95	-0.031027118
119	0x3e2000a4	0.15625244
120	0x3f28b6f8	0.6590419
121	0x3f4bca1f	0.7960529
122	0x3f1acc97	0.6046843
123	0x3f4fe213	0.81204337
124	0x3f6bfa9b	0.9217927
125	0x3f772162	0.96535313
126	0x3f108eca	0.5646788
127	0x3f346313	0.70463675
128	0x3ee2e5d7	0.4431598
129	0x3ea841c7	0.32862684
130	0x3ed9a559	0.42508963
131	0xbea94115	-0.33057466
132	0xbf19b4b3	-0.6004135
133	0xbf6d169a	-0.9261261
134	0xbfbcb716	-1.4743373
135	0xbfaf2b4a	-1.3685086
136	0xbe2c36fd	-0.16817851
137	0x3e4bb471	0.19893052
138	0x3de95dfc	0.11394879
139	0xbe2363f2	-0.15956095
140	0xbe405ff8	-0.18786609
141	0xbe3f4008	-0.1867677
142	0xbe53db89	-0.20689215
143	0xbe4fd213	-0.2029498
144	0xbd7df737	-0.06200334
145	0x3e21fa77	0.15818201
146	0x3e9dc5c1	0.30814937
147	0x3f02ef73	0.5114662
148	0x3f145dc6	0.57955587
149	0x3f4cd02a	0.80005133
150	0x3f034f08	0.5129247
151	0x3f8b27d7	1.0871533
152	0x3f7cb6f9	0.98716694
153	0x3f30d3c4	0.6907313
154	0x3ea5378e	0.32268947
155	0x3f04d694	0.5188992
156	0x3f0163a0	0.5054264
157	0x3e71137a	0.23542586
158	0x3e0e34aa	0.13887277
159	0xbe8290dc	-0.25501144
160	0xbecf3a74	-0.40474284
161	0xbf2a5051	-0.66528803
162	0xbf968b05	-1.1761175
163	0xbfaa0aa5	-1.3284498
164	0xbe5fb89c	-0.21847767
165	0x3f202851	0.6256152
166	0x3ac35d04	0.001490504
167	0xbe34932e	-0.1763427
168	0xbe1b4b73	-0.151655
169	0xbe459fbe	-0.19299218
170	0xbe298701	-0.16555406
171	0xbdd11f07	-0.10210996
172	0x3ea15ff9	0.31518534
173	0x3ee7d031	0.45276025
174	0x3edd73de	0.43252462
175	0x3eb349ca	0.35017234
176	0x3f72030c	0.945359
177	0x3f527e87	0.82224315
178	0x3f4a3eb8	0.7900195
179	0x3f5e5216	0.86844003
180	0x3f2c661e	0.6734332
181	0x3f129a06	0.5726627
182	0x3ea9952e	0.33121628
183	0x3f087895	0.53308994
184	0x3f26e668	0.6519532
185	0x3ee428ba	0.44562322
186	0x3e2cb6e3	0.16866641
187	0x3d21fce2	0.03954781
188	0x3e867d65	0.26267543
189	0x3eb2e7ea	0.3494256
190	0xbc9fc3a9	-0.019502478
191	0xbf142c63	-0.5788023
192	0x3f0ccde1	0.55001646
193	0x3f66b71d	0.9012316
194	0x3b10a885	0.0022073102
195	0xbdac2279	-0.08405013
196	0xbe1b7d98	-0.15184629
197	0xbe5d64db	-0.21620505
198	0xbd340ce5	-0.04395761
199	0xbb5e8c61	-0.0033958184
200	0x3f601cda	0.87544024
201	0x3f52cbf4	0.8234246
202	0x3f4678a4	0.77527833
203	0x3f0435eb	0.5164477
204	0x3f613022	0.8796407
205	0x3f2e32e4	0.680464
206	0x3f2ff85e	0.68738353
207	0x3eb6280a	0.35577422
208	0x3e0abee0	0.13549376
209	0x3e22151a	0.15828362
210	0xbd32b4f7	-0.043629613
211	0xbe42744a	-0.18989673
212	0x3e3f606a	0.18689123
213	0x3e20678e	0.15664503
214	0x3f11bd58	0.5692954
215	0x3ee99e43	0.45628557
216	0x3f206976	0.6266092
217	0x3f204d13	0.62617606
218	0x3f0da537	0.5533022
219	0x3e4c119a	0.1992859
220	0x3ef52cf0	0.47885847
221	0x3e8d8b5d	0.27645388
222	0xbd28b1d3	-0.04118521
223	0xbd9cde66	-0.07659607
224	0xbe1cec19	-0.15324439
225	0xbe2a4378	-0.166273
226	0xbda43910	-0.08018696
227	0x3e2744fa	0.16334906
228	0x3f90c970	1.1311474
229	0x3fb9081b	1.4455599
230	0x3f9c95ea	1.223325
231	0x3f982bed	1.1888405
232	0x3f9b8038	1.2148504
233	0x3f797c22	0.97455037
234	0x3f74097a	0.9532696
235	0x3f249cd8	0.64301825
236	0x3f65a2b0	0.89701366
237	0x3f46c605	0.77645904
238	0x3f486875	0.7828439
239	0x3e134a4c	0.14383811
240	0x3d526b79	0.051372025
241	0x3f05cfd5	0.5227025
242	0x3f823ed9	1.017543
243	0x3f3fc5a7	0.7491097
244	0x3f69c657	0.9131827
245	0x3f8670d2	1.050318
246	0x3f9f9309	1.2466747
247	0x3f4a9ed6	0.79148614
248	0x3f660db4	0.8986466
249	0x3ef26c46	0.4734823
250	0x3e37bbb3	0.17942695
251	0xbcd0dc8f	-0.025495796
252	0xbe17556b	-0.14778678
253	0xbe50d989	-0.20395483
254	0x3d97d3bd	0.07413433
255	0x3f0a99b2	0.5414077

bias f4 [200]
0	0x3dcbc69d	0.09949992
1	0xbd52b956	-0.05144628
2	0x3d513d6a	0.05108396
3	0x3dc04229	0.09387619
4	0xbdae13a6	-0.084998414
5	0x3ce63204	0.028100021
6	0xbde6da31	-0.112720855
7	0x3bcff92c	0.0063468423
8	0xbc52803b	-0.012847955
9	0x3d9ef541	0.07761622
10	0x3e1afa32	0.15134504
11	0xbc7db788	-0.015485652
12	0xbd3607dc	-0.04444109
13	0xbc4660c4	-0.012108032
14	0x3d7fcc4f	0.062450703
15	0x3cb5b486	0.022180807
16	0xbeabd66d	-0.3356203
17	0xbdfb3ce3	-0.122674726
18	0x3e0f5078	0.1399554
19	0x3e075977	0.13217722
20	0x3e2dbb73	0.16966037
21	0xbda596fa	-0.08085437
22	0x3e5b1deb	0.21398132
23	0xbe63b5a0	-0.22237253
24	0xbe6a1b07	-0.22861873
25	0xbdb12dc0	-0.08651304
26	0xbda0e700	-0.0785656
27	0xbe26f0a0	-0.16302729
28	0x3dd815f5	0.10551063
29	0x3e5b331a	0.21406212
30	0x3e04fa9d	0.12986226
31	0x3dcadbf4	0.09905234
32	0x3c610d27	0.013736046
33	0xbe201554	-0.15633136
34	0xbb169aa0	-0.0022980347
35	0xbe90a917	-0.28254005
36	0x3e6ddc59	0.23228587
37	0xbd72fc30	-0.059322536
38	0xbd0a6528	-0.033787876
39	0xbd7deae6	-0.061991595
40	0xbe2c1ce0	-0.1680789
41	0xbe021ddd	-0.12706704
42	0x3e4458b3	0.19174461
43	0x3d230365	0.03979816
44	0xbd95b67e	-0.07310198
45	0x3e889ef8	0.26683784
46	0x3dd32c70	0.1031121
47	0x3e3c0a81	0.18363382
48	0xbd20717b	-0.039170723
49	0xbe1f6da4	-0.15569168
50	0xbd44c854	-0.04804261
51	0x3d94edec	0.072719425
52	0x3dcb6ee5	0.09933261
53	0x3e44e504	0.19227988
54	0x3d9325d8	0.071849525
55	0xbdc3d59a	-0.09562226
56	0xbd939c2b	-0.07207521
57	0x3e3e2df2	0.18572214
58	0xbd9ba5e5	-0.07600001
59	0xbe6a7933	-0.22897796
60	0xbc3e1c7b	-0.01160347
61	0xbe3086f5	-0.17238982
62	0xbe84e563	-0.25956258
63	0xbcba81df	-0.022767005
64	0x3e10cebd	0.14141364
65	0xbd0f6c0a	-0.035015143
66	0x3e247252	0.16059235
67	0xbe81a422	-0.25320536
68	0x3d4f72db	0.050646644
69	0xbd84b0c6	-0.06479029
70	0xbe238d0f	-0.15971778
71	0x3de9bcba	0.1141295
72	0x3d1f9b78	0.038966626
73	0xbd1d0e7f	-0.038343903
74	0xbe1c804b	-0.15283315
75	0xbe089419	-0.13337745
76	0x3e88b119	0.26697615
77	0x3d21c064	0.03949012
78	0x3e9e9a55	0.3097712
79	0xbe900493	-0.2812849
80	0xbd2afe61	-0.0417465
81	0xbdb74f2b	-0.08950647
82	0xbe818e53	-0.25303897
83	0xbc8caad4	-0.017171301
84	0xbd8e1aa5	-0.06938676
85	0x3e26aeca	0.16277614
86	0x392f610e	0.00016725456
87	0x3d94ea48	0.07271248
88	0xbc2f3d5e	-0.010695783
89	0x3dbc6171	0.09198273
90	0xbe03a645	-0.12856396
91	0x3e3db316	0.18525347
92	0x3e6dcde3	0.23223071
93	0xbd3b4355	-0.04571851
94	0x3dbb5356	0.091467544
95	0xbe9314f5	-0.28726926
96	0xbd176072	-0.03695721
97	0xbd3d55e7	-0.0462245
98	0x3cdbae54	0.026816525
99	0xbe8bb381	-0.27285388
100	0xbdcda23c	-0.100407094
101	0x3e0cce74	0.1375063
102	0x3dce4600	0.10071945
103	0x3d5c5064	0.053787604
104	0x3d34a3f5	0.044101674
105	0x3e32018a	0.173834
106	0x3d97945d	0.07401345
107	0x3e6cd827	0.2312933
108	0x3e251097	0.1611961
109	0xbe6fe710	-0.23427987
110	0x3e89e266	0.2693054
111	0x3bb94336	0.005653764
112	0xbcc28fab	-0.023750147
113	0x3e874120	0.26416874
114	0x3ecc21ed	0.39869633
115	0xbd9d521a	-0.07681675
116	0x3cb35e70	0.021895617
117	0x3dbdba6f	0.09264075
118	0x3d15b583	0.036550056
119	0x3dc0e448	0.09418541
120	0x3da95bb0	0.08269441
121	0x3a45dba7	0.00075476844
122	0x3d323db5	0.04351588
123	0xbd916f2c	-0.071012825
124	0x3dee0e23	0.1162379
125	0x3c5a8ff3	0.013339984
126	0x3d73bca9	0.059506092
127	0x3d10c4b5	0.035343844
128	0xbb40ad00	-0.002939999
129	0xbc014a36	-0.007891228
130	0xbd74c15f	-0.059754726
131	0xbe3c7956	-0.18405661
132	0x3dc4e7ff	0.09614562
133	0xbb015df7	-0.0019739845
134	0xbd4caed8	-0.04997143
135	0xbe249b88	-0.16074955
136	0xbde32531	-0.11091078
137	0xbbac1df7	-0.0052525955
138	0xbdc2bcb8	-0.095086515
139	0x3e62592d	0.2210433
140	0x3d10c5d8	0.03534493
141	0xbe5f3ba4	-0.21800095
142	0x3e620813	0.22073393
143	0x3d9a786d	0.07542501
144	0xbe17cf23	-0.1482511
145	0x3e05650f	0.13026832
146	0x3e2935ec	0.16524476
147	0x3e83c1a1	0.25733665
148	0xbea1bb5f	-0.31588265
149	0x3eaec989	0.34138134
150	0x3e23ef67	0.16009293
151	0x3daa9c8a	0.08330639
152	0x3e6ae55b	0.22939055
153	0xbd663292	-0.05620057
154	0xbd79a545	-0.06094863
155	0xbe11a947	-0.1422473
156	0xbe817afb	-0.2528914
157	0xbe23bbc0	-0.1598959
158	0x3c653b95	0.013991256
159	0xbe0a0d43	-0.13481621
160	0xbdab52b2	-0.08365382
161	0x3e0296d3	0.12752847
162	0xbe811c6a	-0.2521699
163	0xbe1d1c30	-0.15342784
164	0xbe64b411	-0.22334315
165	0x3e59c9f7	0.2126845
166	0x3db0f862	0.08641125
167	0x3ea9bd34	0.33152163
168	0x3e30c4ec	0.1726262
169	0xbd52d6f5	-0.05147453
170	0x3d5b12fa	0.053484894
171	0xbbc26073	-0.005931908
172	0x3e8bc0d7	0.27295563
173	0x3e13b4a4	0.14424378
174	0xbe40393a	-0.1877183
175	0xbdaf29f2	-0.08552922
176	0xbe7f5f59	-0.24938716
177	0xbd27be4d	-0.04095297
178	0x3e17c0b1	0.148196
179	0xbc752a06	-0.014963632
180	0xbdede1d9	-0.11615343
181	0xbe5086f7	-0.20363985
182	0xbd0ff2d5	-0.035143692
183	0xbe722496	-0.23646769
184	0xbcb3f4c1	-0.021967294
185	0xbce5c8c3	-0.028049832
186	0xbd40b231	-0.047044937
187	0x3e2c92f6	0.16852936
188	0x3dc529c7	0.09627109
189	0xbd8270c0	-0.063691616
190	0xbdfe7a67	-0.1242569
191	0xbe294861	-0.16531517
192	0xbe7c446d	-0.24635477
193	0xbe2f03ab	-0.17091243
194	0xbe445413	-0.19172697
195	0xbe3c16ed	-0.1836812
196	0x3dc68a2d	0.09694324
197	0xbe4fe7a0	-0.20303202
198	0x3d470d37	0.048596587
199	0x3d53feb4	0.051756576

weight f4 [10, 200]
0	0xbca8cceb	-0.020605525
1	0x3f510587	0.8164906
2	0x3f83c204	1.0293584
3	0x3f198678	0.5997081
4	0xbf75f746	-0.96080434
5	0x3f133dbb	0.5751607
6	0xbed4c7a5	-0.41558567
7	0xbef71999	-0.48261717
8	0x3f757827	0.9588646
9	0xbd7fba33	-0.062433433
10	0x3f6eb2bb	0.9324147
11	0xbf0f8e94	-0.5607693
12	0xbe38c9d0	-0.18045735
13	0x3f5b7d3a	0.85737956
14	0xbdb3209c	-0.08746454
15	0x3df68815	0.12037674
16	0x3f045143	0.51686496
17	0x3e64178f	0.22274612
18	0xbd370b3c	-0.04468845
19	0xbf4b50ea	-0.7942034
20	0x3e7ea4e4	0.24867588
21	0xbf3465d1	-0.7046786
22	0x3f41a6d7	0.756452
23	0xbf4798e0	-0.77967644
24	0xbe0c0bc3	-0.13676362
25	0x3ee10d78	0.43955588
26	0xbecf8d8c	-0.4053768
27	0xbf1b2221	-0.6059895
28	0xbf2da4d6	-0.67829645
29	0x3f8e4c16	1.111697
30	0x3f4787f1	0.77941805
31	0xbe7bdf7f	-0.24596976
32	0xbf630f9e	-0.88695705
33	0xbea19c1d	-0.31564417
34	0x3f97b8b3	1.1853241
35	0x3e81940b	0.2530826
36	0xbd46c989	-0.048532043
37	0x3e2ad911	0.16684367
38	0xbe970af1	-0.29500535
39	0x3d8896fb	0.06669422
40	0xbf2ebf1b	-0.68260354
41	0xbf512f4e	-0.81712806
42	0x3f9529f1	1.1653425
43	0xbe2423e7	-0.1602932
44	0x3dfa41d5	0.12219588
45	0x3f219972	0.63124764
46	0x3f1ee570	0.62068844
47	0x3f612e63	0.87961406
48	0x3e24409a	0.16040269
49	0xbe0545dd	-0.13014932
50	0xbe321dc9	-0.17394175
51	0xbfcbfe6a	-1.5937016
52	0xbe5a3527	-0.21309339
53	0x3f0a7d99	0.54097897
54	0xbf2a1561	-0.6643887
55	0x3f15257f	0.5826034
56	0x3f7260cb	0.94678944
57	0x3f8742ff	1.056732
58	0x3eb49ca2	0.3527575
59	0xbf3426c0	-0.7037163
60	0xbdede705	-0.11616329
61	0xbe221550	-0.15828443
62	0x3ec8dd35	0.39231268
63	0x3ed82684	0.42216885
64	0x3e99d987	0.30048773
65	0xbf041929	-0.5160089
66	0xbec483e9	-0.3838189
67	0xbf3918c0	-0.7230339
68	0x3dd2cf34	0.10293427
69	0xbf0a36b4	-0.5398972
70	0x3f54447a	0.82916987
71	0x3d9a0af3	0.0752162
72	0x3f84f667	1.0387696
73	0x3f70fa51	0.9413195
74	0x3f74daac	0.95646167
75	0x3d75ad89	0.05997995
76	0x3f5ff623	0.8748495
77	0x3f08bcb2	0.53412926
78	0x3f149d87	0.5805287
79	0x3f2a2804	0.6646731
80	0xbeea2e44	-0.45738423
81	0xbf9768c9	-1.1828853
82	0x3ed69a56	0.41914624
83	0xbc55ef7f	-0.013057589
84	0xbe32c734	-0.17458802
85	0xbf5dbb25	-0.86613685
86	0xbe931a1c	-0.28730857
87	0x3f3c60d0	0.73585224
88	0x3f348367	0.70513004
89	0x3f2bf224	0.6716635
90	0xbe50b982	-0.20383266
91	0xbec3f7fa	-0.3827513
92	0xbe7acd35	-0.24492343
93	0x3f5d7d98	0.86519766
94	0xbf856b26	-1.0423324
95	0xbe8ea739	-0.27861956
96	0xbe9e4516	-0.30912083
97	0xbee18524	-0.4404689
98	0xbf016edf	-0.505598
99	0x3ed81515	0.42203584
100	0xbe595545	-0.21223934
101	0xbfa06c3c	-1.253303
102	0xc007864a	-2.1175714
103	0x3fc70186	1.554734
104	0xbab677b9	-0.0013921178
105	0xbe69a348	-0.22816193
106	0xbb542372	-0.003236976
107	0xbe8512b4	-0.25990832
108	0x3f5dc230	0.8662443
109	0xbf6d9829	-0.928103
110	0xbf3df3fc	-0.74200416
111	0xbf3bbd05	-0.73335296
112	0xbf3d47c5	-0.73937637
113	0x3f4b9f88	0.795403
114	0xbdf85cca	-0.12127073
115	0x3f341c99	0.70356137
116	0x3f9139ff	1.1345824
117	0xbed1d202	-0.40980536
118	0x3ef43838	0.47699142
119	0xbe4510f9	-0.19244756
120	0x3f74981c	0.955446
121	0xbee7404c	-0.45166242
122	0x3f2e5e6d	0.6811283
123	0xbd8bd6a5	-0.068280496
124	0x3ea31ec4	0.3185941
125	0x3e55ac11	0.2086642
126	0xbf3b9615	-0.7327588
127	0x3e00ff51	0.12597395
128	0x3f6bffb0	0.92187023
129	0x3ca75b8c	0.020429395
130	0x3facf300	1.3511658
131	0x3f0be29a	0.5464264
132	0x3d13fcec	0.036129877
133	0xbf638f5a	-0.8889061
134	0x3db844c8	0.08997494
135	0xbf74a74d	-0.9556778
136	0xbe822969	-0.25422218
137	0xbdce4f7d	-0.10073755
138	0xbf0661ad	-0.5249279
139	0xbf3e4cd8	-0.74336004
140	0x3de75884	0.1129618
141	0xbe90c271	-0.28273347
142	0xbf5ed0b8	-0.8703723
143	0xbe76405a	-0.24047986
144	0xbf2d40f7	-0.67677253
145	0xbed1129d	-0.40834513
146	0xbf0a5003	-0.5402834
147	0xbf8f894c	-1.1213775
148	0x3f44ba60	0.76846886
149	0xbf084023	-0.53222865
150	0xbfa40359	-1.2813522
151	0x3edac57b	0.4272879
152	0xbec2c3b4	-0.38039935
153	0xbe06a2a2	-0.13147977
154	0x3fa65639	1.2995063
155	0xbca2fe2b	-0.019896587
156	0x3db2afa2	0.087249056
157	0xbf4082ed	-0.75199777
158	0xbf80ea4a	-1.0071499
159	0xbf2b0492	-0.6680385
160	0xbfa79152	-1.3091223
161	0x3f3cd7e8	0.73766947
162	0x3f0c06c9	0.54697853
163	0x3ea0427a	0.31300718
164	0xbdcf05c4	-0.101085216
165	0x3f3e4d66	0.7433685
166	0x3f4514ec	0.7698505
167	0x3e8aae98	0.2708633
168	0x3ebd3143	0.36951646
169	0x3ecd1c46	0.40060633
170	0x3e1b0853	0.15139894
171	0xbf54c95b	-0.83119744
172	0xbd940a05	-0.072284736
173	0xbf176087	-0.59131664
174	0x3e24c90c	0.16092318
175	0xbd9455e0	-0.07242942
176	0x3edec0e7	0.43506548
177	0x3ef3359e	0.47501844
178	0x3e90e36f	0.28298518
179	0x3f33463d	0.7002905
180	0xbf75e642	-0.9605447
181	0x3f138b06	0.5763401
182	0xbdd21f34	-0.10259858
183	0x3ce86f5b	0.02837341
184	0xbea51bac	-0.32247674
185	0xbf0c848c	-0.5488975
186	0xbedb1142	-0.42786604
187	0x3f04c05e	0.5185603
188	0x3ed5cd53	0.41758212
189	0x3f798347	0.9746594
190	0x3f3af2ff	0.7302703
191	0xbdf07700	-0.117414474
192	0xbe560a7c	-0.20902437
193	0x3f864a75	1.0491472
194	0x3fab2b57	1.3372601
195	0xbd132e32	-0.035932727
196	0xbf2dbfc1	-0.6787072
197	0xbd9095f7	-0.070598535
198	0xbee54e49	-0.4478629
199	0xbf2aad15	-0.6667035
200	0xbeda0163	-0.42579183
201	0xbf7693f8	-0.9631953
202	0x3e51cbb5	0.20487864
203	0xbe3e6edb	-0.18596976
204	0x3f822fee	1.0170877
205	0xbf368e4a	-0.71310866
206	0xbe69883e	-0.22805879
207	0x3f0eed53	0.5583088
208	0xbf0fb929	-0.56141907
209	0x3f93fe05	1.1561896
210	0xbf2040a8	-0.6259866
211	0x3f199dae	0.60006225
212	0x3bd1df6c	0.006404808
213	0xbf0c87bf	-0.5489463
214	0x3ed6ce04	0.41954052
215	0x3dc45223	0.09585979
216	0xbd946957	-0.072466545
217	0x3f00d1a4	0.50319886
218	0x3e34601a	0.17614785
219	0x3f42c01b	0.7607438
220	0xbeaab69c	-0.33342445
221	0xbf96acbd	-1.1771466
222	0xbf52fd08	-0.82417345
223	0x3f56c1bf	0.83889383
224	0xbe86b330	-0.26308584
225	0x3ed27a22	0.41108805
226	0x3ee09d8d	0.43870202
227	0x3bc7289b	0.0060778386
228	0xbe913616	-0.28361577
229	0xbf37b7bc	-0.7176473
230	0xbec3e47b	-0.38260254
231	0x3e9197cc	0.28436124
232	0xbf85940d	-1.0435807
233	0x3eec9231	0.46205285
234	0xbe928fff	-0.28625485
235	0x3f1017c3	0.5628626
236	0xbef0854f	-0.46976706
237	0x3c2c2a0b	0.010508071
238	0xbf66363b	-0.899265
239	0x4005053a	2.078444
240	0x3eff2906	0.49835986
241	0x3f6b0c59	0.91815716
242	0xbe0388b3	-0.12845115
243	0xbf07c4ae	-0.53034484
244	0x3f3ba778	0.7330241
245	0xbf88ba58	-1.0681868
246	0xbe9dcc2e	-0.3081984
247	0xbedbb53e	-0.42911714
248	0xbf8efeb1	-1.1171476
249	0xbce4eea9	-0.027945833
250	0xbec7699a	-0.38947755
251	0x3efbda03	0.49189767
252	0xbf1d6125	-0.61476356
253	0xbf6e9d80	-0.93209076
254	0x3f42a830	0.76037884
255	0xbe3b6d86	-0.18303499

bias f4 [10]
0	0xbf4818f0	-0.7816305
1	0xbf1d60fd	-0.6147612
2	0xbc32bfb3	-0.0109099625
3	0x3dc2f87b	0.0952005
4	0xbe4dd428	-0.20100462
5	0x3eced7bd	0.4039897
6	0xbc08e166	-0.00835452
7	0xbd2c4f75	-0.042067964
8	0x3f290e71	0.6603766
9	0x3e1e92bd	0.15485664
