mutiltask/log/dvs/04121459/72500.pt (torch, 14183 bytes, 2 tensors)

weight f4 [4, 784]
0	0xbd7d0bf1	-0.061778966
1	0x3bc5e8bc	0.006039707
2	0xbcde7077	-0.027153237
3	0xbdd983fc	-0.10620877
4	0xbc84a3f3	-0.016191458
5	0xbdf63b98	-0.12023085
6	0xbdd268f2	-0.10273923
7	0xbd279bdd	-0.040920127
8	0xbd865a0b	-0.06560143
9	0xbd2d9a62	-0.04238356
10	0xbc2911a7	-0.01031915
11	0x3df94e43	0.1217313
12	0x3d085ef1	0.03329367
13	0xbd8f8e9d	-0.07009623
14	0xbcea0004	-0.02856446
15	0xbde282f3	-0.11060133
16	0xbc080e9e	-0.008304266
17	0xbc9a192a	-0.018810827
18	0x3bd3a5e3	0.006458984
19	0xbe05ab57	-0.13053642
20	0x3ba8e779	0.005154547
21	0x3cccc124	0.02499444
22	0xbd06e426	-0.032932423
23	0x3d30735a	0.043078758
24	0xbbe43b95	-0.0069651105
25	0xbd275e53	-0.04086144
26	0xbe228bba	-0.15873614
27	0x3c23280d	0.009958279
28	0xbe113e6c	-0.14183968
29	0xbd468c22	-0.048473485
30	0xbd12e118	-0.035859197
31	0xbe0c4f7b	-0.13702194
32	0xbe246206	-0.16053018
33	0x3cf682e6	0.030091714
34	0xbe02acbd	-0.12761207
35	0xbc87c05f	-0.016571222
36	0xbe16b169	-0.14716114
37	0x3cd1a7c4	0.025592692
38	0xbdb0ba4f	-0.086292855
39	0xbe4250f9	-0.18976201
40	0xbdebd69d	-0.115155436
41	0x3d882f6d	0.06649671
42	0xbe2e775a	-0.17037717
43	0xbd216279	-0.03940055
44	0x3c660604	0.01403952
45	0xbd559ecc	-0.052153394
46	0xbe02599d	-0.12729497
47	0xbd79d387	-0.060992744
48	0xbd8cb0f8	-0.068696916
49	0x3c6efed1	0.01458712
50	0x3c86f412	0.016473804
51	0xbd2d2128	-0.04226795
52	0x3daf9f9c	0.08575365
53	0xbd5fdb4d	-0.0546525
54	0x3bff4362	0.007790015
55	0xbcf4c600	-0.02987957
56	0xb8dca6e8	-0.00010521506
57	0xbe2a848d	-0.16652127
58	0xbe6a9c48	-0.22911179
59	0x3d38c993	0.04511411
60	0xbd763044	-0.060104623
61	0xbe2799f2	-0.16367319
62	0xbc5bc44d	-0.013413501
63	0xbcbe47aa	-0.023227531
64	0x3a964da1	0.0011467227
65	0xbd39f7f0	-0.045402467
66	0xbc8620d7	-0.016373081
67	0x3da58e53	0.08083787
68	0xbe3666f8	-0.17812717
69	0xbe144bdf	-0.14482068
70	0xbe759c7a	-0.23985472
71	0xbd31c30c	-0.0433989
72	0xbdc21719	-0.09477062
73	0xbdecc09a	-0.11560173
74	0xbd50159c	-0.05080186
75	0xbc8aae38	-0.016928777
76	0xbe51b286	-0.20478258
77	0xbe9e96e5	-0.30974498
78	0xbd99393d	-0.074816205
79	0xbe7ce8c2	-0.24698165
80	0xbd5a3776	-0.053275548
81	0x3b419193	0.0029536232
82	0x3c35ac03	0.011088374
83	0xbd636a2c	-0.055521175
84	0xbb44837a	-0.0029985593
85	0xbe36b465	-0.17842253
86	0x3d9d0229	0.07666428
87	0xbe3d1685	-0.18465622
88	0xbe9fbb01	-0.3119736
89	0x3c96e689	0.018420475
90	0xbe8d24e7	-0.27567217
91	0xbe55e956	-0.20889792
92	0x3cf91d95	0.030409614
93	0xbdda2d05	-0.10653118
94	0xbe6fb857	-0.23410164
95	0xbdd28d48	-0.102808535
96	0xbe154f85	-0.14581116
97	0x3ccda396	0.025102418
98	0xbd439f32	-0.047759242
99	0xbe635333	-0.22199707
100	0xbda549b5	-0.08070699
101	0xbdca2d76	-0.09871952
102	0xbd9372f5	-0.07199661
103	0xbe4a6769	-0.1976601
104	0xbd8a3477	-0.06748288
105	0x3d98df7c	0.07464501
106	0x3cc08d3f	0.023504851
107	0xbe0c1373	-0.13679294
108	0xbd94dc92	-0.07268633
109	0xbd8076f5	-0.06272689
110	0xbd99f073	-0.07516565
111	0xbdb8160d	-0.08988581
112	0xbd66e95e	-0.0563749
113	0xbe6f90ea	-0.23395124
114	0xbe86ac9a	-0.2630356
115	0xbe2df05c	-0.16986221
116	0xbe8c1a40	-0.27363777
117	0xbe0af735	-0.13570864
118	0xbe28a4db	-0.16469137
119	0xbe1be32c	-0.15223378
120	0x3ba9498d	0.0051662386
121	0xbe5dc8ed	-0.21658678
122	0xbde96b86	-0.113974616
123	0xbe8570bd	-0.26062575
124	0xbdbd3c05	-0.092399634
125	0xbe9348a8	-0.2876637
126	0xbe225479	-0.15852536
127	0xbce520f4	-0.027969815
128	0xbe180a6f	-0.1484773
129	0x3d4a98b1	0.049462024
130	0xbd3ca4a6	-0.04605546
131	0xbd4187a2	-0.04724849
132	0x3d73db14	0.0595351
133	0xbe702e5d	-0.23455186
134	0x3d64cf7b	0.05586193
135	0x3a4dfd36	0.0007857861
136	0xbcde6449	-0.027147429
137	0x3d706a5f	0.058695193
138	0xbd21cc71	-0.03950161
139	0xbde4f8b1	-0.111802466
140	0x3db6d068	0.08926469
141	0x3dd4bacd	0.10387192
142	0xbc101a5c	-0.008795347
143	0xbd536880	-0.05161333
144	0x3bce3139	0.006292489
145	0xbd83a2d1	-0.06427539
146	0xbe483dde	-0.1955485
147	0xbe33b8a2	-0.175509
148	0xbd8b8fd4	-0.068145424
149	0xbe0e478e	-0.13894483
150	0x3d0b1ff3	0.033966016
151	0x3e13c711	0.14431407
152	0xbdb104fc	-0.08643529
153	0x3e041d0e	0.12901708
154	0x3d097957	0.033562984
155	0xbcf882a3	-0.03033573
156	0x3d8c9ccb	0.068658434
157	0xbd97b9a0	-0.07408452
158	0x3be7ca9d	0.007073714
159	0xbdf4a0b0	-0.11944711
160	0xbcdb9993	-0.026806628
161	0xbe0905c1	-0.13381101
162	0x3d421035	0.047378737
163	0xbe0206d5	-0.12697919
164	0xbe7d3cc9	-0.24730219
165	0x3b08feb7	0.0020903775
166	0xbd98b8b0	-0.07457101
167	0x3d82de22	0.06390025
168	0xbd1a72ee	-0.03770726
169	0x3cb067ea	0.021533925
170	0x3d053e3b	0.03253005
171	0xbc14ebe0	-0.00908944
172	0x3d0db380	0.034595013
173	0x3ce4b1b3	0.027916765
174	0xbe5bf213	-0.21479063
175	0xbe37eed2	-0.17962196
176	0x3d3a0c92	0.045422144
177	0xbe1adadb	-0.15122549
178	0x3e2d371e	0.16915557
179	0x3d5603c1	0.052249674
180	0xbc4fa7d3	-0.01267429
181	0xbe256749	-0.16152681
182	0x3d9fe03d	0.07806442
183	0xbddaca61	-0.10683132
184	0xbe3e7255	-0.18598302
185	0xbd7bdc2a	-0.06148926
186	0x3dc82b16	0.09773843
187	0xbe65826d	-0.22413035
188	0xbe1450c6	-0.14483938
189	0xbdc61696	-0.09672277
190	0x3d05f261	0.032701854
191	0xbd75608a	-0.05990652
192	0x3d8accb4	0.06777325
193	0xbc18119d	-0.009281543
194	0x3e0d28cf	0.13785098
195	0x3bafb1f6	0.005361791
196	0xbd693c28	-0.056942135
197	0xbe6913e5	-0.22761495
198	0x3c1eddb3	0.009696412
199	0xbd27398f	-0.040826377
200	0xbcc58e38	-0.024115667
201	0xbdd124af	-0.10212075
202	0x3d0443bc	0.03229116
203	0xbe3513e4	-0.17683369
204	0xbc97f4c0	-0.018549323
205	0x3de9f608	0.1142388
206	0xbd16fb46	-0.036860727
207	0x3d0d6462	0.03451956
208	0x3be4906f	0.0069752256
209	0x3d61e0da	0.055146076
210	0x3e20a821	0.15689136
211	0xbde764de	-0.11298536
212	0xbd144026	-0.03619399
213	0x3df26f5d	0.11837647
214	0xbd79461b	-0.060857873
215	0x3be79dce	0.0070683723
216	0xbdb3f5bf	-0.08787107
217	0xbe29c621	-0.16579486
218	0x3d2a646e	0.041599683
219	0x3e05121f	0.12995194
220	0xbe14aec7	-0.14519797
221	0xbdbcb215	-0.09213654
222	0x3cd06508	0.0254388
223	0x3d04735d	0.03233658
224	0x3dbee4ee	0.093210086
225	0x3d90d486	0.07071786
226	0x3bbc0890	0.0057383254
227	0xbe064eb6	-0.13115963
228	0x3c6a2003	0.014289859
229	0xbe6f5da6	-0.23375568
230	0xbe020696	-0.12697825
231	0xbe299c55	-0.16563542
232	0x3d735116	0.0594035
233	0xbd8c018b	-0.06836232
234	0x3d5ab84e	0.053398423
235	0x3da9604c	0.0827032
236	0x3bf2cbbd	0.0074095414
237	0xbcd13026	-0.025535654
238	0xbd846410	-0.06464398
239	0xbb036db1	-0.0020054395
240	0xbe55cd7f	-0.20879172
241	0x3e25d4cf	0.16194461
242	0x3d8c25b9	0.068431325
243	0x3d187530	0.037221134
244	0x3d5413bf	0.051776644
245	0xbd442cd6	-0.04789432
246	0x3bb43840	0.0054998696
247	0xbbcc8d05	-0.006242397
248	0xbe06b6c6	-0.1315566
249	0x3d481b2d	0.04885404
250	0x3d55728a	0.052111186
251	0x3d48392b	0.048882645
252	0xbe080706	-0.13283929
253	0xbe21e288	-0.15809071
254	0xbe0d0312	-0.13770702
255	0xbc4670b4	-0.012111831

bias f4 [4]
0	0x3c4e69b0	0.01259844
1	0xbd1d8055	-0.038452465
2	0x3bb68828	0.0055704303
3	0x3d9ad4e6	0.075601384
