mutiltask/log/dvs/04121459/77500.pt (torch, 14183 bytes, 2 tensors)

weight f4 [4, 784]
00000000: 213d 04bd 3263 fcbc c8f6 0fbd 0f18 0bbd
00000010: b862 433c cad1 b1bd 0b45 dbbd 9abd 9abc
00000020: 66fc 92bd dfa2 b8bc 62b1 c73b b87d b03d
00000030: de75 e9bc ff1a 01bd 8e05 30bd cda4 c5bd
00000040: f358 9d3d 0ab9 b5bc ce34 a8bc 841e a9bd
00000050: 3f28 75bc df66 87bc 9af7 4ebd d1e1 313d
00000060: 5cf8 7a3a 4c81 893c b419 b8bd 348b 16bb
00000070: 331f 56bd 6aeb a33d 3b30 e9bc 3245 c4bd
00000080: cec8 85bc 6d0d 7d3d aef4 63bd ca19 66bc
00000090: 2107 cebd 684e 9c3d 7e35 fbbc e608 b2bd
000000a0: 6ece 0abe 2e67 203b 66d8 b7bd 9b99 0f3d
000000b0: 53cf d3bb 304d acbd 685f f4bd 922f 5cbd
000000c0: 62d3 283b 507b 853d f854 26bc 5514 99bd
000000d0: 28f7 b53d 2dda 00bb 0924 b1bb 1290 5bbc
000000e0: ce4c 383d 4bc1 febd 67c4 eebd 8790 b9bc
000000f0: 7811 c63b 62b4 0ebe f669 6a3d 4988 04be
00000100: 7145 b13a ae6b a2bc 72e6 12bd 2865 143e
00000110: 987a 05be a01d 8dbc 9532 e2bc 9a7f 9bbb
00000120: 9c52 e9bb bfec d8bc 8d9c 7fbd c3c9 2b3c
00000130: f5ca 99bd 387e c0bd 71b3 45bd 15ab 63be
00000140: 261e 81bd e434 b1bc 05b7 163d 6b39 55bd
00000150: c648 45bc 93da 06be 3391 2b3d f60c 9fbd
00000160: d3db 28be 1666 4f3d 0da6 f8bd cbce b0bd
00000170: d3c0 8a3b 6ade e3bd b561 38be 128d c9bd
00000180: 62d0 dabd 217c a43d 0ec6 9abc f48c 23bd
00000190: ecf1 44bd ec6d c1bd 002a 7dbd 7e3c d0bd
000001a0: be5e b33d 9c1e 343d 848c 39bc a3ca c3bd
000001b0: a936 8abd 2a57 d0bc 1bcc 6ebd 766c a0bd
000001c0: 7d73 cf3c 6215 a5bd 9607 d7bd 01ac c7bd
000001d0: f6a7 05be 39f3 f8bd 780c 4ebd d6b4 3abe
000001e0: 43d5 08bd fa4c 40be f764 06bc 46c3 43be
000001f0: e869 e53c d007 f1bd 9ff5 23be 5175 0cbc
00000200: 8da1 95bd 5615 3e3c fdcf 9bbc 534e f0bc
00000210: 326f 153e 9343 40bd 1440 193d 402b 133d
00000220: a175 693c 21ad b63d 4d62 c63c 34ae c5bd
00000230: 31f5 1d3d 71e3 c83d 70ec a43d 09ef a2bc
00000240: 3b47 c23c e80c 8ebc 10c2 00be 5d79 ffbd
00000250: bbd7 1dbd 8191 d6bd 6d13 9cbc 3608 ca3c
00000260: 848e f1bd 4eda e53d 5b64 813d 2a3a 023e
00000270: 1dcb 4d3d 6d8f 88bd 2122 593c 1086 6dbd
00000280: 8da3 20bd 017f 78bd a9dd 60bd 2cf9 00be
00000290: c9f0 c0bd 1da2 0b3d 6916 8abd de84 c13c
000002a0: 808d 3c3d 055f bcbd 94ec 6d3d 390d 14bd
000002b0: 792b 3b3d c639 013e 2e62 8bbd 2126 5bbd
000002c0: 6ea3 ae3d ae5d cdbd 0a10 063e 3956 693d
000002d0: c3c7 9eba 802b 43bd f46c 563e f439 4cbd
000002e0: d06c 2ebd d004 eabd f857 ca3d c0ec 63bd
000002f0: dc66 99bd 3365 f8bc 2548 7a3d a4c0 f93c
00000300: a3b5 12bc 83fc 2ebd 7c64 713d c101 fbbb
00000310: 173d 0dbc 6cb6 f7bd 9915 aa3c 1fc1 74bc
00000320: 99d9 9e3b c35c 37bd 9a3a b83d 69fa 15be
00000330: 1e1a f83b a697 d43d 678a b8bc d34e b63c
00000340: cda5 0dbd 678a 7bbb 39ea f83d f3a7 f4bd
00000350: 2eb7 7dbd ab9a da3d 12ed 763b d71b 633d
00000360: 782a c7bd f93a d9bd 7a90 fd3c 82e4 633d
00000370: 1e53 5dbe b9ed 96bd eb91 04bc 124f e43c
00000380: 1767 d93c 1152 873d e47b 81bd cc6f 17be
00000390: d08a 593b 1d19 18be a976 c3bd cf7e 71bd
000003a0: 317a 6b3c 18c8 b33d 6c0c f0bc df22 e13d
000003b0: 37d3 203d ecb9 f23c 37ad 503d 5f41 c4bd
000003c0: 2b91 22be 7fd1 ef3d 8911 f13d 3d83 0b3c
000003d0: 380e f43d d399 1dbd 05bc a5bb 6756 34bd
000003e0: 9765 a2bd 559c b23d ecc4 0b3d 6c33 483d
000003f0: 381f 1ebe ca30 ecbd 9903 7cbd 92f8 a23c
-0.03228486 -0.030809019 -0.03514746 -0.03395849 0.011925392 -0.08682592 -0.10706528 -0.018889237
-0.071770474 -0.0225386 0.0060941437 0.08617729 -0.028498586 -0.031519886 -0.042974047 -0.09650574
0.07682981 -0.02218296 -0.020532992 -0.082577735 -0.014963209 -0.016528545 -0.0505291 0.043428246
0.00095737516 0.016785286 -0.089892775 -0.0022971155 -0.052275848 0.08003886 -0.02846538 -0.095835105
-0.016331103 0.061780382 -0.055653267 -0.0140442345 -0.100599535 0.07632142 -0.030665156 -0.086931035
-0.13555309 0.0024475562 -0.089768216 0.0350586 -0.006463924 -0.0841316 -0.1193226 -0.053756304
0.002576076 0.065176606 -0.010152094 -0.07474581 0.08885032 -0.0019661293 -0.005405907 -0.013401048
0.04499512 -0.124392115 -0.116585545 -0.022651924 0.006044563 -0.13935998 0.05722996 -0.12942614
0.0013524723 -0.019826736 -0.0358643 0.14491713 -0.13035047 -0.01722604 -0.02761201 -0.004745436
-0.0071204435 -0.026480077 -0.062405158 0.010485115 -0.07509414 -0.09399074 -0.04826683 -0.22233231
-0.063045785 -0.021631666 0.036795635 -0.05205671 -0.012041276 -0.13169317 0.04188652 -0.07766144
-0.16490106 0.050634466 -0.12141047 -0.08633193 0.004234412 -0.111264065 -0.18006022 -0.0984136
-0.10684277 0.08031488 -0.018893268 -0.039929345 -0.048082277 -0.09444794 -0.061807632 -0.10167788
0.08758305 0.043974504 -0.011325005 -0.09560134 -0.06748707 -0.025432188 -0.05830012 -0.07833187
0.025323624 -0.08060719 -0.10499494 -0.09749604 -0.13052353 -0.12155766 -0.05030486 -0.18233046
-0.033406507 -0.18779364 -0.008202783 -0.1911746 0.028004602 -0.11769068 -0.16011666 -0.008572892
-0.07306204 0.011601767 -0.019020075 -0.029334223 0.14593199 -0.046939444 0.037414625 0.03592992
0.014249236 0.089197405 0.024216795 -0.09652367 0.03856391 0.09809006 0.080529094 -0.019889371
0.023715606 -0.017340139 -0.12574029 -0.1247432 -0.038535815 -0.104769714 -0.019052232 0.024662118
-0.11794761 0.11223279 0.063179694 0.127175 0.050242532 -0.06667981 0.013252766 -0.05798918
-0.039218474 -0.060667995 -0.05489889 -0.12595052 -0.09420926 0.03409015 -0.06742556 0.023622926
0.046033382 -0.09197811 0.058086947 -0.036145423 0.045695756 0.12619695 -0.06805836 -0.05350316
0.085272655 -0.100276336 0.13092056 0.056966994 -0.0012113977 -0.047648907 0.2094 -0.049859956
-0.04258424 -0.11426699 0.0988006 -0.055645704 -0.07490322 -0.030321693 0.06110396 0.030487366
-0.008954438 -0.042721283 0.05893372 -0.007660121 -0.008620522 -0.12095341 0.020762252 -0.014938622
0.004847717 -0.0447662 0.08995552 -0.14646305 0.007571473 0.10380487 -0.022526933 0.022254383
-0.034581948 -0.0038382055 0.121540494 -0.11946096 -0.061942272 0.10674032 0.0037677926 0.055446472
-0.09724897 -0.10606951 0.03095268 0.055637844 -0.21613738 -0.07369561 -0.00809143 0.027869735
0.026538415 0.0660745 -0.063224584 -0.14788741 0.003319431 -0.1485333 -0.09544117 -0.058958825
0.014372394 0.08778399 -0.029302798 0.10992979 0.03926393 0.02962967 0.05094644 -0.09582781
-0.1587569 0.1170988 0.11770923 0.008515176 0.119167745 -0.038476776 -0.005057814 -0.044027712
-0.07929533 0.08721224 0.034123346 0.048877165 -0.15441597 -0.11532743 -0.06152687 0.019893918

bias f4 [4]
00000000: 0056 d03c 5762 44bd bc5d 71bb 8f7a 983d
0.025431633 -0.047945347 -0.0036829552 0.07445251
