mutiltask_ann/log/data_cell3_ete_03151416/EMNIST_98292.pt (torch, 11047 bytes, 2 tensors)

weight f4 [3, 784]
-0.019034026 -0.018026112 0.0032033618 0.026104921 0.016112534 -0.022586914 0.01002614 0.014814561
-0.017943906 -0.020859936 0.017580837 -0.021793285 0.031989764 -0.0005555168 -0.009614404 0.015823126
-0.018966718 -0.008786447 0.041723713 0.020950217 0.0069985413 0.016217297 -0.0026411477 -0.010055121
-0.0089702625 0.024659416 -0.008268816 0.018827643 0.0044140685 0.0064989505 0.03422849 -0.02586053
0.00093867554 0.03164943 -0.007666389 0.04517107 0.0018705183 0.04111118 -0.00034682557 0.009507528
0.03854702 0.04197275 -0.014938339 -0.00436991 0.009163609 0.014754316 0.014367855 -0.00019032287
0.00237907 0.012088193 0.024076423 0.016490795 -0.01862406 0.0069675497 0.019873828 0.03872313
0.032686077 0.037390087 0.004287584 0.032217376 0.012357684 0.056347445 0.05952313 0.026689986
-0.002510666 -0.0094674975 0.048164744 -0.035203278 -0.033531334 0.013722866 0.044178132 -0.02636161
-0.074613914 -0.03335593 -0.033134434 -0.120678514 -0.074613996 -0.120114386 -0.07944211 -0.02354566
-0.05897525 0.0010043624 0.031044794 0.023332208 0.027397325 -0.022619385 0.03719161 0.030363265
0.06997749 0.08595088 0.05043513 -0.01543522 -0.05707458 -0.025742803 0.079400234 0.04195521
-0.0040910826 -0.047285132 0.032894414 -0.0092614135 -0.092115164 -0.09385446 -0.1431266 -0.20356561
-0.25556955 -0.18982776 -0.06308238 0.041044705 -0.05988494 -0.049099132 0.034406062 0.037214335
0.008499602 0.008170143 -0.0006841517 0.023555726 0.10754443 0.102116354 0.017551595 -0.052526668
-0.02262621 0.022345688 0.08564102 0.10074641 -0.00016029226 0.008243016 -0.028867017 -0.13091737
-0.21714412 -0.2666827 -0.21331197 -0.2607158 -0.2931624 -0.2749918 -0.18034402 -0.13668366
-0.14357959 -0.020754268 0.015564948 -0.025401225 0.017306369 -0.02472545 -0.009928831 0.009952611
0.022287585 0.028967885 -0.016755296 -0.102893464 -0.10211102 0.011689071 0.041461416 0.038770664
-0.08412172 -0.024013205 -0.11768922 -0.1707221 -0.19914314 -0.21405463 -0.27743095 -0.27159962
-0.28670135 -0.31348586 -0.2714356 -0.28562135 -0.2714536 -0.06322599 0.055860028 0.02855912
0.02131623 0.030135894 -0.022938063 -0.07977353 -0.031592913 -0.0193847 -0.017889732 -0.17265022
-0.1808692 -0.09231057 -0.01837112 -0.057235204 -0.06537283 -0.0046915025 -0.041413132 -0.086559914
-0.14054629 -0.154283 -0.24313088 -0.26540792 -0.31164825 -0.33725953 -0.29095167 -0.3253479
-0.2523134 -0.07289721 0.043769717 0.009061854 -0.007049281 -0.0014122032 -0.04173537 -0.1078198
-0.08532164 -0.03207578 -0.02121209 -0.20428167 -0.13624193 -0.14620589 -0.034118827 -0.0782438
-0.026945258 -0.028571907 -0.06593185 -0.09114295 -0.08630015 -0.20392627 -0.20479304 -0.27253896
-0.2973144 -0.28020045 -0.29796022 -0.3221193 -0.201718 -0.017620374 -0.008903716 0.009574175
0.0012661852 0.013079378 -0.04823943 -0.19484034 -0.108030155 -0.04650789 -0.104899414 -0.2482063
-0.20938484 -0.17414458 -0.06360739 -0.06171702 -0.08421803 -0.03354383 -0.05177116 -0.03852821
-0.07461286 -0.10212237 -0.15162681 -0.17690708 -0.10361971 -0.1267454 -0.20657982 -0.21661068
-0.20206909 -0.090219855 -0.02156031 0.01869575 0.02511988 -0.028794812 -0.083829984 -0.21343388
00000000: 3fed 9bbc 7fab 93bc 7eef 513b fdd9 d53c
00000010: 6ffe 833c 3108 b9bc ae44 243c c6b8 723c
00000020: 19ff 92bc 75e2 aabc b005 903c d587 b2bc
00000030: b307 033d 1aa0 11ba bc85 1dbc 809f 813c
00000040: 1760 9bbc 08f5 0fbc 7ce6 2a3d ca9f ab3c
00000050: 0554 e53b 23da 843c 1b17 2dbb 3cbe 24bc
00000060: 02f8 12bc 8b02 ca3c ee79 07bc 6e3c 9a3c
00000070: e4a3 903b 26f5 d43b 2c33 0c3d 76d9 d3bc
00000080: 7311 763a d5a2 013d 5536 fbbb 4d05 393d
00000090: 2e2c f53a 3264 283d 24d6 b5b9 76c5 1b3c
000000a0: 7be3 1d3d 9eeb 2b3d efbf 74bc 7631 8fbb
000000b0: f622 163c 16bc 713c 2767 6b3c 6891 47b9
000000c0: 2cea 1b3b 8e0d 463c eb3b c53c b417 873c
000000d0: 7c91 98bc 0b50 e43b 70ce a23c 259c 1e3d
000000e0: d6e1 053d 5926 193d dd7e 8c3b 5ef6 033d
000000f0: e277 4a3c 94cc 663d 87ce 733d f5a4 da3c
00000100: fc89 24bb 901d 1bbc 6548 453d 5031 10bd
00000110: 2758 09bd dfd5 603c 21f4 343d 4ef4 d7bc
00000120: 2ecf 98bd 3aa0 08bd f9b7 07bd 4c26 f7bd
00000130: 39cf 98bd 88fe f5bd 8cb2 a2bd d4e2 c0bc
00000140: 0890 71bd cfa4 833a a751 fe3c 3023 bf3c
00000150: 5b70 e03c 4a4c b9bc 3b56 183d 62bc f83c
00000160: 5c50 8f3d 0407 b03d 1195 4e3d 01e4 7cbc
00000170: 09c7 69bd 92e2 d2bc 979c a23d 3ad9 2b3d
00000180: 7d0e 86bb 0eae 41bd 4bbc 063d 2fbd 17bc
00000190: e0a6 bcbd c436 c0bd c88f 12be 8173 50be
000001a0: 03da 82be 3562 42be 5631 81bd 7e1e 283d
000001b0: e949 75bd 2c1c 49bd 5fed 0c3d 0f6e 183d
000001c0: ea41 0b3c 10dc 053c a558 33ba f0f7 c03c
000001d0: 4140 dc3d 6122 d13d 5dc8 8f3c 3426 57bd
000001e0: 9a5a b9bc 4e0e b73c 8f64 af3d 2254 ce3d
000001f0: 2014 28b9 b70d 073c 867a ecbc 340f 06be
00000200: 075b 5ebe a38a 88be 746e 5abe 8b7c 85be
00000210: 6219 96be bacb 8cbe 1aac 38be cdf6 0bbe
00000220: 8706 13be db04 aabc 2004 7f3c 3b16 d0bc
00000230: 16c6 8d3c 078d cabc 89ac 22bc 4710 233c
00000240: 7494 b63c 0f4e ed3c 6742 89bc cfb9 d2bd
00000250: 951f d1bd 8483 3f3c 72d3 293d fdcd 1e3d
00000260: 0248 acbd 57b7 c4bc 0c07 f1bd c6d1 2ebe
00000270: 2eec 4bbe 2331 5bbe 6e0b 8ebe 1b0f 8bbe
00000280: 85ca 92be 3881 a0be 9bf9 8abe f63c 92be
00000290: f7fb 8abe a17c 81bd 7ccd 643d d1f4 e93c
000002a0: 609f ae3c 8ddf f63c 9be8 bbbc 4e60 a3bd
000002b0: 9267 01bd aacc 9ebc 7d8d 92bc 38cb 30be
000002c0: c735 39be 530d bdbd 087f 96bc 766f 6abd
000002d0: 31e2 85bd 2dbb 99bb d1a0 29bd 5346 b1bd
000002e0: 5eeb 0fbe 5dfc 1dbe 4df7 78be 8ce3 87be
000002f0: 5c90 9fbe 48ad acbe 9ef7 94be 0094 a6be
00000300: 392f 81be 224b 95bd e047 333d 2c78 143c
00000310: a8fd e6bb ad19 b9ba b5f2 2abd a1d0 dcbd
00000320: 1dbd aebd e561 03bd fac4 adbc 372f 51be
00000330: 0183 0bbe ffb6 15be 2fc0 0bbd 493e a0bd
00000340: 4dbc dcbc a20f eabc 4707 87bd 28a9 babd
00000350: 22be b0bd 0cd2 50be 44b5 51be 3a8a 8bbe
00000360: 9839 98be 6f76 8fbe 3e8e 98be d2ec a4be
00000370: 2a8f 4ebe 9a58 90bc e4e0 11bc 00dd 1c3c
00000380: 20f6 a53a e34a 563c b596 45bd 3a84 47be
00000390: ea3e ddbd 0f7f 3ebd 81d5 d6bd cb29 7ebe
000003a0: fb68 56be f552 32be 9744 82bd fcca 7cbd
000003b0: 817a acbd 4165 09bd ff0d 54bd c2cf 1dbd
000003c0: a1ce 98bd 8825 d1bd 0f44 1bbe 2127 35be
000003d0: 9236 d4bd 8cc9 01be a989 53be 31cf 5dbe
000003e0: 33eb 4ebe 30c5 b8bd 3f9f b0bc d427 993c
000003f0: 35c8 cd3c 19e3 ebbc 0eaf abbd 698e 5abe

bias f4 [3]
0.042209234 0.0061975233 -0.03889353
00000000: 97e3 2c3d 9814 cb3b d24e 1fbd
