mutiltask_ann/log/data_cell3_ete_03151416/FMNIST_84925.pt (torch, 14183 bytes, 2 tensors)

weight f4 [4, 784]
00000000: ddda 8cbd 27ed 86bd 52ed 6abd 9b74 1fbd
00000010: e701 cbbd 9192 42bd 9225 8cbd 9b18 2fbd
00000020: bad8 c43c b498 473e f73e 133f c4a8 bb3e
00000030: 77fd 19bf 7e97 f3be 2042 e6be f26f 13bf
00000040: 9cdf debd 8bf5 253f 895c d93e 5d46 d23c
00000050: a0d6 9bbd ede3 cbbd 3024 dfbd 43fc 97bd
00000060: a9da 23bd 69f4 c3bd 7498 63bd 0722 d0bd
00000070: e206 d4bd c798 7dbd a0e6 4bbd 0073 8bbd
00000080: ca44 c2bd dd2c 4abd 040c c6bc c6a4 2a3e
00000090: 583b 753e 4402 4c3f 59d3 403f 1c88 3f3e
000000a0: 95c1 aebd b4a7 77bd 423e acbd 6233 a2bd
000000b0: 38f0 a03d 5bf4 093f ab34 513f 1d55 1b3f
000000c0: f9df 703e e6c5 7c3d 1d92 60bd d593 abbd
000000d0: 70d1 43bd d84e abbd 1f45 51bd cf28 9cbd
000000e0: 7280 35bd 5660 ccbd e80d 82bd fd25 cfbd
000000f0: acdd 1bbd 7cb8 1d3e 908e ce3e 032e 203f
00000100: 456e 683e b1a0 913e 250e e23d d4b7 a1bd
00000110: 69fd 34bd 8920 6cbd c638 26be 2685 3dbd
00000120: a3f8 033c 8f6e 61bd 7dcb 253d 6142 fc3d
00000130: 95e9 143f 6ec3 163f 7aa9 863e ef1e 2abd
00000140: ad43 94bd 3797 1dbd f387 9cbd 71a1 80bd
00000150: ab7b 6cbd ff24 aabd 2424 2ebd 5f2f 5bbd
00000160: 255e 453d 9609 8f3e 70da 023f d938 cc3d
00000170: 6a3d e4bd a4b6 713c af1a 483e 5a30 d7bc
00000180: 22f1 1dbd 39c0 9abe 78d3 94be 16fc 26be
00000190: 821e 07be 01cb 6bbd 39aa 463d eb0b 50be
000001a0: 47e1 06be f251 c53e 7942 1f3f 2c58 123e
000001b0: fc0b 54bd 7129 b8bd 577d 2fbd 4942 89bd
000001c0: 63f2 aebd 6fd1 99bd d729 bfbd e793 cdbc
000001d0: 9284 5f3e 3d49 923e 29ef 4a3e c22a f23d
000001e0: cad6 583c bddb e03d 5b5a 003e 063c 82bd
000001f0: 0646 cfbd 4333 4bbe 0e3b 38be 311a 6cbe
00000200: 9086 43be 7640 82bc 7203 ce3d 2233 4dbd
00000210: 9ba6 f93b e9d6 dd3d 1d6b bb3e 68dd 993e
00000220: f712 3b3c 7abf a8bd 2b97 82bd f684 25bd
00000230: 2b71 a9bd 7357 25bd 2fc2 81bd 4880 0c3c
00000240: d9db 423e d937 ab3e c2f0 3f3e a958 463e
00000250: bfd0 143d 0357 b6bd fa4e 8dbd 37e0 15be
00000260: 136b 12be 8bfd 63be 154b 72be 638f 2fbe
00000270: 6056 f4bd 0208 63bd bd09 45bd c5c4 2abd
00000280: 41c5 b9bb e9fb af3d a3aa 863e 78fe bb3e
00000290: e729 2f3d 8380 b2bd c3a7 58bd d6d3 45bd
000002a0: a6b5 42bd ba37 b6bd 01a2 11bd d6ac a339
000002b0: 800c 253e b072 c93e 9acd 473e da6f 653e
000002c0: 6b07 b3bd 8f2f 1cbe 676e 09be a204 49be
000002d0: 0b7a 35be bbf3 35be a2fd 56be a2b3 b5bd
000002e0: b39c 25be f1ec 12be ae67 5ebd 3136 c8bd
000002f0: 8f73 1f3c 5275 9e3d 2550 823e 6f3b a63e
00000300: 45d9 b13d fcb0 b1bc b4e2 76bd b366 dabd
00000310: 385a 8abd ed29 5fbd 57d0 5bbd 4511 9f3c
00000320: bd02 9d3d 9610 9c3e 33f9 563e beda 853e
00000330: 63fa 9abc 9d35 23be 5af5 2abe 763e 30be
00000340: b291 11be 59b9 5fbe 4b2a bfbd 05c5 6ebd
00000350: 4c7a 10be fa75 09be ef8b 90bd 952f b2bd
00000360: 11c4 963d e35d 033e 3490 1e3e f065 5e3e
00000370: 5a52 9d3d fd8c 70bc ed84 62bd 2bd3 4cbd
00000380: ae08 a4bd 0476 d5bd 4d8b aebc 1efe 8f3c
00000390: fdd0 2c3d adaa 723e dcf3 2e3e 0100 943e
000003a0: da99 283e 340b c1bd 1859 33bd 463d 4dbd
000003b0: 42a8 6abd 4784 24be 106e fcbd c48e 58bd
000003c0: eecf c2bc 0595 903d ab9f 70bc e484 723d
000003d0: 0540 013e b6ef 223e f3f5 893d 0355 1d3e
000003e0: 42d9 dc3d 381a e5bc fd79 bfbd 0c97 48bd
000003f0: d656 85bd 8906 bfbd bd57 91bd 1dab 013d
-0.06877682 -0.06588202 -0.057355233 -0.038929563 -0.09912472 -0.047503058 -0.068431035 -0.042748075
0.024029125 0.19491845 0.5751795 0.36652195 -0.6015238 -0.47576517 -0.44972324 -0.5759269
-0.10882494 0.64827794 0.4245341 0.025668317 -0.07609296 -0.09955583 -0.10895574 -0.07421162
-0.040003452 -0.09568102 -0.055565313 -0.1016274 -0.10352875 -0.061913278 -0.049780488 -0.06809044
-0.09485777 -0.04935919 -0.024175651 0.16664419 0.23948419 0.7969096 0.7532249 0.18704265
-0.085330166 -0.06046267 -0.08410312 -0.07919957 0.07858318 0.5388848 0.8172099 0.6067675
0.23522939 0.06171217 -0.054826844 -0.08377806 -0.047807157 -0.083646476 -0.05109131 -0.07624971
-0.044311948 -0.09979312 -0.06350309 -0.101146676 -0.0380532 0.15402406 0.40343142 0.6257021
0.22698314 0.2844291 0.11037854 -0.078963906 -0.044186983 -0.057648215 -0.16232595 -0.04626956
0.008054885 -0.055037078 0.040477265 0.12317348 0.5816892 0.5889195 0.26301175 -0.041533407
-0.07239471 -0.038474288 -0.07643118 -0.062807925 -0.057735126 -0.08307838 -0.042514935 -0.053511973
0.048185486 0.27937 0.5111456 0.0997178 -0.11144526 0.014753018 0.19541429 -0.026268173
-0.03856004 -0.3022478 -0.29067588 -0.163071 -0.13195232 -0.057566646 0.04850218 -0.20317046
-0.13171874 0.38539082 0.62210804 0.14291447 -0.05176924 -0.08992279 -0.042844143 -0.06702096
-0.08542325 -0.075106494 -0.09334152 -0.02509494 0.21827915 0.285715 0.19817795 0.11824562
0.013234803 0.10979412 0.12534468 -0.06359105 -0.10120778 -0.19843774 -0.17991278 -0.23056866
-0.190943 -0.015899878 0.10059251 -0.050097592 0.007618738 0.108320065 0.36605158 0.30051732
0.011418096 -0.08239646 -0.06376489 -0.040410005 -0.08273538 -0.0403666 -0.06335866 0.0085755065
0.19029178 0.33441046 0.18744186 0.19369759 0.03633189 -0.08903315 -0.06899829 -0.14636312
-0.14298658 -0.22264688 -0.23661454 -0.17144541 -0.11930537 -0.05542756 -0.04810499 -0.04169156
-0.0056692665 0.0859297 0.2630206 0.36717582 0.04276457 -0.08715918 -0.052894365 -0.048297726
-0.047536515 -0.08897348 -0.03555489 0.00031218556 0.1611805 0.39345312 0.19512025 0.22405949
-0.08741649 -0.15252517 -0.13421021 -0.19630674 -0.17722337 -0.17768757 -0.2099519 -0.08872153
-0.16173057 -0.14348198 -0.054298095 -0.09775961 0.009732141 0.07737221 0.2545177 0.3246722
0.08684019 -0.021690838 -0.060274795 -0.106641196 -0.06755489 -0.054483343 -0.053665485 0.019417414
0.07666538 0.30481404 0.209935 0.2614345 -0.018918222 -0.1593842 -0.16695157 -0.17211327
-0.14215735 -0.21848048 -0.093342386 -0.05829336 -0.14109153 -0.1342391 -0.0705794 -0.08700482
0.073616154 0.12828784 0.15484697 0.21718574 0.07681723 -0.014682052 -0.05530255 -0.050006073
-0.08009468 -0.104229 -0.021306658 0.017577227 0.042191494 0.2369792 0.17085212 0.28906253
0.1646494 -0.09425965 -0.04378614 -0.050107263 -0.05728937 -0.16066085 -0.1232568 -0.052870527
-0.02378079 0.07059673 -0.014686505 0.059208766 0.12622078 0.15911755 0.06736364 0.1536446
0.10783626 -0.027966604 -0.09349439 -0.048972175 -0.06510703 -0.09327418 -0.07096813 0.031657327

bias f4 [4]
00000000: f402 973d e4b8 98bc 7207 cbbd 536d 3c3d
0.0737361 -0.01864285 -0.099135295 0.046002697
