mutiltask_ann/log/data_cell3_ete_03151416/MNIST_92920.pt (torch, 32999 bytes, 2 tensors)

weight f4 [10, 784]
00000000: 2009 cd3d a380 fc3d 3ee9 ea3d 7496 8e3d
00000010: 58e3 d23d 38d5 ae3d e237 fb3d 0cfb d53d
00000020: 845b b63d 46e8 a23d 9a6f 0a3e 8ae1 993d
00000030: a69d 983d f819 013e f05d c93d e822 d63d
00000040: f844 b03d a0da 083e 08fc af3d 5efc e53d
00000050: 0e26 e93d 0cb8 093e 88ab 9c3d 9693 ff3d
00000060: 26e3 9e3d 46f9 f03d 8463 be3d a88b db3d
00000070: 4045 a93d 40d5 0a3e 44aa d03d 3a82 e33d
00000080: ba55 f43d ae38 9f3d 0019 da3d 9aa7 0e3e
00000090: 79ea 053e 2ad8 eb3d bf96 883d db4f 583e
000000a0: 23d3 8c3e d27e 3f3e 92c7 9a3d ec7a ab3d
000000b0: fb81 503d 209d c13d 7c4b cb3d ec6d de3d
000000c0: dc72 063e 2435 bc3d 442b b83d 66a7 033e
000000d0: b833 aa3d f43c d63d bab5 9a3d 3800 b93d
000000e0: fa10 f63d 183e 8e3d 369e 0e3e b462 073e
000000f0: 634c 153e 64ae cd3d 721b 103b 0f65 d53c
00000100: 2e06 853d 2621 4ebe 54e2 d6bd 6cfb aa3d
00000110: 5427 eabd c7b9 36bf 026c 98bf 1611 c7bf
00000120: 4752 a5bf 7fe2 7dbf 2958 42bf 8542 f9be
00000130: 3377 4ebe fc60 a6bd ca2e 1d3d 0c2d e03d
00000140: e2da e53d 1648 0f3e 0291 ac3d f46e 0c3e
00000150: 2076 c13d 94ff 063e 0a7e 9d3d fd77 663e
00000160: ba7d e73d 5c16 b63d 08c7 34bc 2104 baba
00000170: f60e 16be e534 d3bf 26b9 92bf 320b d4be
00000180: 44ce e7bf 9fc1 69bf 5a94 a6be cd49 06bf
00000190: 6113 f63e 6ed5 14bf 03c3 dbbf 79a9 07c0
000001a0: b009 83be 9cf3 85bf 2163 5cbf 3ac6 863d
000001b0: 2510 7a3e dd90 123e ab32 873d b6d6 0e3e
000001c0: d4db 013e dc78 ba3d 10db b63d 5a1a f63d
000001d0: 1462 5f3d 0f7e f73c 3e58 09be 7d51 1dbe
000001e0: bd69 2f3f 01ab 20bf 599e 04bf fefc 1ebc
000001f0: f307 09c0 d9c0 d7be 03c9 093f 290e 543f
00000200: 3d9c 98bd dd3a 053f 6d15 5dbf acc9 6bbf
00000210: e4c3 af3e 300e 24bf 9284 35be 6c5d 593e
00000220: 5ef9 b5bf 1b1d 73bf 0496 05be bcae d23d
00000230: aca2 da3d d67d 913d 4234 e73d b2ed e73d
00000240: 3625 82be a9fd 80bf b569 40bf 7b2d 163f
00000250: d001 1b3f 1c87 8d3e 8c62 0840 bb58 003f
00000260: d773 43bf fac6 853f c030 0240 688f c63f
00000270: a319 7b3f 6e17 0940 359b d93f ab05 ff3e
00000280: c917 27bf 8ebf 663e cc35 873f 4b5e 113f
00000290: 5bbc c9bf 050d d7bf e12b a8be d23b 313c
000002a0: 7cde ab3d 8880 0d3e 3019 1b3c 564b f23d
000002b0: ec88 f4be 8129 80bf 09b7 0fbf d202 e7bc
000002c0: 5188 d3be 25de 3cbf 2b1a 28be 9a14 0cbf
000002d0: fe4c 66be 456d e0be f325 d73e 79ea 283f
000002e0: 339e 193f 3bb2 a23f f3cc 0c40 d7d8 0240
000002f0: 0838 e93f c3da 4740 4504 2f40 30c3 1fbf
00000300: 96bb 3fc0 27c8 67c0 787b c8bf d211 24be
00000310: 309c c83d 2450 c63d 54ae de3d 56a9 aa3d
00000320: e95d 50bf 6e2f 3ebe 2f9a d13e 3dd1 bbbe
00000330: 5d4f 55c0 7715 b7bf a703 98be 3835 e23e
00000340: 99a3 403f e506 643f d260 433f c93f 443f
00000350: 9ada 4c3f 58c9 fd3f 3945 c63f 61e8 903f
00000360: 8abe a33e e286 a33f 91bc d73e 1f6d 8b3e
00000370: c12b ddbf 9fef 59c0 2211 0ec0 9942 35be
00000380: 1ef8 f83d 2e49 9b3d 09f5 a73e 75ca 513f
00000390: b44d 86bf 6a2d 513e 5c2e 703f f85b 73bf
000003a0: f6f6 73bf 766b a1be 2696 713f 3ff2 c83f
000003b0: 3ef2 9e3f f668 993e af00 a53f 0b31 3a40
000003c0: 200f 9b40 2ad8 5340 5179 f63f ffab 093f
000003d0: 0126 4fbe 6eaa ac3e 0fc2 d53f 58bd 3440
000003e0: 9c2e d3bf 76df 5bc0 b848 79bf 04fe 5c3d
000003f0: 5446 d03d a22a 973d 994d 573e 9491 fe3d
0.10011506 0.12329223 0.11470269 0.069622904 0.10297269 0.08536762 0.12266518 0.10448274
0.08904174 0.07954459 0.13519135 0.07513721 0.07451944 0.12607563 0.0983237 0.104558766
0.08606905 0.13364649 0.08592993 0.11229776 0.113842115 0.13449115 0.076499045 0.12479322
0.07758169 0.11766295 0.09296325 0.10719997 0.082651615 0.13557911 0.101887256 0.11108823
0.119304135 0.07774483 0.106492996 0.13931122 0.13077725 0.115158394 0.066693775 0.21124212
0.27504835 0.18700722 0.07557596 0.08373055 0.05090521 0.09453797 0.09926507 0.1086081
0.13129753 0.09189823 0.08992627 0.12856826 0.08310646 0.10460845 0.07554193 0.09033245
0.12014957 0.06945437 0.1392754 0.13221246 0.1457992 0.10043028 0.0021989015 0.026049165
0.06495319 -0.20129833 -0.104923874 0.08348736 -0.114332825 -0.71377224 -1.1907961 -1.5552089
-1.2915734 -0.9917373 -0.7591577 -0.48683563 -0.20162658 -0.08123967 0.0383747 0.10946092
0.11223389 0.13992342 0.084260955 0.137142 0.09446359 0.13183433 0.07690056 0.2250671
0.11303277 0.088909835 -0.011033781 -0.0014191904 -0.14654145 -1.6500517 -1.1462753 -0.4141479
-1.8109822 -0.9131107 -0.32535058 -0.5245636 0.4806166 -0.5813817 -1.7168888 -2.1197188
-0.25593328 -1.0464969 -0.8608876 0.065807775 0.24420221 0.14313073 0.06601461 0.13949093
0.12681514 0.09105083 0.089285016 0.12016745 0.054536894 0.030211477 -0.13412568 -0.15363117
0.6852072 -0.6276093 -0.5180412 -0.009703873 -2.1411102 -0.4213932 0.53822345 0.82834107
-0.07451675 0.52042943 -0.8636082 -0.921046 0.3432914 -0.6408415 -0.17726353 0.21227044
-1.4216726 -0.94966286 -0.13045508 0.10287234 0.106755584 0.071040794 0.11289264 0.11324634
-0.25419015 -1.0077411 -0.75161296 0.5866315 0.6054964 0.27642143 2.1310148 0.5013539
-0.7634863 1.0451348 2.0342255 1.5512514 0.98085994 2.142055 1.700049 0.49809012
-0.6527067 0.2253401 1.0563293 0.56784505 -1.5760607 -1.6800848 -0.32845977 0.010817485
0.08392045 0.13818562 0.009466454 0.118307754 -0.47760713 -1.0012666 -0.56138664 -0.028199587
-0.4131494 -0.73776466 -0.16416232 -0.54718935 -0.22490308 -0.43833366 0.4202114 0.65982777
0.6000702 1.2710642 2.200009 2.0444849 1.8220224 3.1227272 2.7346356 -0.6240721
-2.9958243 -3.6215913 -1.566268 -0.16022423 0.097954154 0.09683254 0.10873094 0.083330795
-0.81393296 -0.1857278 0.40937945 -0.36683074 -3.332969 -1.4303426 -0.29690287 0.44181228
0.7524963 0.8907302 0.7631961 0.7665983 0.8002106 1.982707 1.5489875 1.1320916
0.31981307 1.2775538 0.42136052 0.2723169 -1.7278978 -3.4052503 -2.2197957 -0.17701186
0.121566996 0.07582317 0.32804134 0.8194955 -1.0492463 0.2042748 0.9382074 -0.9506221
-0.9529871 -0.315273 0.94369733 1.5698928 1.2417676 0.2996289 1.2890834 2.9092433
4.8455963 3.3100686 1.9255773 0.5377807 -0.20229341 0.33723778 1.6699847 2.8240566
-1.6498599 -3.435514 -0.97376585 0.053953186 0.10169664 0.073811784 0.21025695 0.124301106

bias f4 [10]
00000000: 172b 1abf e5e9 f3be 0d5c 223f 5784 9b3e
00000010: adf7 97be 705c e63f ec39 a7bd 2718 543f
00000020: 1aa7 26bf 9d83 e0be
-0.60222 -0.47639385 0.6342171 0.30374405 -0.2968115 1.799696 -0.081653446 0.82849354
-0.65098727 -0.43850413
