mutiltask_ann/log/data_cell3_ete_03151416/MNIST_93000.pt (torch, 32999 bytes, 2 tensors)

weight f4 [10, 784]
000000 a8 f8 67 3e b0 b4 7f 3e b4 e8 76 3e 8a bf 48 3e
       0.22653449 0.2497127 0.24112207 0.19604316
000010 ee e5 6a 3e d2 de 58 3e 48 10 7f 3e ae 71 6c 3e
       0.22939274 0.21178749 0.24908555 0.2309024
000020 ea a1 5c 3e 5e e8 52 3e d2 f1 85 3e 08 65 4e 3e
       0.2154614 0.20596454 0.26161057 0.20155728
000030 25 c3 4d 3e 22 47 81 3e 24 23 66 3e 96 85 6c 3e
       0.20093973 0.25249583 0.22474343 0.23097834
000040 ae 96 59 3e 64 27 85 3e 32 72 59 3e 1a 72 74 3e
       0.21248886 0.26006615 0.21234968 0.23871651
000050 2c 07 76 3e 10 96 85 3e 00 ca 4f 3e 1a 9f 80 3e
       0.24026173 0.2609105 0.202919 0.25121385
000060 f0 e5 50 3e ea f0 79 3e b8 a5 60 3e fa 39 6f 3e
       0.20400214 0.24408308 0.21938217 0.2336196
000070 9a 16 56 3e 98 24 86 3e 64 c9 69 3e 1a 35 73 3e
       0.2090706 0.26199794 0.2283073 0.23750725
000080 0e 9f 7b 3e b4 10 51 3e 86 80 6e 3e ce 0d 88 3e
       0.24572393 0.20416528 0.23291215 0.26573032
000090 65 af 83 3e 34 60 77 3e a3 bf 45 3e d0 ec ac 3e
       0.25719753 0.24157792 0.19311385 0.33774424
0000a0 2a a2 cd 3e 87 82 a0 3e 0e d8 4e 3e 8a 31 57 3e
       0.40162784 0.31349584 0.20199606 0.21014991
0000b0 b8 94 35 3e 94 42 62 3e fc 19 67 3e 0e ab 70 3e
       0.17732513 0.2209571 0.22568506 0.23502752
0000c0 8b f3 83 3e 98 8e 5f 3e b8 89 5d 3e d8 8d 82 3e
       0.25771746 0.21831739 0.21634567 0.25498843
0000d0 ca 8d 56 3e a2 92 6c 3e 1e cf 4e 3e 20 f4 5d 3e
       0.20952526 0.23102811 0.20196196 0.21675158
0000e0 b2 7c 7c 3e 68 93 48 3e 20 09 88 3e 4a be 92 3e
       0.24656942 0.19587481 0.26569462 0.28660804
0000f0 23 60 90 3e 64 4b 68 3e 65 b0 03 3e fe 1b 1c 3e
       0.28198346 0.22685009 0.12860258 0.15245053
000100 d0 f5 43 3e 5c 5a 99 bd 07 eb bf bd 6e 16 eb bd
       0.19136739 -0.07487938 -0.09371 -0.114788875
000110 92 da e4 be a4 0e a1 bf 51 1d 09 c0 f7 78 32 c0
       -0.44698006 -1.2582593 -2.1424143 -2.788633
000120 6f 01 10 c0 21 81 09 c0 c2 88 e7 bf 0f 7d 24 bf
       -2.2500875 -2.1485064 -1.808861 -0.64253324
000130 d0 d3 7f be 48 fb 31 be 6f cf 60 bd f8 7a b8 3c
       -0.24983144 -0.17381012 -0.054885324 0.022519574
000140 5e 61 74 3e fa 5d 88 3e ba bc 57 3e 76 f1 86 3e
       0.23865268 0.26634198 0.21068087 0.26356095
000150 08 2f 62 3e eb 39 84 3e 60 33 50 3e 98 1e da 3e
       0.22088253 0.25825438 0.20332098 0.42601466
000160 ec a8 82 3e d2 f8 57 3e 66 87 ff 3d 08 6c 26 3d
       0.25519502 0.21091011 0.12476997 0.04063037
000170 c3 fc a0 be 80 5c 51 c0 e3 61 52 c0 61 44 a8 bf
       -0.31442842 -3.2712708 -3.2872245 -1.3145868
000180 c4 df fe bf 10 95 40 bf 46 c3 39 bf 4a 51 af bf
       -1.9912038 -0.7522745 -0.7256359 -1.3696682
000190 cf 33 0a 40 dc e3 6b be eb 48 24 c0 11 61 66 c0
       2.1594121 -0.2303614 -2.5669506 -3.5996745
0001a0 6b 1b 87 bf 4c 50 7a c0 ad ea 21 c0 3b 19 a1 bc
       -1.0555242 -3.911151 -2.5299485 -0.019665351
0001b0 4c cc 38 3f 61 cf fd 3e 69 3f 4d 3e 5e 25 88 3e
       0.7218673 0.4957228 0.2004372 0.2659101
0001c0 12 a8 81 3e 68 b0 5e 3e a6 e1 5c 3e ce c4 7b 3e
       0.2532354 0.21746981 0.21570453 0.24586794
0001d0 c9 6c 38 3e c2 25 8d 3a 05 2a f8 3d 52 c3 e5 bd
       0.18010248 0.0010768699 0.121173896 -0.11218895
0001e0 ee c2 1b 3f 2e 04 a8 bf 78 ff d4 bf 84 9b ec bd
       0.60844314 -1.3126276 -1.6640463 -0.115531
0001f0 83 24 0c c0 a7 38 15 3e 93 ec dd be e2 3e 96 3e
       -2.1897285 0.14572392 -0.43344554 0.2934485
000200 49 01 9f bd 22 5b 70 3b 78 67 44 c0 b9 c9 e1 bd
       -0.07763917 0.0036675413 -3.0688152 -0.11024804
000210 fb f6 7f 3f 73 03 43 c0 3e 21 87 bf a9 d8 de 3f
       0.9998624 -3.0470855 -1.055702 1.740987
000220 8f 01 b3 bf 65 06 ae bf 25 97 11 be 9e cb 6a 3e
       -1.3984851 -1.3595701 -0.14217813 0.22929236
000230 66 c5 6e 3e 2c 33 4a 3e 1a 0e 75 3e ea 88 6f 3e
       0.23317489 0.19746083 0.2393116 0.23392072
000240 1a 88 c6 be 5d c1 8b bf 1a 95 7f bf 56 92 8f 3f
       -0.38775712 -1.0918385 -0.99836886 1.1216533
000250 43 37 25 3f 4e 7f f7 be be 27 1f 40 8e 80 36 bf
       0.6453745 -0.48339313 2.4868007 -0.7128991
000260 b5 61 f1 bf e0 10 e1 3f 39 38 4b 40 bf dc cb 3f
       -1.8857943 1.7583275 3.1753066 1.5926741
000270 d4 ec e4 3f 59 ca 71 40 78 8d f3 3f e0 58 ab 3f
       1.7884774 3.7779753 1.9027548 1.3386497
000280 3b 29 0a bf d5 47 7e bf e9 1a 87 bd 64 c9 d1 3f
       -0.5396916 -0.99328357 -0.065969296 1.6389585
000290 d6 f2 c6 bf 8f 9e 35 c0 e9 90 37 bf 28 da bc be
       -1.5542858 -2.8378026 -0.7170549 -0.3688519
0002a0 66 63 57 3e 42 7a 87 3e 84 c6 fd 3c fe 26 71 3e
       0.21034011 0.26460463 0.030978449 0.2355003
0002b0 63 df 26 bf 15 b8 99 bf d7 c4 47 3f 48 8f f8 3f
       -0.6518461 -1.2009302 0.7803473 1.9418726
0002c0 6e 3b 4b bf f4 22 03 c0 74 ae ca 3e 6f ef 69 bf
       -0.7938756 -2.0490084 0.39586222 -0.9138097
0002d0 69 71 9b 3d af d9 60 3f 44 34 8c 3f 40 1e c9 3f
       0.07589991 0.8783216 1.095345 1.5712357
0002e0 51 70 ca 3f 1a 8b 37 40 5b 2e 32 40 ad bc 30 40
       1.5815526 2.867865 2.7840793 2.7615159
0002f0 87 cb 38 40 9b 8f 7c 40 37 af 3e 40 55 57 4e 3e
       2.8874223 3.946265 2.9794443 0.20150502
000300 e8 de 74 c0 e2 6a d7 c0 bc 1b 44 c0 f3 bb 54 bf
       -3.826105 -6.731797 -3.0641928 -0.8309929
000310 44 c2 65 3e 34 9c 64 3e 2a 3f 53 3e 2b 15 a5 3d
       0.22437388 0.22325212 0.20629564 0.08060678
000320 e3 bc 8f bf 16 12 37 bd 29 6b 11 40 98 b4 46 be
       -1.1229519 -0.044694982 2.2721655 -0.19404829
000330 f1 31 c8 c0 78 45 8c bf 00 bc 60 bf 13 10 90 3e
       -6.2560964 -1.09587 -0.87786865 0.28137264
000340 97 8f 46 be b2 f0 d5 3f bf 7e 4b 3f 4b ec 91 3f
       -0.19390713 1.6714079 0.79490274 1.1400236
000350 34 68 1a be ee df 5a 40 0d 4f 27 40 ca 00 72 40
       -0.15078813 3.4199176 2.6141999 3.7812982
000360 10 67 05 40 c0 dc 7c 3f cb ec 0f 3d bd fa 9b 3f
       2.0844154 0.9877434 0.035137933 1.2185894
000370 4f c9 ef bf 2c ba a5 c0 da f5 75 c0 66 a7 2f be
       -1.873331 -5.178976 -3.8431306 -0.17153701
000380 44 f0 7d 3e ea 18 4f 3e 08 1a 67 3f 13 00 af 3f
       0.24798685 0.20224348 0.90274096 1.3671898
000390 10 59 b3 bf 48 5e f0 3e 37 32 02 40 57 dd 67 bf
       -1.4011555 0.4694693 2.0343149 -0.9057211
0003a0 be 26 e8 be e9 4d 66 bf 9f e2 7e 3e 3b e4 60 3e
       -0.45342058 -0.8996263 0.24891137 0.21962063
0003b0 93 a8 f5 3f 6c 9e f9 bc e7 c9 ce 3f a0 6b 81 40
       1.919207 -0.03047105 1.6155366 4.044388
0003c0 c0 e9 d1 40 f0 6e 6f 40 82 2c 13 40 4b 4f c9 3f
       6.559784 3.741146 2.2995915 1.5727323
0003d0 85 3e ec 3f 39 4f a8 3f 40 90 3c 40 df 82 a3 40
       1.845658 1.3149177 2.9463043 5.1097255
0003e0 66 41 09 3f c6 e1 8f c0 2c c4 de bf 9a b3 38 3e
       0.53615415 -4.49631 -1.7403617 0.18037263
0003f0 64 97 69 3e 8f 09 4d 3e ef 8c 06 3f e1 34 b2 bc
       0.22811657 0.20023178 0.525588 -0.02175373

bias f4 [10]
000000 4c 3f 84 bf d1 c1 ef be 8d a1 8f 3f 34 c2 00 3f
       -1.0331817 -0.46827558 1.1221176 0.5029633
000010 dd 52 b0 be fc b3 68 40 d1 90 91 be c5 9b c2 3f
       -0.3443822 3.6359854 -0.284308 1.5203787
000020 75 bf a6 bf 93 79 3e bf
       -1.3027178 -0.7440426
